checkpoints/loss_flag2_lr0.0001_dm512_test_PatchMixer_a1custom_ftMS_sl96_pl1_p16s8_random2021_0/checkpoint.pth (torch, 124770 bytes, 32 tensors)

model.PatchMixer_blocks.0.Resnet.0.weight f4 [12, 1, 8]
00000000: 2763 84be 12b4 1a3c 9ac8 2c3e d9ee 193e
00000010: 93b2 483d 0b7c 74be 9c32 a6be 270c a93e
00000020: d3b7 14be fdf1 90be b16a 5d3e c5ce b0be
00000030: c6f1 673e 456a 88be 2a74 313e bb1b cebd
00000040: 0f22 223c f798 14be 484e 4d3e 05ac 2b3e
00000050: 6b10 5e3e 5629 0dbe 6883 b33e fb7f 073b
00000060: 01a7 b7bd fdeb a5be 66fc 723e cb77 9fbe
00000070: 656d 68be 062a f8bd 6946 073e 73b8 0e3e
00000080: 539b 6f3e c876 653c 9e82 303e a8db 6e3e
00000090: 2dd0 abbe adea 97be 8679 afbe 3c5f 7fbe
000000a0: 6e2b 343e cb89 a03e c0de fb3d b5e7 8bbe
000000b0: 72e7 303e 6c07 4c3e 3128 a13e 3c19 a4be
000000c0: 08c2 45bd bfbb 3abe 93f1 9c3e f116 4b3e
000000d0: faee 323d 509c c03c 74c3 1b3e 0a81 8ebe
000000e0: 6bb7 13bd 0c6e 87be 7fce 003e a0b7 dd3d
000000f0: 7262 9dbe 279e 73bc 3237 293e 68fc 363e
00000100: 469b aa3e 384c a3be 41cf ddbd 84f4 13be
00000110: dbeb 98be d4db acbe bf60 85be 274f 283e
00000120: fb20 9bbe 2025 26be fa3a 71be b70c 8bbe
00000130: cabd a23e 9c66 27bd 268c f0bd 9929 a53e
00000140: 76bd 51be 3b73 1bbe d6d9 ecbd c5f8 70be
00000150: 7c8b 2fbe 243d adbd 4a93 d23c 501b 53be
00000160: d871 56bc 1ac5 b23e 1ee5 e33b 245e 29bd
00000170: b349 b1be aad6 83be ff35 363e 29af 5a3e
-0.25856897 0.009442346 0.16873398 0.1503252 0.048998427 -0.23875444 -0.32460487 0.33017084
-0.14523248 -0.28309622 0.21622731 -0.34532753 0.22650823 -0.26643577 0.1732947 -0.10063883
0.0098958155 -0.14511476 0.20049393 0.16764839 0.2168595 -0.137853 0.35061193 0.0020675648
-0.089674 -0.32406607 0.23729095 -0.31146082 -0.2269798 -0.1211739 0.13210453 0.1393755
0.23399095 0.01400537 0.17237327 0.2332598 -0.33557263 -0.2967123 -0.34272403 -0.24938673
0.17594692 0.31355128 0.122983456 -0.27325216 0.1727579 0.19924706 0.31475976 -0.32050502
-0.048280746 -0.18235682 0.30653057 0.1983297 0.043684937 0.023512036 0.15211278 -0.27832824
-0.036063593 -0.26451147 0.12578772 0.10826039 -0.3073917 -0.014869249 0.16524962 0.17869723
0.3332159 -0.31894088 -0.10830546 -0.14448744 -0.29867443 -0.33761466 -0.26050374 0.16436444
-0.302986 -0.162251 -0.23557654 -0.27158138 0.31785423 -0.04086934 -0.11745481 0.322583
-0.2048243 -0.15180676 -0.115649864 -0.23532398 -0.17143053 -0.08458927 0.025704999 -0.20615888
-0.013088666 0.34916002 0.006954803 -0.041349545 -0.3462654 -0.25749713 0.17794035 0.21355881

model.PatchMixer_blocks.0.Resnet.0.bias f4 [12]
00000000: 3194 aabe 4e2e 9f3d d625 903d 77c3 0fbe
00000010: 9ead 8b3e 21c5 513d b01b 8cbe fbde 973e
00000020: 0089 273e 1cc5 2bbe d6a1 e73c f4e8 813e
-0.33316186 0.07772504 0.07038467 -0.14039408 0.27280897 0.051213387 -0.27364874 0.29662308
0.16360855 -0.1677441 0.028275412 0.25373042

model.PatchMixer_blocks.0.Resnet.2.weight f4 [12]
00000000: 7aad 7f3f 0ac6 7f3f a850 7f3f 50e4 7f3f
00000010: e69a 803f 42c9 7f3f 7179 803f fe7e 7f3f
00000020: 369f 7f3f f23e 7f3f b728 7f3f 4d77 803f
0.9987408 0.9991156 0.99732447 0.9995775 1.0047271 0.9991647 1.0037061 0.9980315
0.9985231 0.9970542 0.996715 1.0036408

model.PatchMixer_blocks.0.Resnet.2.bias f4 [12]
00000000: 0ced 053a cff9 8a3a 7ef6 0d3a f085 a6ba
00000010: 68f1 cd39 a05a ceba 071d 46bb 21fa a738
00000020: 5adc 0d3b e6db 893b d5c3 4d3a c7f3 f0ba
0.000510887 0.0010603013 0.00054154533 -0.0012704711 0.0003928051 -0.0015743561 -0.0030229704 8.009771e-05
0.0021646232 0.004207122 0.00078493106 -0.0018383198

model.PatchMixer_blocks.0.Resnet.2.running_mean f4 [12]
00000000: 1dee 82bd befb c83d bdc9 923d 7252 c2bc
00000010: c629 5b3e be5e 9f3d f11d a7bd 5a7f 543e
00000020: 486e 193e 4c45 6abc e239 553d 2157 673e
-0.06393073 0.09813641 0.07167385 -0.023720954 0.21402654 0.077817425 -0.08160008 0.20751706
0.14983475 -0.014298748 0.052057154 0.22591831

model.PatchMixer_blocks.0.Resnet.2.running_var f4 [12]
00000000: 2175 d83c 0d53 6e3d 6d91 f83c c3c1 bf3c
00000010: c8dd 9f3d 0a3f 523d c58a 2a3c 8375 1b3d
00000020: 1061 933d 35c9 133d 9c09 023d 86e5 f93d
0.026423039 0.058184672 0.030342782 0.023407822 0.07805973 0.05132965 0.010409062 0.037953865
0.071962476 0.036080558 0.031747445 0.12201981

model.PatchMixer_blocks.0.Conv_1x1.0.weight f4 [12, 12, 1]
00000000: 6ba8 623e 9904 073e c7dc 9c3d b0f2 70bc
00000010: dd39 3d3d 2e8c 54be 8440 673b 3445 8fbe
00000020: e106 293e 97a8 4dbe 9937 46be 4eb2 6e3e
00000030: 3bc7 b7bd f88b 3fbe 7ff1 67be 68cc 053e
00000040: 4ef5 81be 1c2d 633e a51e ba3d c3a6 883e
00000050: 31a2 eabd 8a44 81be 5890 efbc 0da9 6e3e
00000060: 230e 0fbe f6f6 88be 4eaf 643e 6d22 503e
00000070: f4dd 6e3e 8fe7 3d3e dd04 473c fd17 6ebe
00000080: f008 4cbe 9a86 08be 6149 3ebe 24c2 66be
00000090: a311 5e3e 8366 5a3e 0adf 3dbe 143c 8ebc
000000a0: 58ba 903e 2d58 113e e5b1 6cbd cb81 a5bd
000000b0: 7f4b 153e e0c9 e3bd 2309 5fbe c959 a6bd
000000c0: e0e0 393e 23c1 edbd 6275 4dbe debe d9bd
000000d0: f10c dfbd f1d0 59be 52b7 b1bb 178b 133e
000000e0: b08f 893e 0eca 9e3d 263d 6c3e 19b8 ee3d
000000f0: 7af0 95bd 2fe8 5fbe 81cb 98bd 1246 0c3e
00000100: e48a 753d 83d4 9dbd ae0e 3ebc 2419 ce3d
00000110: 56d3 27bd 6d6d 583e 5bf6 3bbe b88c 103d
00000120: 3a00 183e 956a 6b3e 0887 193d a294 953c
00000130: db60 823e 2dda 50be 9628 0abe f3a5 2abe
00000140: 092b 8e3e 1b9f 663c 1ecc 6fbe b056 083d
00000150: 9cac 8bbe 5ac4 203e ade3 663e 61f5 f93d
00000160: 7f11 75bd bc3e 25be 9e24 833e 63e6 4fbd
00000170: ff5d ec3d c41c 98bc ff13 713e 471d 49bd
00000180: 9dda 3a3e 2399 5cbe a420 76be 324e 4e3d
00000190: 7a54 7c3e 3355 40be 4ee2 463e db87 113d
000001a0: eff4 81be bb29 30be 0757 1dbd c257 333d
000001b0: bcbd 013e b0d6 843e d90e 853e 227c 73be
000001c0: 6879 263e 6dbe 94bd 48f6 7cbc fd73 8b3e
000001d0: 00c2 54bd 4230 f3bd 057b 223e b0b5 4a3b
000001e0: 975f b03d 6035 da3c 0505 8a3e e5ee 6b3e
000001f0: aa31 c03d 6260 fc3c 3fd9 b93d e790 e0bd
00000200: 20ac 293e 8726 6f3e 55df 663e dc82 24be
00000210: eeaf 07be 9339 7d3e c72e 6b3e 6353 333e
00000220: 5715 743e 0128 883e 6852 1dbe c358 69be
00000230: d6da 90bb 2f60 303e 5e6f 03be 3f02 34be
0.22134559 0.13185348 0.076592974 -0.014706299 0.04619776 -0.207566 0.0035286257 -0.27982485
0.1650653 -0.20083843 -0.19357146 0.23310205 -0.08973547 -0.18705738 -0.22650717 0.13066256
-0.25382465 0.22185177 0.09087876 0.2668973 -0.11456717 -0.25247604 -0.029243633 0.23306675
-0.13970236 -0.26750916 0.22332498 0.20325632 0.23326856 0.18545364 0.012147156 -0.23251338
-0.19925284 -0.13332596 -0.1858268 -0.22534996 0.21686415 0.21328168 -0.18542114 -0.017362632
0.2826717 0.14193793 -0.05778684 -0.08081397 0.1457958 -0.11122489 -0.21780829 -0.08122594
0.18152189 -0.116091035 -0.20064309 -0.10632108 -0.1089114 -0.21271111 -0.005423465 0.14408527
0.26867437 0.077533826 0.23070201 0.116562076 -0.07321258 -0.21865915 -0.0746069 0.13698605
0.05994691 -0.07706549 -0.01160018 0.10063389 -0.04097303 0.21135493 -0.18355696 0.03529045
0.14843836 0.22989877 0.03748229 0.01825935 0.2546452 -0.20395727 -0.13492045 -0.16664867
0.27767208 0.01407602 -0.23417708 0.033285797 -0.27280128 0.15699902 0.22547789 0.122050054
-0.05983114 -0.16137213 0.25613874 -0.050756823 0.11541366 -0.018568404 0.23542784 -0.049100187
0.18247457 -0.21542792 -0.24035889 0.05036754 0.246416 -0.18782501 0.19422266 0.035529952
-0.25382182 -0.17203419 -0.038413074 0.043784864 0.12670034 0.25945044 0.2598789 -0.23777822
0.1625725 -0.07262883 -0.015439577 0.2723693 -0.051942825 -0.11874439 0.1586724 0.0030931048
0.08611982 0.02663678 0.26956955 0.2304035 0.09384473 0.030807678 0.090746395 -0.10965138
0.16569567 0.23354541 0.22546132 -0.16065544 -0.13250706 0.24728994 0.22967063 0.17512278
0.23836266 0.2659302 -0.15363467 -0.22787766 -0.0044206185 0.17224191 -0.12835452 -0.17578982

model.PatchMixer_blocks.0.Conv_1x1.0.bias f4 [12]
00000000: f825 93be af9c 123d 79c4 103d f7f8 1dbe
00000010: b35d e43d b698 ffbc 8cc6 6abe c6f7 1cbd
00000020: ee9f 92be 4ee3 8d3e 3725 88be 5bfd cc3d
-0.28739905 0.035793956 0.03534362 -0.15427004 0.11150684 -0.031200748 -0.22927302 -0.038322233
-0.28637642 0.27712482 -0.26590893 0.10009261

model.PatchMixer_blocks.0.Conv_1x1.2.weight f4 [12]
00000000: 3773 803f 635a 803f 6995 7f3f 0b05 803f
00000010: 845e 7f3f 43c0 7f3f 7cdf 7f3f b99b 7f3f
00000020: 16c3 7f3f bfba 7f3f d0b8 7f3f 9394 7f3f
1.0035161 1.0027584 0.99837357 1.0001539 0.99753594 0.99902743 0.99950385 0.9984699
0.9990705 0.99894327 0.99891376 0.9983608

model.PatchMixer_blocks.0.Conv_1x1.2.bias f4 [12]
00000000: a114 daba 8e12 edba dbdc 343b 66a4 9a3a
00000010: cc75 603a f4b4 03bb 6a26 563b 955b 8fba
00000020: 3f53 b036 b487 c739 c811 d93a b85c 9e39
-0.0016638228 -0.0018087195 0.002759746 0.0011798262 0.0008562475 -0.002009687 0.0032676705 -0.0010937328
5.2549e-06 0.00038057344 0.0016561085 0.0003020519

model.PatchMixer_blocks.0.Conv_1x1.2.running_mean f4 [12]
00000000: 454b e73c c6cf 543e d3d5 573e ddc8 843d
00000010: 2f1d 4f3e 9d1c 4e3d f721 3b3d 22e6 e03d
00000020: ec82 183d b2a4 9a3e a221 b63c 7af9 803e
0.028234133 0.20782384 0.21077661 0.06483624 0.20225976 0.050320257 0.04568669 0.10981394
0.03723423 0.30203778 0.022232834 0.25190336

model.PatchMixer_blocks.0.Conv_1x1.2.running_var f4 [12]
00000000: fd14 cc3d 2d19 653e 9ab3 6d3e 7878 013e
00000010: b907 363e d55c 4d3d f552 d53d 024a 043e
00000020: 1a38 dd3d afe3 773e 8d6a d93d 8133 923e
0.09964941 0.22372885 0.23213044 0.12643611 0.17776383 0.05013736 0.104162134 0.12918857
0.10801716 0.24207948 0.10616026 0.2855492

model.PatchMixer_blocks.1.Resnet.0.weight f4 [12, 1, 8]
00000000: 1944 4abe 7c92 64be fbd8 3d3e cef2 223e
00000010: f857 a73e 97a0 943e d318 06be 8705 78bd
00000020: 0d15 963d c4e5 813e 2123 10be fee8 53be
00000030: c9e7 513e ff7d ab3e f1e6 aa3c f75a 86be
00000040: 0382 54be 8adc a3be 6e68 dbbd 14ed 113e
00000050: 303d 4c3a 98ab 173e e9c3 9d3d 7b70 963e
00000060: 6ba3 263e 545e 823e 5e41 053e 7012 96be
00000070: 7fd5 3e3e c4a6 b23e c0f0 623e 1ea9 aebd
00000080: bc6b 91bd 38e4 2a3e 9646 84be 411b 69be
00000090: 44a8 b03d 39f9 053e 01a3 b03d 2d3a c5bd
000000a0: 2dff 04be f626 afbd 1bd5 96be 15c6 2fbd
000000b0: f720 503e 8e50 96be 5532 bcbc 3805 aa3e
000000c0: 8bb2 67bc b1ce 0b3d a9b4 0d3e 237b e5bd
000000d0: 6c74 a5be 6fdc e3bd 5205 a53e f463 e5bd
000000e0: 81c7 8c3e ad2b 2b3e 3f83 bf3d 903f 72be
000000f0: 95a0 853e 4f65 b13e 1f9a adbe 0c8e 9f3e
00000100: 8fb9 9bbe 0dd2 85be 6166 3f3e 451e 783e
00000110: d468 d2bd baca 06be 8ddd babd fdb0 403c
00000120: 9990 033e 0d60 d7bd fbc4 a5be fdae 9bbe
00000130: d6cc 983e c833 66be d8a7 54be cbe4 0a3e
00000140: 8307 403e c9cf 40be 7ecb 99bd 6554 42bd
00000150: 94b8 8dbd 16d7 9bbd 5ae3 803e f7b7 a3be
00000160: 3dbf 383e aa74 253d 76c1 8d3e 4537 45bd
00000170: 49b5 e7bd 1e8f 9abd dab9 25bd 4b60 b3bd
-0.1975254 -0.22321504 0.18539803 0.15912935 0.32684302 0.2902877 -0.13095407 -0.060552146
0.07328234 0.2537061 -0.140759 -0.20694348 0.20498575 0.33494565 0.020862075 -0.26241276
-0.2075272 -0.32004195 -0.10713278 0.14250594 0.00077911 0.14811552 0.077033825 0.2938269
0.16273277 0.25462592 0.13013217 -0.29310942 0.1863613 0.34892857 0.22162151 -0.0852835
-0.07100627 0.16688621 -0.25835103 -0.22764303 0.08625844 0.13083352 0.086248405 -0.09630237
-0.12987967 -0.08552353 -0.29459462 -0.042913515 0.20325075 -0.29358333 -0.022973219 0.33207107
-0.014141689 0.034132663 0.13838448 -0.11205127 -0.32315385 -0.11126029 0.32230622 -0.11200705
0.2749596 0.1671588 0.09351205 -0.2365706 0.26099077 0.34647605 -0.33906648 0.3116306
-0.30415007 -0.2613682 0.18691398 0.24230297 -0.10273901 -0.13163272 -0.09124289 0.011760947
0.12848128 -0.10516367 -0.32376847 -0.30406943 0.29843777 -0.2248069 -0.20767152 0.1356384
0.18752865 -0.18829264 -0.07509516 -0.047443766 -0.06919971 -0.07609384 0.25173455 -0.31976292
0.18041702 0.040394463 0.2768666 -0.048148412 -0.11313874 -0.07546829 -0.040460445 -0.08758601

model.PatchMixer_blocks.1.Resnet.0.bias f4 [12]
00000000: a9c5 2e3e a861 b03e 4abc 15be ceae 8bbd
00000010: 7ed9 9dbc 6c87 a63c 680f db3c b01f 823e
00000020: 5e86 8e3d 88ef 973e 3895 2b3e 032f 13be
0.17067589 0.34449506 -0.14622608 -0.06820451 -0.019268747 0.020328246 0.026740745 0.254148
0.06959222 0.29674935 0.16756141 -0.14373402

model.PatchMixer_blocks.1.Resnet.2.weight f4 [12]
00000000: 975e 803f 2f21 803f 140c 803f 070f 7f3f
00000010: 3e1c 803f 366a 7f3f 6b84 7f3f 8ae7 7f3f
00000020: fc84 7f3f ae0c 803f a9a7 7f3f a1f2 7f3f
1.0028867 1.0010127 1.0003686 0.99632305 1.0008619 0.9977144 0.9981143 0.99962676
0.99812293 1.000387 0.99865204 0.999796

model.PatchMixer_blocks.1.Resnet.2.bias f4 [12]
00000000: dc7f f2ba a773 1fbb c16f 293b 7734 a5b9
00000010: 2b64 ad3a 2bc6 1fbb 9263 733b 2ba8 3a39
00000020: 7085 76ba 4538 aa3a a931 f53a 497c 5a3a
-0.001850124 -0.0024330409 0.0025853964 -0.00031510342 0.0013228705 -0.0024379592 0.0037138206 0.0001780099
-0.0009404039 0.001298674 0.0018706816 0.000833456

model.PatchMixer_blocks.1.Resnet.2.running_mean f4 [12]
00000000: b7f5 543e 8866 ac3e 91e6 bd3c 6bc7 e13d
00000010: 6933 823d ae8c 023e f616 ce3d 1323 983e
00000020: 21f8 063e a4a7 a53e d839 293e 6b19 8cbc
0.20796858 0.33671975 0.023181232 0.11024364 0.06357462 0.12748978 0.10062973 0.2971426
0.13180591 0.32354462 0.16525972 -0.017101964

model.PatchMixer_blocks.1.Resnet.2.running_var f4 [12]
00000000: 1a11 673e 0835 8a3e 355a 8b3d 6ced 653e
00000010: b036 4e3d f9fd fd3d 5e2b af3d 6e43 a23e
00000020: bdfe ae3d 6bb4 4a3e dbe0 8f3d b3df 1a3d
0.22565117 0.26993585 0.06804315 0.2245385 0.050345123 0.12401957 0.085531935 0.3169207
0.08544681 0.19795386 0.0702531 0.037810992

model.PatchMixer_blocks.1.Conv_1x1.0.weight f4 [12, 12, 1]
00000000: 8863 88be 0a71 bdbd bfd5 213c 0772 ea3d
00000010: dbac 82be 4d8f 05be 9046 183e a336 75bd
00000020: f613 573e 6f0b 81be 93d9 223e 659f 68bd
00000030: 1584 f9bd e5b1 263d 813d 553d 2c71 debd
00000040: 5224 5b3e 0c4c b7bd ef05 2d3d 7873 65be
00000050: 9aca a8bd b092 803e 89a0 e23b a479 223e
00000060: e043 3b3d 38de 6c3e 926e 31be f405 9c3d
00000070: 870f 1ebe 28e2 d6bc 971b 86be d516 563e
00000080: 9af9 c03d 61c7 2cbd d524 e7bd b68e 783e
00000090: 7a34 4abe c11e 603e 3320 0cbe 6412 55bc
000000a0: 068c 8e3e 54e0 3a3e cc8b 5abe 8be9 3e3e
000000b0: 6a47 223b c44c 363e c414 263e dd1a c53c
000000c0: 57a0 573c d5bd 113e e6f5 51be a08d 443e
000000d0: 84e2 37be 211f e43d f7f2 7f3e dd1b 5a3e
000000e0: c52e 01be 3471 8a3e b35f 2cbe 2c22 86bd
000000f0: fa9e 3bbe b3fe 86be 48d7 0d3d 81e1 febd
00000100: ea29 74be ec20 583e d201 3dbe d779 6b3d
00000110: cb91 8a3e 1b87 853e caff 973d 6919 2e3d
00000120: 0e2b b63d 7e24 873e 7c2b 0a3e ee1c 623e
00000130: dbd8 3bbe 50b0 033e 9b4f 373e b6ab 333e
00000140: 85a7 1bbe 53af 583e 5fba 193c c99b 88be
00000150: 15b1 623e c017 6b3e 1461 23be 36fd 43be
00000160: 0d9b 363e 2f8a 443e 0be8 69be 186a 89be
00000170: bb86 b6bd 8d70 55be d60d 91bd fe84 0a3e
00000180: 1224 13be 25c6 883e a278 b8bd 9e85 e4bd
00000190: 8648 8d3e 4e14 bcbd 2b73 563e bd53 a33d
000001a0: 9611 433e 419e 813e 7482 87be 6e91 74be
000001b0: 5616 c93c 879b 56bd 440e d13d db24 433d
000001c0: c20e 1e3e 6c0a da3d 918a 843e ba5d 3a3e
000001d0: 1c7c 573e b87c c23d 41a6 7e3e 8939 853e
000001e0: 1637 02be 22c6 cdbd 53ff 50be cd6b 7fbe
000001f0: f394 553e 5779 243e 9e33 503e 6f5b 8f3e
00000200: 0ac2 71be db6b 93bd 7e92 943d 1980 40be
00000210: 3cf1 38be e217 eb3c dfcb 073e 9d1f 4bbe
00000220: 230b 7c3e a57b b33c 1a22 1fbc 7201 5a3d
00000230: b1fe 05be 4427 91bc 8bd1 0b3e ffab b13d
-0.26638436 -0.09250076 0.009877621 0.1144753 -0.25522503 -0.13042946 0.14870667 -0.05986656
0.21003708 -0.25204036 0.1590331 -0.056792635 -0.12183396 0.040696997 0.052060608 -0.108614296
0.21400574 -0.08950052 0.042241987 -0.22407329 -0.08241768 0.25111914 0.00691611 0.15866715
0.045719028 0.23131645 -0.17327335 0.07618323 -0.1543561 -0.026230887 -0.26192924 0.20907147
0.09422608 -0.04218233 -0.11286322 0.2427319 -0.1974658 0.21886732 -0.13684158 -0.013004873
0.27841204 0.18249637 -0.21342391 0.18643777 0.0024761804 0.17802721 0.16218859 0.024060661
0.013160787 0.14232571 -0.20503959 0.1919465 -0.17957503 0.1113875 0.24995027 0.21299691
-0.12615497 0.27039492 -0.16833381 -0.065494865 -0.18322363 -0.26366195 0.034629136 -0.12445355
-0.23844114 0.21106309 -0.18457726 0.057489242 0.27064356 0.2607964 0.07421835 0.0425047
0.08894931 0.2639503 0.1349315 0.22081348 -0.18344443 0.12860227 0.17901461 0.17545971
-0.15200622 0.21160631 0.009382813 -0.26681355 0.22137864 0.22958279 -0.15955001 -0.19139561
0.17832585 0.19193338 -0.22842424 -0.26838756 -0.089124165 -0.20843716 -0.07082717 0.13527295
-0.14369228 0.26713672 -0.09007384 -0.11158298 0.27594393 -0.0918356 0.2094237 0.07974956
0.19049677 0.2531605 -0.26466715 -0.23883602 0.024546783 -0.052394416 0.10207799 0.04764257
0.15435317 0.10646519 0.25886968 0.18199816 0.21043438 0.094964445 0.24868108 0.26020458
-0.12716326 -0.100475565 -0.20409898 -0.24943466 0.20857601 0.16061912 0.2033219 0.27999446
-0.23609176 -0.07198306 0.07254504 -0.18798865 -0.18060774 0.028697912 0.13261364 -0.19836278
0.24613623 0.021909544 -0.00971272 0.053224035 -0.13085438 -0.017718919 0.13654153 0.08675384

model.PatchMixer_blocks.1.Conv_1x1.0.bias f4 [12]
00000000: db8e 643e c357 64be 4b11 16be 4eeb 883d
00000010: 7492 123e ed54 8f3e b9ed d03d a206 553e
00000020: 4083 ce3d bf5c 913e d721 11bd 1710 aebd
0.2232012 -0.22299103 -0.14655034 0.06685506 0.1431368 0.2799448 0.10201592 0.20803311
0.10083628 0.28391072 -0.035432663 -0.08499163

model.PatchMixer_blocks.1.Conv_1x1.2.weight f4 [12]
00000000: b6f1 7e3f ccea 7e3f cef5 7e3f aaab 7e3f
00000010: cb81 7e3f 80f8 7e3f c9a3 7f3f bd25 803f
00000020: 06f8 7e3f 598b 7e3f afad 7e3f adc3 7e3f
0.9958757 0.9957702 0.9959382 0.9948069 0.994168 0.9959793 0.9985929 1.0011517
0.99597204 0.9943138 0.9948377 0.9951733

model.PatchMixer_blocks.1.Conv_1x1.2.bias f4 [12]
00000000: 6900 cf39 688f 7a3b f55e ac3a 3962 d43a
00000010: 5d38 4339 e897 b23a ee61 3c3a 158e 40ba
00000020: c2cb 49b9 a169 1c3a fecf 6db9 b925 9d3a
0.00039482422 0.003823245 0.0013150858 0.0016203589 0.00018617646 0.0013625594 0.00071862235 -0.00073453906
-0.0001924476 0.00059666677 -0.00022679564 0.0011989392

model.PatchMixer_blocks.1.Conv_1x1.2.running_mean f4 [12]
00000000: 530d 983e f8ed 223c fefa 4e3d 69c9 5b3e
00000010: a5f7 833e 8c30 c73e bf5e 5d3e d58f a73e
00000020: 150e 963e c326 d13e cca0 713e ef4b d23d
0.29697666 0.0099444315 0.050532334 0.2146355 0.25774875 0.38904226 0.21618174 0.32726923
0.2930762 0.40849885 0.23596495 0.102683894

model.PatchMixer_blocks.1.Conv_1x1.2.running_var f4 [12]
00000000: 3149 803e fe49 733d 1930 f23d e6e0 793e
00000010: b5ff 8a3e b0de c83e bd37 873e 5c68 983e
00000020: 8711 aa3e 9e2c 453f 7f2a 7d3e 19d9 083e
0.2505584 0.059396736 0.1182558 0.24402198 0.27148214 0.39232397 0.26409712 0.2976712
0.33216497 0.77021205 0.24723242 0.13364066

model.W_P.weight f4 [512, 16]
00000000: 9bc8 60be 12d5 3c3e 9c62 583d 559d 3c3d
00000010: fc78 f53d 9410 133d e0fc 263e d1c7 26be
00000020: bda1 5cbe 73ca 50be 2c03 1b3c 7a71 133d
00000030: c7be 363d 2a31 cabd 1099 61be 47c8 4abe
00000040: f8bd 2dbe 6e8c 3a3e 13e5 febc 3c66 973d
00000050: a8df d93d 9b2d 593e 7002 db3d 2973 1e3e
00000060: d9ff 143c cf7c 59be 927b 43be d2c0 003c
00000070: 8c7a fb3d 4802 3dbe 8618 adbc 8c3e 0f3e
00000080: 9386 403e 1b77 2ebc b6b2 c8bd 4f84 153d
00000090: 8428 22be b6d1 573d 8086 6bbe a495 a33d
000000a0: 46c8 0cbe 7ff8 103e d9f5 c83d 800c 75bd
000000b0: 7bb4 2a3e aaca 6dbe 37c7 343e 820d 01be
000000c0: 5312 a53d 3e6a 443e 1155 6f3e d2ea 50be
000000d0: 5fa7 98bb ab15 b93d 13f5 dabd e489 e7bd
000000e0: 91db 353e ae8d 44be 4912 47be e7c0 71be
000000f0: 188d 2b3d a6a1 133e 6123 703e a2eb 5e3e
00000100: 1321 b0bd 6c6b 29bd cd6b 44be 3ec2 0d3d
00000110: 9f21 1ebe 8351 5c3e b12f 7abe f5e6 703e
00000120: 4f04 80be 159e 46bd a962 19be f4a9 c23d
00000130: 24a7 0ebe 5e74 3abe e8e0 13be a37b 423e
00000140: 3c99 773e 9ce8 4fbe db5b 343d 5325 c3bd
00000150: 166f 763e 070e 6bbe dc74 493d 175f d73d
00000160: 62ee 5cbe 6d27 b43a e101 9dbd 7f9c 1dbe
00000170: 3230 22be b063 9ebc 0e6a 1ebe 49b9 e83d
00000180: 41d3 3cbe 25cc 7e3c 3992 a6bd b4af 93bd
00000190: 9149 693e e851 06be a66b 73be 8c72 5ebe
000001a0: b2b5 463e ec66 173d 1e19 90bd b181 e3bd
000001b0: 7943 2cbe 7bf0 cabd 0709 503d 4980 c0bd
000001c0: 903c 743e 5f74 6ebd 9f01 4c3d f60c f33d
000001d0: 63d7 1a3d a21a 28be b283 d0bd 8d2c 2ebe
000001e0: 90e2 f4bd 1c86 93ba 659f 21be 5fa1 d63d
000001f0: cea0 083e d2be 0f3e 6a7a 673e f3ad b4bd
00000200: 2935 2e3c 8437 0cbe 3064 463e 3393 a1bc
00000210: 6841 793e f9e4 373d 23c7 37bd 8a7f 3dbe
00000220: 11a5 52be 989c 7d3d 7fd1 0dbe d8a8 9d3d
00000230: f639 2bbd 1376 03be 54c7 263e 65ea 22be
00000240: c581 413d efed 1abe 539d 713e 5ac3 2fbe
00000250: 1a90 5c3d 6f00 493e 583d 29be 3a4a c33d
00000260: cf79 50be 88b9 533e 461d 433e d061 22be
00000270: ebac 49bd 6020 223e dc09 563e 445c 4bbe
00000280: a3e2 fb3d ed85 08bd 2606 01be 5d2c 35be
00000290: 828a 923d 8a09 de3d 258e 24be 1ed0 793e
000002a0: 2014 9c3d a5e7 b6bc eb4e 24be f97e c9bc
000002b0: a62b 9b3c fddf 2cbc e9d7 46be 85dd e33d
000002c0: e541 363e 752e 2abe 177a d9bc 8fdb f13b
000002d0: a7ae 483d bf00 ae3d 5458 37bc a0b1 603e
000002e0: f976 bd3d 4d49 223e a022 053e 4750 273c
000002f0: c61e ccbb 36a4 d8bc d9ad 2abe 9e93 0ebe
00000300: 7897 60be c098 67be 216a 5f3d 78e2 a3bd
00000310: 2d44 41be 01d1 683e e841 ad3b 7d07 bb3d
00000320: d0c8 323e 2279 19bc e5a6 e4bc 47b6 25be
00000330: a28c e93d f7d2 953d db04 8dbb 7982 9e3d
00000340: 97eb fcbd f84f 5d3e 51aa dabd 50c4 c53d
00000350: 53e6 e83d 8d98 6cbd 1a47 6bbe 31b7 bdbd
00000360: 5f44 4bbe 03f7 f7bd 9946 833d fb0a 35be
00000370: bd41 163e 12cb 1b3e 010b 00be 42ac dd3d
00000380: f2d7 413e 4f0c 583e 358b 03be 09f5 b73d
00000390: 0bc5 a1bd e1f3 eebd a870 f0bd 54d1 403e
000003a0: 7d3d e93d 37e9 753c 9534 a6bd b93d 80bc
000003b0: 9e1d 733c 64f0 573e 0ff4 ff3d 0f9d f23d
000003c0: c35f 0b3e 1f39 9f3d e610 dabd 1ff9 003e
000003d0: ccec f4bd 4ab2 3ebe a86f 69be 6276 883d
000003e0: 422c 093e d423 0bbd 8ed3 dfba 477d 583e
000003f0: da5b 7c3e ad5d 573e 4902 493e 393e 1dbe
-0.21951525 0.18440655 0.052828416 0.04604848 0.119859666 0.035904482 0.16307402 -0.16287161
-0.21546073 -0.20389728 0.009461205 0.03599689 0.044615533 -0.098726586 -0.22031045 -0.19802962
-0.16966999 0.18217632 -0.03111509 0.073925465 0.10638362 0.21208803 0.10693824 0.15473618
0.009094202 -0.21239017 -0.19090107 0.007858472 0.12279233 -0.18457901 -0.021129858 0.13988703
0.18801336 -0.010648514 -0.097997114 0.036503132 -0.15835768 0.05269023 -0.23000526 0.07987526
-0.13748273 0.14157294 0.09812517 -0.059826374 0.1667041 -0.23221841 0.1765412 -0.12602809
0.08060136 0.19181153 0.23372294 -0.20402077 -0.004658624 0.09037336 -0.106912754 -0.113055974
0.17759539 -0.19194672 -0.19440569 -0.23608743 0.041882604 0.14417133 0.23450996 0.21769574
-0.086000584 -0.04136221 -0.19181748 0.034609072 -0.15442513 0.21515469 -0.24432255 0.23525603
-0.25003287 -0.048490603 -0.14979042 0.09505072 -0.13930947 -0.18208453 -0.14441264 0.18992476
0.24179548 -0.20303577 0.044032913 -0.095286034 0.24065813 -0.2295457 0.04918371 0.10516184
-0.21575311 0.001374466 -0.07666374 -0.1539173 -0.15838698 -0.019334644 -0.15470144 0.11363465
-0.18439962 0.015551602 -0.081333585 -0.07211247 0.2278197 -0.13117182 -0.23771533 -0.21723384
0.19405249 0.03696339 -0.07036041 -0.11108721 -0.16822614 -0.09909149 0.05078986 -0.093994685
0.23851228 -0.05821645 0.049806233 0.118677065 0.037803065 -0.1641641 -0.10181369 -0.17009182
-0.11957276 -0.0011255178 -0.1578346 0.10479998 0.13342592 0.14037636 0.22605291 -0.08822241
0.010632792 -0.13693053 0.19374156 -0.01972351 0.24341357 0.0448961 -0.044867646 -0.18505684
-0.2057078 0.061916918 -0.13849448 0.0769822 -0.041803323 -0.1283801 0.16286975 -0.15909727
0.0472429 -0.15129827 0.2359517 -0.17164364 0.053848363 0.19629072 -0.16527307 0.09535642
-0.20358966 0.20676243 0.19054136 -0.15857625 -0.049237173 0.15832663 0.20902199 -0.19859415
0.12299087 -0.033330847 -0.12600002 -0.17692704 0.071553245 0.10841663 -0.16069849 0.24395797
0.07621026 -0.022327254 -0.1604573 -0.024596678 0.018941712 -0.01055145 -0.194183 0.11126236
0.17798574 -0.16619284 -0.026547475 0.0073809098 0.048994686 0.08496236 -0.011190493 0.21942759
0.09251208 0.15848275 0.1300149 0.010212011 -0.0062292544 -0.02644549 -0.1666788 -0.13923499
-0.2193278 -0.22616863 0.05454457 -0.0800218 -0.18873663 0.22735979 0.0052873977 0.09132288
0.17459416 -0.009367259 -0.027911613 -0.16182815 0.11403777 0.07315629 -0.0043035573 0.077397294
-0.12349623 0.21612537 -0.106770165 0.09656584 0.11372056 -0.05776267 -0.22976342 -0.092634566
-0.198503 -0.121076606 0.0640995 -0.1767997 0.14673515 0.15214184 -0.12504198 0.10823871
0.18930033 0.21098445 -0.12846072 0.089822836 -0.07898911 -0.1166761 -0.117402375 0.18829852
0.11388681 0.015009216 -0.08115498 -0.015654432 0.014838604 0.21087795 0.12497722 0.11846363
0.13610749 0.07774567 -0.10647754 0.12595032 -0.11959228 -0.186227 -0.227965 0.06663205
0.1339579 -0.033969715 -0.0017076598 0.2114154 0.24644414 0.21031828 0.19629778 -0.15355767

model.W_P.bias f4 [512]
00000000: 1b64 97bd a5eb 3bbe 0023 78be 17d3 4bbe
00000010: a0e7 71be 4807 5e3e 108f 8a3d 7bc0 4f3e
00000020: 3d7c 8bbd dd51 20be 90c4 c4bd 504c 703e
00000030: 4256 05be 2eee 573e c286 663c 5c0f 303e
00000040: 4af3 b23d 34a3 3c3e 5980 25be 2d81 bebd
00000050: f3dd b1bb 9590 1dbe cfa1 2e3e d718 efbd
00000060: 8af4 02be d48d 2abe d16d 663e 1d75 693e
00000070: 465c 01be f346 31be 6f40 9f3d a13d 093e
00000080: 466e e8bd a24c 753e a303 693d 1359 113e
00000090: 0b59 eabd 993c febd b003 57be b361 b93d
000000a0: aeea 3d3d bdcb 013e d726 26be c63e 3b3e
000000b0: 35af 64bd 275f 96bc f509 a0bc a390 1ebe
000000c0: 7a54 dc3d 2afe e43d ff3d e33d 733b cebd
000000d0: 450a 0cbe a03d 2cbe 0a50 e3bd 91d4 62bd
000000e0: 1b4e a9bd c5af 503e c6bc 5d3d ad0b 063e
000000f0: cd2f 323d da1e 2b3e 4bd7 a23a 313c 0cbe
00000100: 3d57 73be e036 ecbd 9d34 8cbd 3ae1 ac3d
00000110: a478 3e3b 478a 35be 53e6 103e 3180 4f3e
00000120: e616 0cbe a0f3 0dbe 7d4b eb3d c81e 93bd
00000130: a430 73bc c860 003e a321 243e 63d9 22be
00000140: 0514 a13d 6c6f b13d 6fa8 433d b437 4d3e
00000150: 567b 00be 69ae 883d 43c4 4bbe 2670 243e
00000160: d560 743e ef24 f33c db6a 05be d85e 5bbe
00000170: 3a30 06be dcb0 b63d 4685 05bd 901d 183e
00000180: 95b0 253e 8135 d43d eac3 71bd 2eb5 3a3d
00000190: 45c8 e2bd c6bf f63d f370 0f3e fd7c 413e
000001a0: 8606 1f3e ffbc 703e adc9 c83d 2bd3 a7bd
000001b0: ab8f e33d 557e 4bbd e1f0 453e 532b 473d
000001c0: ef4b 373e 1d04 a7bd 4723 833d aed6 18be
000001d0: fcf0 0abe 3a22 52be ca38 6c3e ddc9 4cbe
000001e0: 12d7 aa3d acd2 c3bd 6d27 bb3d f9cb 033e
000001f0: cde3 373e b2c4 3bbe a5eb 41be 63b0 0abe
00000200: fa85 32bc 2c25 7b3e 6a67 4b3e 0697 36be
00000210: 2e20 67be 487c 69be 3a90 ab3d c510 a8bd
00000220: 07a8 16be 6759 293e f325 c73c 65fc b13d
00000230: a705 f53c 50f8 203e ff7c 68bd c04c 783e
00000240: 33f4 b5bd be20 42be 44b0 7b3d a011 41be
00000250: 5095 933d 779b c1bc c45a 54be cece e1bd
00000260: 317a 793e dda3 ed3c a491 61be 3f85 4d3d
00000270: 3094 1d3d 08c9 99bc 54d2 9f3d cd9d 95bd
00000280: b4fe 103e 74ad 653e df90 3d3d 8ee1 773e
00000290: 1535 7cbe 7b8a 433e 32d1 94bb 2c8a 46be
000002a0: 7186 af3d 6dac f03d 2d1f ab3c bf20 2b3d
000002b0: 483d 0bbd 8740 afbd 7641 1f3d a685 863d
000002c0: 7dc8 293e c894 2cbc 84b2 35be d03d 933d
000002d0: a1ce 403e b54f 9fbd 8d83 0e3e 47d6 1e3e
000002e0: 2874 6d3e fd04 d4bc 96fd 5ebe b65f 6ebe
000002f0: cbe0 5c3e dd3c 3a3d 20b0 313d 5666 79be
00000300: 997d 7a3d dfbb 34be 27d0 bb3d ad19 1abe
00000310: f920 2c3d 468e 5fbe 64b2 5bbe eca9 f0bd
00000320: 02c8 6cbe e05d 523e ff22 103d 61bc a3bd
00000330: 73d1 33be e230 89bd ff15 4abe 590b 013c
00000340: 4933 633e fdaf b43d d56d 173d 65fd be3d
00000350: a9b3 ed3b 213a 613e fa07 04bd 8b36 853d
00000360: 50f0 25be e499 fcbd ae13 273d 2ca3 5f3d
00000370: 5413 d43c 45f7 643e 86dc c9bd ed83 6e3a
00000380: 7feb 673e 6983 2e3e b940 ffbd 97a0 0ebe
00000390: c6f6 d3bd bb68 8f3d 9a49 823d cd22 78bd
000003a0: 4e64 0a3c 48c3 63be f2da 233e 5ddd 763d
000003b0: ddd2 45be bff4 473e 47af c73c efdb 993d
000003c0: ad8b 41be 39c6 f6bd 6cf2 723e 3d32 b9bd
000003d0: 1a78 273e 0a15 27be 6436 4abe c6c1 df3d
000003e0: c57d b7b9 0dbe 023e cfbb 343e ade4 6d3e
000003f0: 8ac3 66be 4ecd 1d3d 06f2 aebd f898 14be
-0.073921405 -0.1835161 -0.24232101 -0.19904743 -0.23623514 0.21682465 0.06765568 0.20288269
-0.06810806 -0.15656228 -0.09607804 0.23466611 -0.13021186 0.21086952 0.014070215 0.17193359
0.0873781 0.18421632 -0.16162242 -0.09301982 -0.0054280697 -0.15387185 0.17053913 -0.1167466
-0.12788597 -0.16655666 0.22502829 0.22798581 -0.12632856 -0.17312221 0.077759616 0.13402416
-0.11349158 0.23955014 0.056888234 0.14194135 -0.11442765 -0.12413902 -0.209975 0.09051838
0.046366386 0.12675376 -0.16225754 0.18285665 -0.055831153 -0.018355919 -0.019535998 -0.15484862
0.107583 0.111812904 0.11095809 -0.10069933 -0.13675793 -0.16820383 -0.110992506 -0.0553785
-0.082668506 0.20379551 0.054135107 0.13090391 0.043502618 0.16710988 0.0012423781 -0.13694836
-0.23763748 -0.11533904 -0.06845973 0.08441396 0.0029063607 -0.1772853 0.14150362 0.20263745
-0.1368061 -0.13862467 0.114890076 -0.071836054 -0.01484314 0.12536919 0.16028456 -0.15903239
0.078651465 0.0866383 0.047768053 0.2004078 -0.12547049 0.06673891 -0.19899087 0.16058406
0.23865063 0.029680697 -0.13029043 -0.21422899 -0.13104334 0.08920452 -0.032597803 0.14855027
0.16180642 0.103617676 -0.05902473 0.045582943 -0.11073355 0.12048297 0.1400793 0.18895335
0.15529832 0.23509596 0.098040916 -0.08194574 0.11111387 -0.049681026 0.1933017 0.0486253
0.1790006 -0.081550814 0.06403213 -0.14925644 -0.1356849 -0.20520869 0.23068538 -0.1999888
0.08341803 -0.09561667 0.09138379 0.12870778 0.17957993 -0.18336752 -0.18937548 -0.13543849
-0.0108962 0.24525899 0.19863668 -0.17831048 -0.2257087 -0.22801316 0.083771184 -0.082063235
-0.14712535 0.1653801 0.024310088 0.086907186 0.029909922 0.15719724 -0.05675983 0.24248028
-0.08884468 -0.18957803 0.061447397 -0.1885438 0.072062135 -0.023633702 -0.2073775 -0.11025773
0.24363019 0.0290088 -0.22028214 0.0501759 0.0384714 -0.018772617 0.07803789 -0.07305489
0.14159662 0.22429448 0.046280738 0.24207136 -0.24629624 0.19095795 -0.0045415396 -0.19388646
0.085705645 0.117516376 0.02088889 0.041779276 -0.03399399 -0.085572295 0.038880788 0.0656846
0.16580386 -0.010533519 -0.1774388 0.07189524 0.18828823 -0.07778875 0.1391737 0.15511428
0.23188841 -0.025881285 -0.21776423 -0.23278698 0.21570127 0.0454682 0.043380857 -0.24355444
0.061154936 -0.17649792 0.09170561 -0.15048857 0.042023633 -0.21831617 -0.2145477 -0.1175116
-0.23123172 0.20543623 0.035189625 -0.07994915 -0.17560367 -0.06698777 -0.19734953 0.007876241
0.22187532 0.088226296 0.03696998 0.09325675 0.007254083 0.2199483 -0.03223417 0.06504544
-0.16204953 -0.1233404 0.040790252 0.054598972 0.025888123 0.22359951 -0.09856515 0.0009098638
0.22648428 0.17042316 -0.12463517 -0.13928448 -0.10349803 0.070023976 0.06361695 -0.060580064
0.008446766 -0.22242463 0.1600149 0.060269702 -0.19318719 0.19526957 0.024375571 0.07512652
-0.18900938 -0.12049527 0.23725289 -0.09042785 0.16354409 -0.1631662 -0.19747311 0.10925631
-0.00034998186 0.12767811 0.17649768 0.23231764 -0.2253553 0.038525872 -0.08542256 -0.14511478

model.head0.1.weight f4 [1, 6144]
00000000: c8c8 383c c92f ceba 3bce cabb 182b 8bbb
00000010: 3ecb 943b ed5d 4d3c bcb9 e6ba 1cff ffbb
00000020: 226b 3cbb dacc 1b3c b685 c5bb 05f3 c03b
00000030: 67ad 403b ca89 37bc e31c b23a 16bf 223b
00000040: bdcd b1ba de9e 08bc 51eb 16bc eadd 253c
00000050: c8b0 cc3b 1d3c 1c3b fe2b 64ba 955f edba
00000060: 8a25 363c a8a7 1a3c 77ce 1e3c 651f ec3b
00000070: acb2 fe3b ce89 44ba d6b3 1abc d449 dfbb
00000080: 523f 1b39 564b 353c bea2 0d3c cc53 8dbb
00000090: 4e99 ca3b dc54 bf3b bebb 25bc c1cd 22bc
000000a0: fcf5 2f3c 6517 28bc d040 ef3b f258 3a3c
000000b0: fd68 033c 59d6 3fbb 03d9 d7bb cc69 49bb
000000c0: 165f 723a e96f df3a ddc2 74bb e97f 3dbc
000000d0: 7269 193c e83a 3ebb a1b9 123c f266 d3bb
000000e0: 5e96 23bc 7083 dc39 cae3 483c 513a 873b
000000f0: f995 30bc 3122 36bc a988 b93b 424d 003a
00000100: bf74 213c 7b71 94bb 26a8 063b e176 c7bb
00000110: 2cc1 3dbc 7176 a33b baf5 563b 1bb7 1d3c
00000120: 0627 33bb 661b fb39 42c1 2bbc cd5b efbb
00000130: 15d4 493b 9235 95bb 80a8 c6bb 4c53 26bc
00000140: ee3c 62bb 7f49 113c e677 2bb9 cdb7 07bc
00000150: 0d56 333c 9f59 6dba 5b57 413a 6547 9c3b
00000160: fd6f 91bb 25ef 3eba 14e9 863b a28a ac3b
00000170: 332b 06bc 1223 c0bb 0435 2fbc 5ac5 0cbc
00000180: 4f0a 8bbb b4e4 273c 4ca6 393c 290d 9639
00000190: 2161 59bb e1e7 203b efa4 a23b 3209 b53b
000001a0: c8bb 71bb bd29 143c 3619 02bc 19bc 62bb
000001b0: 396c 3d3b 504c b0bb be2e 303b 5230 29bc
000001c0: 8ca5 203c 8a43 cf3b f041 883b b989 8b3b
000001d0: d200 82bb b716 303c 4934 bc3b 2c60 2b3b
000001e0: 5806 31ba 2c3e 3cbc d20b 853b 9add 183c
000001f0: c22d f73b c0f8 343a 938d 2bbc 224a bfbb
00000200: d764 55bc 704b 3f3c 9589 1fbb cdf6 363b
00000210: 9664 3ebc 2d89 9bba 46a7 d63b 1184 b2bb
00000220: e029 eb3b 1bea 9d3b 54f0 d53a ef30 033c
00000230: 7a2d 2fbc 4f32 c13a a92f 0eba b507 b1bb
00000240: 29ac c83b 72ce d53b ccdf 80bb 4446 2a3c
00000250: 0314 fdbb 9494 103c b48b 3d3c 82b9 5bbb
00000260: a848 1ebc 2077 183c 2324 ecbb 769a 3abc
00000270: 9be6 42bb a047 963b e304 00bb 22ae a6bb
00000280: 6519 28bc de21 0dbb a867 393c 0d46 e73b
00000290: e77a d03a 49dc 993b 3e78 2cbc 2837 083c
000002a0: 9747 39bb 23f3 04bb b9d2 dabb 4ba7 b03b
000002b0: 4922 e03b 9167 40bb 9fa9 bcba 59fe 20bc
000002c0: 1583 a9b9 03fc b0ba 808c 08bb 574f 91bb
000002d0: 9fdc 11bb 1282 423c dc60 14bc a10e 95bb
000002e0: 6624 333a 4a65 4b3b 20ed fc3b bb4f 4539
000002f0: 94ad cb3b 3995 c2bb a55d bcba ef60 37bc
00000300: 0233 563b 8c1d 9cbb 2ef3 0fbb 4abd 083b
00000310: e198 f7bb e3b4 5db8 f0a5 53bc 2c94 1ebb
00000320: fb27 3d3c 6d42 29bc 5eb0 d93a a013 4ab9
00000330: 9dba 94bb edbc ec3b ce6f 30ba bcf9 943b
00000340: a0a5 2dbc ae35 3c3b 22de abbb 3a8c d0bb
00000350: 3c44 573b 9afe 11bc 4146 933b 0a90 ddba
00000360: 37e0 0e3c a81f 2a3c ba66 ff3b 2077 983b
00000370: f8d0 253c 2e30 043c 322f d53b d108 37bc
00000380: a5cd 4c3c d1e2 48bb db4f 093c 0483 273c
00000390: b06c 2c3c 45da 1c3c 1e34 27bb bc43 443c
000003a0: 0390 50bc 2a83 da3b 4692 0f3c d5b5 873b
000003b0: 6ff7 c63b 2272 9dbb c1f7 bfbb 4545 73b9
000003c0: 797d 34bb 5c99 2dbc 017e 1a3c fa3e f03b
000003d0: eded e83b 1257 e4ba 3990 bf3b b0f4 a5bb
000003e0: 309a 43bb 6ed0 3ebb 9521 2e3c db93 96bb
000003f0: d492 32bb 4ac9 df3b 1783 0dbc b84a 1b3c
0.011278339 -0.0015730794 -0.0061891354 -0.0042470805 0.00454083 0.012534601 -0.001760296 -0.007812394
-0.002875038 0.00950929 -0.0060279025 0.005888345 0.002940023 -0.011202285 0.0013588931 0.0024833134
-0.0013565343 -0.008338658 -0.009211377 0.010123709 0.00624666 0.0023839541 -0.0008704065 -0.0018110151
0.011117348 0.009439386 0.00969278 0.007205891 0.007772764 -0.0007497341 -0.00944229 -0.006814221
0.0001480554 0.011065325 0.008644758 -0.004312968 0.006182826 0.0058389734 -0.010115562 -0.009936751
0.0107398 -0.010259484 0.0073014274 0.011373745 0.008020637 -0.0029272048 -0.006587149 -0.0030733226
0.00092457363 0.0017046902 -0.0037347593 -0.011566141 0.009363519 -0.002902681 0.00895539 -0.006451481
-0.009984581 0.00042059598 0.01226134 0.004126825 -0.010777944 -0.01111655 0.005662043 0.0004894325
0.009854495 -0.0045301295 0.0020547002 -0.0060871695 -0.0115817 0.0049884846 0.0032800273 0.009626175
-0.0027336492 0.00047894864 -0.010483088 -0.0073046447 0.0030796577 -0.004553505 -0.0060625672 -0.010151695
-0.003452118 0.0088676205 -0.00016352496 -0.008283568 0.010945809 -0.0009054187 0.00073753827 0.004769253
-0.004438399 -0.000728356 0.0041171405 0.0052655498 -0.00818901 -0.0058635557 -0.010693792 -0.008591974
-0.0042431722 0.010247398 0.011331152 0.00028620035 -0.0033169466 0.0024552273 0.0049635093 0.005524778
-0.0036885608 0.009043154 -0.007940581 -0.0034596978 0.0028903617 -0.005380191 0.002688333 -0.010326462
0.009805094 0.00632519 0.004158251 0.004258361 -0.003967383 0.010747603 0.0057435376 0.0026149852
-0.00067529595 -0.011489432 0.004060247 0.009330178 0.0075432966 0.0006903522 -0.010470766 -0.0058376947
-0.01302453 0.011675701 -0.002434348 0.00279181 -0.011620661 -0.0011866443 0.0065507023 -0.0054478724
0.0071766227 0.0048191673 0.0016322234 0.008007272 -0.010691995 0.0014739725 -0.0005423972 -0.00540253
0.0061240387 0.0065248543 -0.0039329287 0.010392729 -0.007723333 0.008824486 0.011568952 -0.003352732
-0.009660877 0.009305745 -0.0072064563 -0.011389365 -0.0029739502 0.004586175 -0.0019534163 -0.005086676
-0.010259961 -0.002153508 0.0113162175 0.0070579113 0.0015905768 0.0046954495 -0.010526715 0.0083139315
-0.002827143 -0.0020286522 -0.006677952 0.0053910366 0.0068400246 -0.0029358605 -0.0014393813 -0.009826266
-0.00032331856 -0.001350284 -0.0020835698 -0.004434507 -0.0022256745 0.0118718315 -0.009056296 -0.004548863
0.0006833732 0.0031035715 0.007718697 0.00018817086 0.0062157605 -0.005938199 -0.001437117 -0.011192544
0.0032684212 -0.0047642644 -0.0021965015 0.0020864778 -0.0075560664 -5.285897e-05 -0.012917981 -0.0024197204
0.011545177 -0.010330779 0.0016608348 -0.00019271532 -0.0045388476 0.00722467 -0.00067305274 0.004546372
-0.01059857 0.002871852 -0.005244986 -0.0063643726 0.0032847067 -0.008910799 0.004494459 -0.0016903889
0.008720449 0.010383524 0.0077942284 0.0046528727 0.010120623 0.008068128 0.0065058703 -0.011171536
0.012500201 -0.0030652771 0.008380855 0.010224108 0.01052396 0.009573524 -0.0025513242 0.01197904
-0.012729648 0.006668468 0.008762902 0.004141549 0.006071977 -0.0048048655 -0.005858392 -0.00023200091
-0.0027540608 -0.010595646 0.009429456 0.007331726 0.007108441 -0.0017420969 0.00584605 -0.0050645694
-0.0029846542 -0.0029115933 0.010628124 -0.0045952625 -0.002724816 0.0068294154 -0.008637211 0.009478264

model.head1.1.weight f4 [2, 6144]
00000000: 4740 993b a308 fbba 7c70 3f39 acef 1fbc
00000010: 0069 ab3b 5fa4 373a 5270 f63b a1c6 2cbc
00000020: 1ae0 f9bb 1db5 13bc c6d6 84b9 eb2f 613b
00000030: 5bf5 f43b ee59 253c 340a 3c3b a08f 313c
00000040: 9b90 323a 79a3 abba 3537 96bb 5ef9 243c
00000050: 8b7a 3d3a a171 f33b 4fc9 01b8 eb4d 193c
00000060: 2535 f33a 41a0 a63b 2458 153b b459 573b
00000070: 4cdf 29bc b3f0 81bb 0caf cc3b a71d df3b
00000080: b11f fe3b f570 cc3b 69e3 11bb 0ed4 5abc
00000090: dc40 513b f78b 4b3c 1575 353c aa7c ff3b
000000a0: bf8c 8ebb 0580 babb f937 13bc 7963 11bc
000000b0: 8914 26bc 1175 89bb ccc1 de3b 2a1a 1e3c
000000c0: 3c97 e1bb ae5f 1d3c 6cf6 ac3a 9bf3 353b
000000d0: 86b6 0539 8787 2e3c d9b1 093b 0d56 36bc
000000e0: d569 c2bb 3c48 b53a cd81 283c c7ab d53b
000000f0: 5391 0a3c 3c02 493c 987b 25bb 8b79 fd3b
00000100: eff0 0a3c 8a32 1fbc a571 553c 9ab8 e23b
00000110: 275a 323c 0ff0 27bc dbef 393b ea13 3e3c
00000120: de69 26bb e8a8 a6ba c3c9 153a 714f dabb
00000130: f218 1ebc a9a8 eeb9 6c1a c63a a1e0 1c3c
00000140: 0d36 cfbb 9b58 11bc cc3c 00bb a4c4 473c
00000150: 10d5 073c 922d 923a ebb1 c4bb 1d33 153b
00000160: 507b 903b 4a7d 40bc c5a5 abbb 9b7a e639
00000170: 4c9a b6bb 3de4 eabb ff76 383c eba7 29bc
00000180: 44bd 37bb 1f28 ebba f34b cabb d5ec 16bc
00000190: 1439 00bc beec 333b 10e2 6139 caba cd3b
000001a0: d991 573b 6805 4c3b 75a7 d63a 3fa5 c8bb
000001b0: 1183 26bc 71e1 e63b 7222 ed3a 37b5 afbb
000001c0: 405a a33b 8895 303c 9b11 b13b 5854 553c
000001d0: 5e5c 7abb 5aef 23bc 0755 703b c348 703b
000001e0: 8f05 27ba ada8 06bc 3e3f 853a 7e62 e1bb
000001f0: 1ef4 27bc a63a aabb 7e91 133c bbad 2d3c
00000200: 5f17 8d3b 93ad 233c cc3e 2abc 5225 e139
00000210: a8a2 4ebc 9489 35bc 66f4 85bb 8037 593a
00000220: 2518 31bc 4d52 143a 98d7 4d3c 5c4f 2ebc
00000230: c11a 36bc 0779 993b 2355 f63b 6ee8 3f3c
00000240: 0a9e 01bc 08a6 fc3b 8055 f2b9 76df b8bb
00000250: eb10 0cbb 4861 20bc eee0 dcbb 6431 37bc
00000260: 595e bd3b 907f e1bb 5640 23bc 374b 76bb
00000270: 9c3e 503a 61c3 dabb b4fb d5bb 4bd6 3e3c
00000280: b817 b6b8 3493 d93b 4f5e 2dbb 1f22 c93b
00000290: bca9 553c c62f 97bb 2a23 edbb 09e0 29bb
000002a0: 052f a2bb a620 463b dcbf c53b 6efd 333c
000002b0: 9097 babb dba9 84bb 9777 1ebc 6fe8 3e3c
000002c0: 0dc4 323c b05f 853b ec64 3abc d5f8 d63b
000002d0: c83f ad3a 8b43 043b 5b1f 01bc 9829 2dbc
000002e0: fd6a b43b 9671 4b3c dc9f 473a ec9b 60bc
000002f0: 0b13 593b 15cc f13a 7316 0639 b05b 463c
00000300: 0ba5 943b 2f93 c6bb 2026 afba 983c 8dbb
00000310: e708 23bc 1818 c13b 45d2 0cbc aac9 003c
00000320: 07fa 403b bf80 553c 43f7 26bc 0022 eb39
00000330: cfc5 15bc f42f 3e3a ec22 f8bb dc1c 31bc
00000340: 1be5 8dbb 82d3 37bc 3038 d7bb 597e 553b
00000350: d460 ce39 eac8 3cbb 5727 ad3b a49f 563c
00000360: 5216 35bc a72c 5a3b 65cb 473a 4869 ea3b
00000370: 1335 3d3b eee8 3dbc 15ae 2fbb f3cf 023c
00000380: f229 fdbb c021 23bc d2a1 1cbc cd73 39ba
00000390: 3d1e 4cbb f48b c3bb c47b 6e3a 246d 0abc
000003a0: d71f d3bb c18b 483c 0c6a 60bb aff8 333c
000003b0: f78b b4ba c9dd 113b b4b7 af3b 1315 123a
000003c0: ec9a 2abc 09c5 8ebb 4a75 ec3b bfd8 db3b
000003d0: 53ac 1bbb cac1 aabb 256c 2d3a c060 86bb
000003e0: e964 233b 3b86 4ebb f1e3 a53b 5324 e1bb
000003f0: 68e2 993b b3c6 3abb 10ce 21bc c1a5 81bb
0.004676852 -0.0019152354 0.00018257083 -0.009761732 0.005231023 0.0007005389 0.007520714 -0.010545404
-0.007625592 -0.009015349 -0.0002533702 0.0034360837 0.0074755377 0.010092242 0.0028692605 0.0108374655
0.0006811709 -0.0013094983 -0.004584218 0.010069219 0.0007228038 0.007429317 -3.094348e-05 0.009356956
0.0018555267 0.0050850217 0.0022788132 0.0032859864 -0.0103681795 -0.003965461 0.006246453 0.0068089548
0.0077552428 0.0062390515 -0.002226079 -0.013356222 0.0031929528 0.012423507 0.011075278 0.0077968435
-0.0043502743 -0.0056915306 -0.008985513 -0.008873814 -0.010136732 -0.0041948636 0.0067980047 0.009649793
-0.0068844836 0.009605331 0.0013195998 0.0027763608 0.00012751864 0.010652429 0.0021010546 -0.011128915
-0.0059330263 0.0013830732 0.010284853 0.0065207216 0.0084575 0.012268599 -0.002525067 0.0077354363
0.008480295 -0.009716639 0.013027583 0.006918979 0.010885752 -0.0102501055 0.0028371725 0.011601428
-0.0025392692 -0.0012715133 0.0005713964 -0.006662302 -0.009649502 -0.0004552056 0.0015114076 0.00957504
-0.006323582 -0.008871223 -0.0019567488 0.012192879 0.008290544 0.0011152497 -0.006002655 0.0022766062
0.0044092312 -0.011748621 -0.005238267 0.00043960367 -0.005572593 -0.0071683214 0.01125884 -0.010354976
-0.0028036395 -0.0017941034 -0.0061736046 -0.009211739 -0.0078261085 0.0027454342 0.00021541887 0.0062783705
0.0032893328 0.0031131152 0.001637681 -0.0061232145 -0.010163085 0.0070459177 0.001809193 -0.0053621787
0.004985124 0.0107778385 0.00540371 0.013020597 -0.0038202028 -0.010005796 0.0036671774 0.0036664463
-0.0006371373 -0.008218926 0.0010165942 -0.0068781963 -0.010251073 -0.0051949797 0.009006856 0.010600503
0.0043057646 0.009990114 -0.0103909485 0.0004294315 -0.012612022 -0.011080164 -0.0040879725 0.0008286163
-0.010808979 0.0005658016 0.012563609 -0.010639038 -0.011114777 0.004683617 0.0075174733 0.01171313
-0.007911215 0.007710222 -0.0004622154 -0.005641873 -0.0021372389 -0.009788819 -0.006740681 -0.011181209
0.0057790694 -0.0068816617 -0.009964069 -0.0037581453 0.00079439 -0.006676123 -0.0065302495 0.011647771
-8.682854e-05 0.0066398624 -0.0026453917 0.0061381008 0.013040956 -0.0046138493 -0.007236858 -0.002592089
-0.004949453 0.0030231862 0.0060348343 0.010985715 -0.005694337 -0.0040485687 -0.009672067 0.011652096
0.010911 0.0040702447 -0.011376601 0.006560425 0.0013217861 0.002018186 -0.007881011 -0.010568999
0.005505918 0.012417218 0.00076150685 -0.01370905 0.0033122923 0.0018447662 0.00012787599 0.012106821
0.004536276 -0.006060026 -0.0013362803 -0.004310202 -0.009950853 0.005892765 -0.008595054 0.00786058
0.0029445903 0.013031184 -0.010190788 0.00044848025 -0.0091413995 0.00072550704 -0.0075725224 -0.010810103
-0.00433029 -0.011219861 -0.0065679774 0.003257653 0.00039363524 -0.0028806278 0.0052842307 0.013099585
-0.011052685 0.0033290775 0.00076215557 0.007153664 0.0028870746 -0.011591179 -0.0026806642 0.007984149
-0.0077259475 -0.009956777 -0.009560065 -0.00070744456 -0.0031145953 -0.0059676114 0.0009097422 -0.008448873
-0.0064430046 0.012240351 -0.0034242896 0.010984584 -0.0013774623 0.0022257438 0.0053624753 0.00055725983
-0.010412913 -0.0043569845 0.0072161304 0.0067091878 -0.0023753836 -0.0052110897 0.0006615541 -0.004100889
0.0024931973 -0.0031513113 0.005062573 -0.0068707853 0.004696179 -0.0028499782 -0.009875789 -0.003956527

model.head1.1.bias f4 [2]
00000000: 63fc 7b3b e2da 1b3c
0.0038449995 0.009512635

model.head1.4.weight f4 [1, 2]
00000000: 0e2c 95be 2979 963d
-0.29135174 0.07347328

model.revin_layer.affine_weight f4 [4]
00000000: 64fe 803f a8ef 803f 7e94 803f 4417 803f
1.0077634 1.0073137 1.0045316 1.00071

model.revin_layer.affine_bias f4 [4]
00000000: 44f0 d039 2c5a fdba cfda 48bb 04c4 c1b9
0.00039851863 -0.0019329241 -0.0030647998 -0.00036957872
