checkpoints/loss_flag2_lr0.0001_dm512_test_PatchMixer_A123Custom_ftMS_sl96_pl1_p16s8_random2021_0/checkpoint.pth (torch, 124770 bytes, 32 tensors)

model.PatchMixer_blocks.0.Resnet.0.weight f4 [12, 1, 8]
000000 c6 a6 84 be ae b7 32 3c 00 19 2d 3e 40 d5 19 3e
       -0.25908488 0.01090805 0.16904068 0.15022755
000010 6f d1 46 3d 53 b5 73 be 0c 29 a5 be 3e d5 a9 3e
       0.048539575 -0.23799638 -0.3225788 0.33170503
000020 a2 ab 15 be 3d 3b 90 be 63 7b 5c 3e de a8 b2 be
       -0.14616254 -0.28170195 0.21531443 -0.3489446
000030 05 d1 65 3e 11 23 88 be 23 20 30 3e 0a db d1 bd
       0.22443016 -0.26589254 0.17199759 -0.102468565
000040 38 a1 2a 3c 4b 7b 15 be 25 4f 4d 3e 74 e4 29 3e
       0.010414414 -0.14597814 0.20049722 0.16591054
000050 08 3b 5e 3e 32 5b 0d be 0c 5d b3 3e 30 52 fa 39
       0.21702206 -0.1380432 0.35031927 0.0004774495
000060 51 24 b9 bd a9 ca a5 be 19 4f 73 3e 18 a0 9e be
       -0.0904013 -0.3238118 0.23760642 -0.30981517
000070 69 6e 68 be 05 fb f8 bd b1 78 06 3e e7 d8 10 3e
       -0.22698368 -0.12157253 0.13131978 0.14145242
000080 3b a3 6e 3e 67 f0 5c 3c 7b 33 31 3e 74 48 6f 3e
       0.23304455 0.013485051 0.17304794 0.23367482
000090 0b ae ab be bf 2d 97 be 57 44 b0 be 56 6b 7f be
       -0.33531222 -0.2952709 -0.3442714 -0.24943289
0000a0 e0 46 35 3e 3e 18 a0 3e 88 2c fb 3d 21 d8 8b be
       0.17702818 0.31268495 0.12264353 -0.2731333
0000b0 c8 ba 30 3e 96 52 4c 3e 5c 69 a1 3e a4 89 a3 be
       0.17258751 0.19953379 0.31525695 -0.3194095
0000c0 48 77 4b bd 89 95 39 be 09 c6 9d 3e 0d fa 4d 3e
       -0.049674302 -0.1812345 0.3081515 0.20114918
0000d0 3d 56 30 3d b6 ea c1 3c d8 f8 1a 3e 08 ea 8d be
       0.043050993 0.02367149 0.15133989 -0.27717614
0000e0 11 6b 10 bd 20 39 87 be cd 42 01 3e c8 f5 dc 3d
       -0.035258356 -0.2641077 0.12623139 0.107890666
0000f0 61 6c 9d be cb f6 88 bc b7 e7 27 3e 0c 66 38 3e
       -0.3074675 -0.016719243 0.16396986 0.18007678
000100 3c 7b ab 3e 1c 52 a4 be 07 62 d8 bd b5 a8 13 be
       0.33492458 -0.32093894 -0.10565572 -0.14419825
000110 20 4f 98 be 2a 5e ac be c7 78 85 be f3 0d 27 3e
       -0.29747868 -0.3366559 -0.26068708 0.16313915
000120 00 09 9c be c4 20 27 be 22 1c 70 be 96 8d 8a be
       -0.30475616 -0.16321093 -0.23448232 -0.27061146
000130 ba 24 a2 3e ad c8 2a bd e4 66 f0 bd ca 86 a5 3e
       0.31668645 -0.041695286 -0.11738375 0.32329398
000140 cf 5f 50 be 61 12 1c be 8f 23 ea bd b8 ac 71 be
       -0.20349048 -0.15241386 -0.114325635 -0.23601043
000150 da 09 31 be 82 8d ae bd 02 ec cd 3c f0 e8 52 be
       -0.17288914 -0.08523084 0.025136951 -0.20596671
000160 1b 62 5d bc 0f 24 b3 3e b2 6b db 3b 73 9f 2c bd
       -0.01351216 0.34988448 0.006696188 -0.04214425
000170 96 e3 b0 be ef 2f 84 be f8 a3 34 3e b3 d0 59 3e
       -0.34548634 -0.2581782 0.17640674 0.21271019

model.PatchMixer_blocks.0.Resnet.0.bias f4 [12]
000000 dc e6 aa be d0 0d a1 3d 23 06 8e 3d 1a 22 11 be
       -0.33379257 0.07863963 0.06934764 -0.14173165
000010 1b 89 8a 3e 44 84 4c 3d d0 af 8e be 9d 46 96 3e
       0.27057728 0.049930826 -0.2786851 0.2935075
000020 f4 b5 27 3e 52 97 2c be 9c 89 e6 3c 53 9e 81 3e
       0.16378003 -0.16854599 0.02814179 0.25316104

model.PatchMixer_blocks.0.Resnet.2.weight f4 [12]
000000 2e 41 7f 3f eb 71 7f 3f 29 b2 7e 3f 56 18 80 3f
       0.9970883 0.997832 0.994906 1.0007427
000010 cb 22 81 3f a2 b5 7f 3f 2b c9 80 3f 5d ab 7f 3f
       1.0088743 0.99886525 1.0061392 0.99870855
000020 a3 d3 7f 3f 2b 9d 7e 3f 4b 77 7e 3f b8 69 80 3f
       0.99932307 0.9945857 0.99400777 1.0032263

model.PatchMixer_blocks.0.Resnet.2.bias f4 [12]
000000 30 bd 9c ba 8d 67 16 3a 7e a0 54 3a af 3b c0 ba
       -0.0011958238 0.0005737476 0.00081110734 -0.0014666225
000010 04 88 c4 ba 9b 61 1e ba ca 2e 9c bb ea 07 52 3a
       -0.0014994149 -0.0006041766 -0.00476632 0.00080120435
000020 e9 ac 3f 3b 62 f4 f8 3b 91 a8 07 3b cd 41 38 bb
       0.002924735 0.007597492 0.0020699839 -0.0028115392

model.PatchMixer_blocks.0.Resnet.2.running_mean f4 [12]
000000 87 ac 83 bd 21 34 cb 3d 74 ad 91 3d da e0 c5 bc
       -0.06429391 0.09922052 0.07113162 -0.02415507
000010 f5 b9 59 3e 20 30 9f 3d c1 c1 a9 bd 2f 2e 52 3e
       0.21262343 0.07772851 -0.08288909 0.2052543
000020 5a 85 18 3e 29 ba 86 bc 36 cd 51 3d 50 80 65 3e
       0.1489462 -0.01644619 0.051221095 0.22412229

model.PatchMixer_blocks.0.Resnet.2.running_var f4 [12]
000000 a9 bd d5 3c 3c 48 72 3d cf b3 f9 3c ab 90 bf 3c
       0.026091414 0.05915092 0.030481247 0.023384413
000010 8b d0 a0 3d 18 fd 55 3d ec a8 29 3c 78 63 1a 3d
       0.078522764 0.052243322 0.0103552155 0.037692517
000020 a2 0a 91 3d c4 5d 0d 3d 08 a7 fd 3c 3e aa f5 3d
       0.07082106 0.03451325 0.030963436 0.11995362

model.PatchMixer_blocks.0.Conv_1x1.0.weight f4 [12, 12, 1]
000000 f7 8e 63 3e c5 d0 05 3e 44 58 9e 3d c0 c5 77 bc
       0.22222506 0.1306792 0.07731679 -0.015122831
000010 12 e6 3a 3d eb 46 54 be 3b bc 2a 3b 66 0f 8f be
       0.04562957 -0.20730178 0.0026052136 -0.27941436
000020 cf 1a 29 3e 18 17 4e be 25 96 45 be c0 69 6e 3e
       0.16514133 -0.20125997 -0.19295557 0.23282528
000030 83 60 b3 bd 94 27 3f be c8 0e 65 be 36 c4 07 3e
       -0.087586425 -0.18667442 -0.2236892 0.13258442
000040 14 69 81 be e3 cc 64 3e 38 e8 bb 3d bb 72 88 3e
       -0.2527548 0.22343783 0.091751516 0.26650032
000050 87 d2 ee bd 3b db 81 be f2 39 f9 bc 71 09 6e 3e
       -0.11661249 -0.25362572 -0.030423138 0.23245789
000060 17 c4 10 be f1 1d 89 be fa 04 63 3e ed ac 51 3e
       -0.14137302 -0.26780656 0.22169867 0.20476122
000070 df 02 6f 3e b1 26 3e 3e 70 ab 4c 3c 7c 37 6d be
       0.23340939 0.18569447 0.012492046 -0.23165697
000080 cf f5 4b be 43 a2 07 be 1b 15 3e be 5a 80 66 be
       -0.19917987 -0.13245492 -0.18562739 -0.225099
000090 03 13 5e 3e 60 07 59 3e 38 a8 3c be d5 2d 94 bc
       0.2168694 0.2119422 -0.18423545 -0.01808826
0000a0 d6 35 91 3e 51 71 11 3e f8 d3 6d bd 52 de a5 bd
       0.28361386 0.14203383 -0.058063477 -0.08099045
0000b0 f2 50 13 3e 66 e4 e3 bd fe a1 5f be 05 cb a5 bd
       0.14386347 -0.11127548 -0.21839139 -0.080953635
0000c0 56 3a 3a 3e 02 d0 ee bd 99 27 4d be b7 b0 da bd
       0.18186316 -0.11660768 -0.20034637 -0.10678237
0000d0 f5 16 df bd 0c 6e 57 be 6f a2 8e bb fb cf 13 3e
       -0.108930506 -0.21038073 -0.0043528597 0.14434807
0000e0 7b 8d 8a 3e 1b 7c 9d 3d b9 82 6a 3e 7f 61 ee 3d
       0.27061066 0.07689687 0.22901429 0.1163969
0000f0 ba 9e 91 bd 73 dd 5d be a0 d4 95 bd fd da 0e 3e
       -0.07110353 -0.21666507 -0.073159456 0.13950725
000100 e0 e9 73 3d f2 d8 9e bd 19 0b 3f bc 9e a5 cd 3d
       0.059549212 -0.07756223 -0.011660361 0.100413546
000110 83 f7 24 bd ba 03 59 3e 93 d0 3b be ee 78 0c 3d
       -0.040275108 0.21192828 -0.18341284 0.034295015
000120 5a 51 17 3e 85 69 6a 3e c3 d4 12 3d 90 7e 9b 3c
       0.14777127 0.22891815 0.035847437 0.018981248
000130 2f ff 83 3e 0f 9d 4f be 61 31 08 be bf bb 2a be
       0.25780627 -0.20274757 -0.13300087 -0.16673182
000140 86 05 8e 3e 01 9e 66 3c 69 df 6f be 7d 62 05 3d
       0.2773859 0.014075757 -0.23425068 0.03256463
000150 b7 e3 8a be 67 ec 1e 3e 5f 63 66 3e 7e f9 f9 3d
       -0.27126858 0.15519868 0.22498845 0.1220579
000160 aa aa 72 bd c4 24 25 be 2d 7f 84 3e 06 08 4a bd
       -0.05924479 -0.16127306 0.25878277 -0.049324058
000170 86 0c eb 3d aa 91 95 bc ec c5 70 3e a6 77 4d bd
       0.11476998 -0.018257935 0.23513001 -0.050162934
000180 7c 5c 39 3e f5 3d 5b be fa 2a 75 be c2 ed 4f 3d
       0.18101686 -0.21410353 -0.23942176 0.050763853
000190 c1 81 7e 3e e5 a9 3f be 66 37 49 3e 91 41 13 3d
       0.24854185 -0.18717153 0.19650039 0.0359512
0001a0 3a fc 81 be cc 0b 2f be a9 f3 21 bd 27 a7 33 3d
       -0.25387746 -0.17094344 -0.039539013 0.04386058
0001b0 63 cb ff 3d 35 b4 84 3e 7c d4 84 3e ac 0f 74 be
       0.12489965 0.25918737 0.25943363 -0.23834103
0001c0 7a 57 26 3e bf 87 92 bd 71 b0 75 bc 40 d3 8c 3e
       0.16244307 -0.07154798 -0.01499568 0.2750492
0001d0 ab 8c 4f bd 75 c3 ef bd 13 3e 20 3e 16 53 54 3b
       -0.05067126 -0.11707202 0.1564868 0.0032398156
0001e0 70 b9 ae 3d 8a 32 c5 3c 1f df 89 3e 8d cd 6c 3e
       0.08531463 0.02407195 0.2692804 0.23125286
0001f0 d2 4b bf 3d 55 33 fe 3c 7a b9 b9 3d 3c 97 df bd
       0.093406335 0.031030336 0.0906858 -0.109175175
000200 2f e5 2b 3e 55 45 6e 3e 2e 3b 67 3e bc 6a 23 be
       0.16786645 0.23268636 0.22581169 -0.15958685
000210 a8 82 07 be a8 8a 7b 3e 71 ac 69 3e 75 6c 33 3e
       -0.13233435 0.24564612 0.22819687 0.17521842
000220 c1 b8 75 3e 60 11 89 3e 03 07 1e be 11 08 69 be
       0.2399626 0.2677107 -0.15432362 -0.22756983
000230 3c 5a a0 bb 89 bd 2e 3e 89 2d 02 be a1 f9 33 be
       -0.0048935693 0.1706449 -0.12712683 -0.17575695

model.PatchMixer_blocks.0.Conv_1x1.0.bias f4 [12]
000000 2e 53 94 be f6 22 0e 3d 29 33 10 3d bc 60 1f be
       -0.2896971 0.03470131 0.03520504 -0.15564245
000010 68 d3 e5 3d 9f d4 fe bc 0e c0 6a be 68 14 20 bd
       0.11221963 -0.031107245 -0.22924826 -0.03908196
000020 1d a7 93 be ef ef 8c 3e d7 f8 87 be 02 a9 ca 3d
       -0.28838435 0.27526805 -0.26557037 0.09895517

model.PatchMixer_blocks.0.Conv_1x1.2.weight f4 [12]
000000 8c 75 80 3f 79 49 80 3f 68 8d 7f 3f 5f 88 7f 3f
       1.0035872 1.0022422 0.99825144 0.9981746
000010 ba e0 7e 3f c1 af 7f 3f 8a 8b 7f 3f 38 6b 7f 3f
       0.99561656 0.99877554 0.99822295 0.9977298
000020 04 00 80 3f a2 63 7f 3f 7c 83 7f 3f fe bd 7f 3f
       1.0000005 0.997614 0.99810004 0.9989928

model.PatchMixer_blocks.0.Conv_1x1.2.bias f4 [12]
000000 36 68 18 bb d3 ec 7e bb 8b d7 79 3b 3f 71 d7 3a
       -0.0023255474 -0.0038898482 0.0038122858 0.0016436948
000010 87 b7 a1 3a 66 9c 4a bb cd 3e 3d 3b 23 66 3f bb
       0.0012338021 -0.0030915975 0.0028876544 -0.0029205165
000020 e9 1c 5e 3a 7f 09 2b ba 95 5b 6c 3a de b1 f2 ba
       0.0008472936 -0.00065245474 0.00090163323 -0.0018516143

model.PatchMixer_blocks.0.Conv_1x1.2.running_mean f4 [12]
000000 c9 e4 d7 3c e7 3f 52 3e ac b0 56 3e cb 91 82 3d
       0.02635421 0.2053219 0.20965832 0.06375464
000010 a4 4a 4f 3e bc 7c 4a 3d ea bc 36 3d 28 1c e0 3d
       0.20243317 0.049435362 0.044613756 0.109428704
000020 54 26 13 3d 15 8e 99 3e e6 aa b0 3c 62 51 80 3e
       0.035925224 0.29991212 0.021565866 0.2506209

model.PatchMixer_blocks.0.Conv_1x1.2.running_var f4 [12]
000000 13 fb c9 3d 9c db 62 3e 4d 7f 6d 3e 88 6e 01 3e
       0.09862342 0.22154087 0.23193093 0.1263982
000010 c9 93 35 3e 9c e5 4a 3d 3a 3a d4 3d 50 59 05 3e
       0.17732157 0.04953538 0.10362668 0.13022351
000020 1f a4 de 3d a9 fa 75 3e a2 01 d7 3d d6 c9 91 3e
       0.10871147 0.240214 0.10498358 0.284743

model.PatchMixer_blocks.1.Resnet.0.weight f4 [12, 1, 8]
000000 5e e8 4a be 65 88 63 be 80 ef 3e 3e 31 80 24 3e
       -0.19815204 -0.22219999 0.1864605 0.16064526
000010 f9 b1 a7 3e af 63 94 3e 39 c2 04 be 08 e3 70 bd
       0.3275297 0.28982303 -0.12964715 -0.058810264
000020 e7 90 94 3d 12 0c 82 3e 81 99 0e be 4f bc 52 be
       0.072542004 0.25399834 -0.13925745 -0.20579647
000030 25 c3 52 3e 72 cc ab 3e 5a c6 ae 3c 4b 7d 85 be
       0.20582254 0.33554417 0.021334816 -0.26072153
000040 45 eb 53 be b4 fb a3 be be ec d8 bd 0b 3b 12 3e
       -0.20695217 -0.32027972 -0.1059203 0.14280336
000050 77 33 2e 39 f7 59 17 3e a8 b6 9e 3d b2 30 96 3e
       0.00016613105 0.14780413 0.07749683 0.29334027
000060 fd 41 24 3e 92 ec 82 3e b9 18 06 3e 2e 2c 97 be
       0.16040798 0.25571114 0.13095368 -0.29525894
000070 62 89 3d 3e 21 12 b2 3e bd 85 63 3e 5c 6b ac bd
       0.18509439 0.34779456 0.22218986 -0.08418915
000080 ba 59 91 bd dd d7 28 3e a8 45 84 be f2 9d 6a be
       -0.07097192 0.16488595 -0.25834394 -0.22911814
000090 7c 23 ad 3d 16 b1 05 3e 2d d6 af 3d aa 2d ca bd
       0.08454034 0.13055834 0.08585773 -0.09871991
0000a0 d1 8a 03 be 32 66 ad bd 0b 58 97 be 39 ba 2d bd
       -0.12845923 -0.08466758 -0.2955936 -0.042413924
0000b0 21 f0 51 3e 7b e0 95 be 61 2b c1 bc 27 24 a9 3e
       0.20501758 -0.29272828 -0.023580255 0.33035395
0000c0 d2 14 4f bc cf b0 0e 3d bf 5b 0e 3e 46 4d e7 bd
       -0.012639241 0.034836587 0.13902186 -0.112940356
0000d0 32 f2 a4 be cd ca e2 bd 08 b9 a4 3e e7 7e e7 bd
       -0.3221603 -0.110738374 0.32172418 -0.113035016
0000e0 e3 f5 8c 3e 76 6a 2a 3e 3c d2 be 3d d1 9c 72 be
       0.27531347 0.16642174 0.09317443 -0.23692633
0000f0 cc 29 86 3e 30 b0 b0 3e c5 82 ad be d0 b6 9f 3e
       0.26203763 0.3450942 -0.33888832 0.31194162
000100 b9 11 9b be 5e 09 85 be d5 75 3f 3e 35 b4 79 3e
       -0.3028696 -0.2598371 0.18697293 0.2438515
000110 91 ed cf bd 4d cf 03 be bc 9d b9 bd 4f 3a 46 3c
       -0.10152734 -0.12872048 -0.090632886 0.012098863
000120 ee b7 02 3e ae 4a da bd fc fe a4 be 03 2e 9b be
       0.12765476 -0.10658775 -0.32225788 -0.30308542
000130 b8 a9 98 3e c2 af 66 be 26 8a 55 be 92 c5 09 3e
       0.29816985 -0.22527984 -0.2085348 0.13454273
000140 33 7b 3f 3e f2 b8 40 be 87 f6 99 bd 3a 1f 41 bd
       0.1869934 -0.18820551 -0.075177245 -0.04714892
000150 90 34 8e bd 9b 4d 9d bd c3 b1 80 3e 52 32 a3 be
       -0.06943619 -0.07680818 0.2513562 -0.3187433
000160 18 fa 37 3e e2 42 2b 3d 1f 10 8e 3e b7 da 3e bd
       0.17966497 0.04181183 0.27746674 -0.0465953
000170 f6 4d e6 bd ff 9b 9b bd 8f 6c 25 bd c7 4b b2 bd
       -0.112453386 -0.07598113 -0.040386733 -0.0870586

model.PatchMixer_blocks.1.Resnet.0.bias f4 [12]
000000 a5 39 2c 3e 25 45 b0 3e 64 11 15 be bc 91 89 bd
       0.16818865 0.34427753 -0.14557415 -0.0671725
000010 52 86 9e bc af 3c aa 3c ef 08 d7 3c eb 24 81 3e
       -0.019351158 0.02078089 0.026249377 0.2522348
000020 5a 20 8c 3d cc 30 98 3e 2a 97 2c 3e 59 59 14 be
       0.06842108 0.2972473 0.1685454 -0.14487208

model.PatchMixer_blocks.1.Resnet.2.weight f4 [12]
000000 cf 2d 80 3f 69 22 80 3f 5a 15 80 3f b2 e8 7e 3f
       1.001398 1.0010501 1.0006516 0.99573815
000010 c2 0a 80 3f 34 42 7f 3f 3a 31 7f 3f 4a d7 7f 3f
       1.0003283 0.9971039 0.9968449 0.9993788
000020 68 ca 7f 3f 3c 11 80 3f 6e 57 7f 3f 67 f5 7f 3f
       0.9991822 1.000526 0.9974278 0.9998383

model.PatchMixer_blocks.1.Resnet.2.bias f4 [12]
000000 4f 1b af ba 0d b9 99 bb 77 68 64 3b 16 39 18 ba
       -0.0013359579 -0.004691249 0.0034852305 -0.00058068463
000010 9f 7a d1 3a b1 2f 5e bb 44 f8 48 3b 11 c2 25 ba
       0.0015981979 -0.0033902938 0.0030665556 -0.00063231686
000020 28 5f 65 ba 2e 33 45 3a d1 b7 01 3b d6 0e 92 ba
       -0.0008749836 0.000752258 0.00197934 -0.0011143337

model.PatchMixer_blocks.1.Resnet.2.running_mean f4 [12]
000000 37 fa 52 3e 98 c1 ab 3e 54 fb c0 3c 0b 83 e1 3d
       0.20603262 0.33546138 0.023557343 0.110113226
000010 a4 ab 81 3d 33 b1 02 3e 66 51 cc 3d d0 88 96 3e
       0.06331566 0.12762909 0.09976463 0.29401255
000020 2d f7 04 3e 52 de a5 3e ff c5 29 3e 7d 20 91 bc
       0.12984915 0.3239618 0.16579436 -0.017715687

model.PatchMixer_blocks.1.Resnet.2.running_var f4 [12]
000000 11 9b 66 3e 5f b9 89 3e fc 63 8c 3d 24 fd 64 3e
       0.2252009 0.2689924 0.06855008 0.2236219
000010 8e cb 4b 3d 03 49 fe 3d 45 f0 ad 3d f7 12 a2 3e
       0.04975467 0.1241627 0.084930934 0.31655094
000020 81 89 ae 3d fc 82 4a 3e 41 17 90 3d 29 22 1c 3d
       0.085223205 0.19776529 0.07035685 0.038118515

model.PatchMixer_blocks.1.Conv_1x1.0.weight f4 [12, 12, 1]
000000 78 88 87 be 51 c8 bc bd dc 96 4b 3c b1 d3 eb 3d
       -0.26471305 -0.09217895 0.012426104 0.11514986
000010 b1 e0 82 be 63 6b 05 be dd 1f 18 3e 6d 01 73 bd
       -0.2556205 -0.13029246 0.14855905 -0.05932753
000020 6f 6d 59 3e 3a 2b 81 be 75 18 22 3e 8e 5b 60 bd
       0.21233152 -0.25228292 0.15829642 -0.054774813
000030 84 90 fa bd 82 70 30 3d 1e 03 58 3d 2a 6a da bd
       -0.122345954 0.043076046 0.052737348 -0.106647804
000040 88 75 59 3e 56 92 b3 bd 6a b4 2d 3d 4c 88 65 be
       0.21236241 -0.08768146 0.042408384 -0.22415274
000050 28 ef a6 bd b0 b0 80 3e aa f6 db 3b bf 0d 24 3e
       -0.08151084 0.25134802 0.0067127543 0.16020869
000060 70 f7 3a 3d 9a 26 6d 3e 61 73 30 be db 91 9b 3d
       0.04564613 0.23159257 -0.17231514 0.07596179
000070 da 6c 1d be ff 27 d4 bc c3 51 85 be 6f 00 56 3e
       -0.15373555 -0.025897978 -0.26038942 0.20898603
000080 ca 03 c3 3d f4 b4 30 bd f8 e3 e5 bd 3d 2c 79 3e
       0.09522207 -0.04314132 -0.11225122 0.24333282
000090 df 1e 4a be c0 51 60 3e 9d e7 0c be a0 f1 68 bc
       -0.19738339 0.21906185 -0.13760228 -0.014217764
0000a0 89 f9 8d 3e 14 64 3b 3e 73 4b 5a be cb 81 3f 3e
       0.27729443 0.18299896 -0.21317844 0.18701856
0000b0 48 b7 65 3b 8b 30 36 3e 17 ee 24 3e 11 20 bd 3c
       0.003505187 0.17791955 0.16106449 0.02308658
0000c0 87 35 52 3c e3 82 11 3e 61 94 51 be 80 17 45 3e
       0.012830145 0.14210086 -0.20466758 0.19247246
0000d0 0e 33 38 be 8b d0 e5 3d ba 06 80 3e d7 9f 58 3e
       -0.17988226 0.11221417 0.25005132 0.21154724
0000e0 06 43 01 be dc 99 8a 3e 23 92 2c be b4 37 84 bd
       -0.12623224 0.2707051 -0.16852622 -0.06455937
0000f0 a1 26 3b be 9a 96 86 be 4a ab 13 3d bd d5 f9 bd
       -0.18276455 -0.26286775 0.036052026 -0.121989705
000100 93 4c 71 be 9c d1 58 3e 8e 62 3b be 82 64 6b 3d
       -0.23564367 0.2117371 -0.18299314 0.0574689
000110 20 f8 8a 3e 95 75 85 3e 9d 21 9b 3d 11 27 33 3d
       0.2714243 0.2606627 0.075747706 0.04373843
000120 ea 7d b4 3d 33 4b 87 3e ff 2e 0b 3e 9c bd 61 3e
       0.08813079 0.2642456 0.13592146 0.22044986
000130 70 0a 3d be 7d 54 04 3e ac f1 37 3e 77 5d 33 3e
       -0.18461013 0.12922855 0.17963284 0.17516123
000140 cd e9 1a be 79 56 58 3e aa f4 23 3c 71 22 88 be
       -0.1512825 0.21126737 0.010007063 -0.26588777
000150 b3 b7 65 3e fc 06 6c 3e 37 72 22 be 11 50 43 be
       0.22433357 0.2304954 -0.15863882 -0.19073512
000160 84 67 35 3e 28 ac 42 3e e1 6d 69 be 04 fd 88 be
       0.1771527 0.19010985 -0.22795822 -0.26755536
000170 55 a9 b4 bd 83 0d 54 be b2 6b 92 bd 6e 3b 0b 3e
       -0.0882136 -0.2070828 -0.071494475 0.1359689
000180 5f b0 11 be b4 b1 88 3e 12 cb b5 bd 65 c3 e4 bd
       -0.14227436 0.26698077 -0.08876623 -0.11170081
000190 94 c3 8c 3e b8 dc bc bd 06 48 55 3e 5f e5 a3 3d
       0.27492964 -0.09221786 0.20828256 0.080027334
0001a0 d1 65 44 3e 6e cb 81 3e a4 fd 87 be c1 80 74 be
       0.19179465 0.25350517 -0.265607 -0.2387724
0001b0 a2 b2 bb 3c db 62 56 bd 2a bf d1 3d 26 3c 49 3d
       0.022912327 -0.05234037 0.1024154 0.049129628
0001c0 b9 de 1c 3e d4 fa db 3d b8 8b 84 3e 3a b4 39 3e
       0.15319337 0.10741201 0.25887847 0.18135157
0001d0 be a8 58 3e 77 fc c2 3d ae e8 7c 3e af 85 85 3e
       0.2115812 0.0952081 0.24698135 0.26078555
0001e0 03 98 00 be fc ac cd bd 4b 16 4f be de e7 7e be
       -0.12557988 -0.1004276 -0.20223348 -0.24893138
0001f0 50 a3 57 3e 6a 42 24 3e b5 ee 4f 3e d9 03 90 3e
       0.21058393 0.1604096 0.20305903 0.28127936
000200 25 70 71 be f0 36 91 bd f1 ff 94 3d c0 ec 3f be
       -0.23577936 -0.070905566 0.072753794 -0.18742657
000210 14 36 37 be 4a 08 ed 3c 97 e3 09 3e 27 b0 49 be
       -0.17891723 0.028934617 0.13465725 -0.19696103
000220 44 5e 7b 3e 95 60 ad 3c 95 68 24 bc b8 4e 5e 3d
       0.24547678 0.021164218 -0.0100347 0.05427429
000230 ae 39 04 be 9f 2f 85 bc 2e 4e 0c 3e a0 02 b3 3d
       -0.12912628 -0.01625806 0.13701698 0.08740735

model.PatchMixer_blocks.1.Conv_1x1.0.bias f4 [12]
000000 83 fd 62 3e 79 2b 66 be c0 ae 19 be 38 d2 89 3d
       0.2216702 -0.22477521 -0.15008068 0.06729549
000010 11 02 10 3e 5c 14 8f 3e 5a 52 cd 3d 50 32 53 3e
       0.14063288 0.2794522 0.10025473 0.20624661
000020 93 9c cd 3d c2 7a 90 3e 43 1b 12 bd c6 ea af bd
       0.1003963 0.28218657 -0.03567053 -0.08589701

model.PatchMixer_blocks.1.Conv_1x1.2.weight f4 [12]
000000 79 b1 7d 3f 88 96 7d 3f 75 fa 7d 3f bc 52 7d 3f
       0.99098927 0.9905782 0.9921029 0.9895437
000010 2e 1f 7d 3f 59 d2 7d 3f 76 99 7e 3f 93 ad 7f 3f
       0.988757 0.9914909 0.9945291 0.9987423
000020 3a 96 7d 3f 2f e4 7c 3f 07 d0 7c 3f 12 9c 7d 3f
       0.9905735 0.9878568 0.98754925 0.9906627

model.PatchMixer_blocks.1.Conv_1x1.2.bias f4 [12]
000000 01 dd 07 3b 7e 42 c3 3b 47 03 d9 3a b8 06 13 3b
       0.0020731094 0.005958854 0.0016556763 0.0022434425
000010 70 cb 01 3b 63 3c 33 3b 2e 69 30 3b 0e e3 fe ba
       0.0019805096 0.0027349226 0.002691816 -0.001944633
000020 ec b8 a6 3a 8d e8 2c 3b ac a1 94 3a bc 8e 07 3b
       0.0012719906 0.0026383728 0.0011339686 0.0020684442

model.PatchMixer_blocks.1.Conv_1x1.2.running_mean f4 [12]
000000 15 40 98 3e 9e db 16 3c 8e a7 47 3d 96 e8 5a 3e
       0.2973639 0.009207634 0.048743777 0.21377787
000010 57 05 82 3e 29 6e c6 3e e6 58 5b 3e 57 40 a6 3e
       0.253947 0.3875592 0.21420631 0.32470962
000020 7e 2f 95 3e e0 22 d0 3e 45 3a 70 3e 4b 11 ce 3d
       0.29137796 0.40651608 0.23459728 0.10061892

model.PatchMixer_blocks.1.Conv_1x1.2.running_var f4 [12]
000000 45 7f 83 3e 7e 1c 75 3d 47 d1 f5 3d 58 2d 7a 3e
       0.25683036 0.059841625 0.12002807 0.2443136
000010 77 98 89 3e 90 12 cb 3e 3a 43 87 3e 3d 87 97 3e
       0.26874134 0.396626 0.26418477 0.29595366
000020 4b b1 a9 3e 46 70 46 3f d2 96 7c 3e 25 47 08 3e
       0.33143076 0.77515066 0.24666908 0.1330839

model.W_P.weight f4 [512, 16]
000000 ca 8f 60 be eb 54 3c 3e 95 55 57 3d f6 a2 3b 3d
       -0.21929851 0.18391769 0.05257185 0.04580971
000010 34 75 f5 3d 8a 47 11 3d 12 a0 26 3e 81 8d 26 be
       0.11985245 0.035468616 0.16272 -0.16264917
000020 d7 1f 5c be 78 9b 50 be 6c 16 1e 3c c2 80 14 3d
       -0.21496521 -0.20371807 0.0096489005 0.036255606
000030 23 f9 37 3d 03 26 ca bd 55 33 61 be 35 27 4a be
       0.04491533 -0.098705314 -0.21992238 -0.19741519
000040 6a 97 2e be 81 00 3a 3e 20 2c fe bc 94 2e 96 3d
       -0.17049947 0.18164255 -0.0310269 0.07333103
000050 36 51 d7 3d 64 69 58 3e 36 70 da 3d 11 c8 1e 3e
       0.10513537 0.21133953 0.10665934 0.15506007
000060 99 5e 1a 3c 02 d2 58 be 3f f7 42 be ee ef 07 3c
       0.009421968 -0.21173862 -0.1903963 0.00829695
000070 f6 03 fd 3d eb 07 3c be cc 75 ad bc 3f 5c 0f 3e
       0.12354271 -0.18362395 -0.021174334 0.14000033
000080 0b 74 40 3e 21 81 23 bc 18 48 c7 bd 55 52 17 3d
       0.18794267 -0.009979517 -0.09730548 0.036943752
000090 a1 09 22 be 64 ac 58 3d f3 e9 6a be 72 91 a5 3d
       -0.15823986 0.05289878 -0.22940807 0.08084382
0000a0 f7 24 0c be 59 a6 11 3e d3 1d ca 3d eb 54 73 bd
       -0.13685976 0.14223613 0.0986897 -0.059407156
0000b0 c9 dd 2a 3e a9 17 6d be cd ab 34 3e 9b cc 00 be
       0.16686167 -0.23153557 0.17643662 -0.12578051
0000c0 fc 17 a4 3d a8 91 43 3e bb 4a 6f 3e 95 39 51 be
       0.08012387 0.19098532 0.23368351 -0.20432122
0000d0 90 54 96 bb 85 7b ba 3d cc f7 d9 bd c0 b6 e7 bd
       -0.0045877174 0.09105591 -0.10642967 -0.11314154
0000e0 e8 35 35 3e 36 b4 44 be a9 ab 46 be 56 04 72 be
       0.17696345 -0.1920937 -0.1940142 -0.23634467
0000f0 95 e4 29 3d 79 44 13 3e d3 6e 6f 3e 06 b6 5e 3e
       0.04147776 0.14381589 0.2338212 0.21749124
000100 9e 80 ac bd c7 7e 26 bd 5c 0d 43 be 2d 22 13 3d
       -0.08422969 -0.040648248 -0.19048065 0.035921264
000110 c7 ef 1b be df dc 5d 3e 91 eb 78 be c8 95 71 3e
       -0.15228187 0.21666287 -0.24308611 0.23592293
000120 15 7e 7e be 76 9d 43 bd d2 dd 17 be ac 48 c4 3d
       -0.24852784 -0.04775759 -0.14830711 0.095841736
000130 51 b0 0d be 71 a5 39 be 52 b0 12 be 29 9d 43 3e
       -0.1383679 -0.18129517 -0.14325073 0.1910292
000140 fa ca 78 3e be b7 4e be 65 d9 38 3d 25 fb c0 bd
       0.2429618 -0.2018728 0.0451292 -0.09422902
000150 ed 89 77 3e 55 1e 6a be 43 71 4d 3d ea 3b d9 3d
       0.24173708 -0.22863133 0.050156843 0.10607131
000160 d2 6b 5b be 56 a2 3c 3b a0 b0 9a bd d9 39 1c be
       -0.21427849 0.0028783283 -0.0755322 -0.15256442
000170 d8 76 21 be 24 fa 98 bc 9c 33 1d be cc 73 eb 3d
       -0.15767992 -0.018673964 -0.15351719 0.11496696
000180 dd 47 3b be 86 af 8b 3c a6 99 a3 bd 39 b5 90 bd
       -0.18289132 0.01705147 -0.079882905 -0.070658155
000190 a6 7b 6a 3e 6b 02 05 be f0 bb 71 be 47 b2 5c be
       0.2289873 -0.12989204 -0.23606849 -0.21552382
0001a0 e9 d8 47 3e 05 7d 1b 3d 7b ea 8d bd d8 c4 e1 bd
       0.19516338 0.037961025 -0.06929489 -0.11023873
0001b0 94 28 2b be 81 a0 c8 bd 4a fe 53 3d a7 93 be bd
       -0.16714698 -0.09796239 0.05175618 -0.09305506
0001c0 be 24 73 3e c8 e8 71 bd 4b d3 46 3d 08 85 f0 3d
       0.23744485 -0.059059888 0.04854135 0.11744124
0001d0 ca 78 16 3d e8 a1 29 be 38 ea d3 bd 78 35 2f be
       0.036736287 -0.16565669 -0.10347408 -0.1711024
0001e0 c4 ef f6 bd cd b9 11 bb c6 d6 22 be a1 a8 d2 3d
       -0.120574504 -0.002223599 -0.15902242 0.1028607
0001f0 ea 75 06 3e 05 9c 0e 3e 4b 6e 66 3e af 62 b7 bd
       0.13130918 0.13926704 0.22503011 -0.08954369
000200 b9 e0 32 3c 94 43 0b be 8d b4 46 3e ab 8c 9e bc
       0.010917836 -0.13599998 0.19404812 -0.019354185
000210 18 e2 78 3e f5 ef 35 3d b1 96 38 bd 35 ed 3c be
       0.24304998 0.044418294 -0.045065586 -0.18449862
000220 97 f4 51 be 66 ec 7e 3d 0d ac 0d be a0 27 9e 3d
       -0.2050346 0.062237166 -0.13835163 0.077224016
000230 c8 5b 29 bd 45 01 03 be c2 a0 26 3e 37 e2 22 be
       -0.041347295 -0.12793453 0.16272262 -0.15906607
000240 b5 26 3e 3d 38 02 1c be 53 d7 71 3e a1 48 2f be
       0.046423633 -0.15235221 0.23617296 -0.1711755
000250 1d 3c 5c 3d 71 89 48 3e d6 5c 2a be fd 91 c0 3d
       0.053768266 0.1958368 -0.16636977 0.09402845
000260 10 89 51 be c0 b1 52 3e 42 b4 42 3e c0 17 23 be
       -0.20462441 0.20575619 0.19014075 -0.15927029
000270 8f 5b 49 bd 0c 75 22 3e 20 0b 57 3e 42 1f 4b be
       -0.049159583 0.15864962 0.21000338 -0.19836143
000280 6d 00 fd 3d d1 fd 04 bd 2d c5 00 be 4f 54 35 be
       0.12353597 -0.03246862 -0.12575217 -0.17707942
000290 48 70 90 3d 49 7c db 3d 89 ba 25 be 72 3a 7a 3e
       0.07052666 0.10717065 -0.16184439 0.24436358
0002a0 cd e4 9c 3d 4e 86 b7 bc 28 f9 23 be 9c 2c c8 bc
       0.07660828 -0.022402909 -0.16013014 -0.024435334
0002b0 95 0c 9e 3c 4f 15 25 bc 89 3a 47 be 2b dc e1 3d
       0.019293109 -0.010075881 -0.19455923 0.11028322
0002c0 cb 0d 36 3e 6b 05 2a be c4 fa da bc dc 21 ec 3b
       0.17778699 -0.1660363 -0.026730902 0.007206185
0002d0 a8 7a 46 3d e5 85 ad 3d 69 3d 3c bc be 25 60 3e
       0.048456818 0.08472804 -0.011489251 0.21889398
0002e0 91 5a bd 3d 02 8c 22 3e d3 17 05 3e 96 fe 2b 3c
       0.0924579 0.15873721 0.1299737 0.01049771
0002f0 b4 b4 d5 bb e5 20 d9 bc c1 c8 2a be a1 7d 0e be
       -0.0065217856 -0.026504943 -0.16678144 -0.13915111
000300 2e ba 60 be 58 2b 68 be 90 28 5f 3d f7 60 a4 bd
       -0.21946022 -0.22672784 0.054482043 -0.08026307
000310 9c d7 40 be 67 f4 68 3e b0 d2 ad 3b e9 c0 b9 3d
       -0.18832248 0.22749482 0.005304657 0.09069998
000320 ec ff 31 3e ae 7f 20 bc f4 cf e5 bc 5b 11 26 be
       0.17382783 -0.009796066 -0.028053261 -0.16217558
000330 87 41 e8 3d f3 0d 94 3d 28 38 98 bb db 2f 9f 3d
       0.11340623 0.07229223 -0.004645366 0.077727996
000340 d3 1d fc bd 1b 8e 5d 3e 49 b5 d9 bd e9 07 c6 3d
       -0.12310376 0.2163624 -0.106302805 0.096694775
000350 20 c1 e9 3d 0d e2 68 bd 75 17 6a be 5b d9 bb bd
       0.11413789 -0.056856204 -0.2286051 -0.09172317
000360 45 b0 4a be 43 3a f7 bd d3 74 84 3d 4c 9a 34 be
       -0.19793804 -0.120716594 0.06467595 -0.17636985
000370 56 b8 16 3e 37 1f 1c 3e 45 cf ff bd 02 54 de 3d
       0.14718756 0.15246283 -0.124907054 0.10855867
000380 a1 fc 3f 3e 94 a2 56 3e 4d 9d 04 be 15 83 b6 3d
       0.18748714 0.20960456 -0.1295063 0.08911721
000390 de 9a a4 bd 4b 06 f1 bd a6 08 f1 bd 7e 5b 40 3e
       -0.08037351 -0.117687784 -0.11769228 0.18784901
0003a0 ff 09 e8 3d d6 e8 74 3c c0 ef a5 bd 91 3d 7e bc
       0.113300316 0.014948091 -0.08102369 -0.015517608
0003b0 ba f4 77 3c 49 82 58 3e ad 98 00 3e 85 52 f3 3d
       0.015134031 0.2114345 0.12558241 0.11880974
0003c0 93 27 0a 3e 51 43 9d 3d 71 68 dc bd eb ab fe 3d
       0.13491659 0.07678855 -0.10762108 0.124351345
0003d0 c6 ba f9 bd b2 3a 41 be 56 69 6b be 96 ee 86 3d
       -0.12193827 -0.18870047 -0.22989401 0.065884754
0003e0 25 7c 08 3e 3d 8a 0d bd 55 6b 22 bb 70 e8 57 3e
       0.13328607 -0.034555662 -0.0024783213 0.21084762
0003f0 f2 52 7b 3e 06 44 56 3e b5 74 47 3e 85 9f 1e be
       0.2454336 0.20924386 0.19478114 -0.1549054

model.W_P.bias f4 [512]
000000 f8 d4 97 bd 34 40 3a be c2 b0 75 be 81 b2 4a be
       -0.074136674 -0.18188554 -0.23993209 -0.19794656
000010 f1 1b 70 be 15 23 5d 3e 43 0d 89 3d 49 8e 4f 3e
       -0.23448159 0.21595414 0.066919826 0.20269121
000020 bf f2 89 bd 60 6c 1d be 0a 8b c3 bd ca 53 6f 3e
       -0.06735753 -0.15373373 -0.09548004 0.23371807
000030 eb 6d 05 be 71 85 55 3e d0 e6 5f 3c 13 13 2f 3e
       -0.13030212 0.20851685 0.01366587 0.1709712
000040 8b 82 b0 3d 52 bf 3b 3e 8e c4 24 be 21 e3 be bd
       0.08618649 0.18334702 -0.16090605 -0.09320665
000050 cc ff ae bb 15 fe 1b be 07 b9 2e 3e b3 f9 ec bd
       -0.005340552 -0.15233643 0.1706277 -0.11571064
000060 97 d6 01 be 97 4c 2b be a4 d1 66 3e 88 84 68 3e
       -0.12679516 -0.16728435 0.22540909 0.22706807
000070 06 75 01 be 80 fb 2f be 84 48 9a 3d 16 39 08 3e
       -0.12642297 -0.17185783 0.075333625 0.13303027
000080 d9 f4 ea bd 1f 31 74 3e cb 77 61 3d 3f d6 0f 3e
       -0.11472482 0.23846863 0.055045884 0.14046572
000090 93 12 eb bd 35 5a fc bd 28 fe 54 be 77 f0 b7 3d
       -0.11478152 -0.12321893 -0.20800078 0.08981412
0000a0 5b 9f 40 3d 2b ef 00 3e c0 22 27 be 77 94 37 3e
       0.047026973 0.12591235 -0.1632185 0.17927729
0000b0 1e 8b 64 bd cc 57 92 bc 3d fd 8e bc df 3c 1d be
       -0.055796735 -0.01786413 -0.017454738 -0.15355252
0000c0 7c f0 da 3d 78 c8 e4 3d 7b 04 e2 3d 4e 10 cd bd
       0.106904 0.11171049 0.11036011 -0.100128755
0000d0 74 08 0c be 66 57 2b be d2 df e3 bd d5 a8 5d bd
       -0.136751 -0.16732559 -0.11126675 -0.05411609
0000e0 1f c1 a8 bd 21 83 4f 3e 29 de 58 3d a4 82 06 3e
       -0.0823996 0.20264865 0.052946243 0.13135773
0000f0 a9 d4 30 3d 36 e3 2b 3e 1b d0 09 3b 5f 37 0c be
       0.04317156 0.16785893 0.0021028582 -0.13692997
000100 4c 79 73 be fc 97 ed bd f3 93 8e bd 19 bf ac 3d
       -0.2377674 -0.11601254 -0.06961813 0.084348865
000110 23 59 3c 3b 46 43 33 be d0 1d 10 3e 6d a0 4e 3e
       0.0028739653 -0.17506132 0.14073873 0.20178385
000120 ab 5a 0a be fc f4 0e be 8d a2 e3 3d e6 8b 90 bd
       -0.1351115 -0.13960642 0.111149885 -0.070579335
000130 a3 8a 7b bc d3 fb ff 3d 48 59 24 3e bb 5c 22 be
       -0.015352878 0.124992035 0.16049683 -0.15855686
000140 86 e6 9e 3d cf 5a b1 3d 3f e6 4a 3d d7 28 4c 3e
       0.077588126 0.086598985 0.049535986 0.19937454
000150 c9 38 01 be 39 40 84 3d fd 9b 4a be 7c c6 23 3e
       -0.12619318 0.06457562 -0.19786067 0.15993685
000160 c8 74 75 3e cd 7c f9 3c d2 f4 04 be 3c 0f 5a be
       0.2397033 0.030455017 -0.12984017 -0.21294874
000170 79 41 06 be 02 19 b7 3d e0 40 06 bd 86 5c 16 3e
       -0.13110913 0.08940317 -0.032776713 0.14683732
000180 fd ec 24 3e a3 a6 d2 3d 70 e1 73 bd 98 71 36 3d
       0.16106029 0.1028569 -0.059541166 0.044541925
000190 e5 85 e5 bd ba 93 f9 3d 38 bd 0e 3e 09 73 40 3e
       -0.11207179 0.1218638 0.13939369 0.18793882
0001a0 5b 1b 1f 3e 99 57 6f 3e ac 47 c9 3d 0b 43 a7 bd
       0.15537779 0.2337326 0.098281235 -0.08167084
0001b0 57 9c e4 3d 1a c6 4d bd d4 07 43 3e e8 27 4a 3d
       0.11162632 -0.050237752 0.19045955 0.049354464
0001c0 07 f1 35 3e 4e a5 a7 bd 57 4c 83 3d c5 2b 19 be
       0.17767726 -0.08185826 0.06411045 -0.14958103
0001d0 7e e1 09 be 96 02 53 be ab c6 69 3e 5a a6 4c be
       -0.13464925 -0.20606455 0.22829692 -0.19985333
0001e0 20 1b ac 3d 50 d6 c1 bd be 2d b9 3d fc cd 02 3e
       0.08403611 -0.09464705 0.09041928 0.1277389
0001f0 87 53 37 3e ff 0e 3c be de 3f 40 be 62 6a 09 be
       0.17902957 -0.18365096 -0.18774363 -0.13419488
000200 f9 b6 20 bc f9 34 7a 3e 3d 55 4a 3e ef 61 37 be
       -0.009809249 0.2443427 0.19759078 -0.17908452
000210 62 fa 65 be bb 2d 68 be 7b 5b ac 3d a8 94 a5 bd
       -0.22458795 -0.22673695 0.08415886 -0.080849946
000220 c5 aa 16 be 31 2a 28 3e c2 2f cb 3c 95 cc af 3d
       -0.14713581 0.16422345 0.024803046 0.08583943
000230 b9 e0 e8 3c 96 12 20 3e b4 f2 64 bd c1 72 78 3e
       0.028427469 0.1563209 -0.055895522 0.24262525
000240 72 3b b5 bd 76 51 42 be bb 5a 7e 3d fe 21 41 be
       -0.08849229 -0.18976387 0.062098246 -0.18860623
000250 25 b7 93 3d 96 69 c6 bc 8e 11 54 be f1 32 e1 bd
       0.072126664 -0.02422027 -0.20709822 -0.109960444
000260 53 28 78 3e 61 62 f1 3c ff a5 60 be 80 cd 4c 3d
       0.24234132 0.029465856 -0.21938322 0.050000668
000270 0b af 1d 3d ab 72 92 bc 5b 71 9d 3d 8b f1 95 bd
       0.038497012 -0.017876944 0.076876365 -0.07321461
000280 47 13 11 3e 4f b0 64 3e ec ed 39 3d 80 f3 75 3e
       0.1416751 0.22332881 0.045392916 0.24018669
000290 02 73 7c be 26 ed 42 3e 25 27 76 bb 83 ac 46 be
       -0.24653247 0.19035777 -0.0037559953 -0.19401745
0002a0 b5 7f ae 3d 3f e9 ef 3d 58 48 b7 3c 0b f1 24 3d
       0.08520452 0.1171441 0.022373363 0.04026894
0002b0 3f e2 0b bd eb 06 b1 bd d4 7e 1f 3d 9a 44 87 3d
       -0.034151312 -0.086438976 0.038939312 0.066048816
0002c0 6f c8 29 3e 4a dd 2d bc c9 cc 35 be 98 36 92 3d
       0.16580366 -0.010611841 -0.177539 0.07139319
0002d0 0d 4b 3f 3e c2 cd 9d bd 6b c0 0c 3e 2b 8b 1c 3e
       0.18680973 -0.07705261 0.13745277 0.15287463
0002e0 48 d5 6b 3e 4e 69 cb bc 85 13 5e be b9 5a 6d be
       0.23030579 -0.024830487 -0.21687134 -0.23179139
0002f0 22 04 5a 3e f9 77 3d 3d 72 a8 30 3d 96 7b 78 be
       0.21290639 0.046256993 0.043129392 -0.24265894
000300 32 41 72 3d a4 8b 34 be b1 b3 bc 3d 01 65 19 be
       0.059144206 -0.17631394 0.09213961 -0.14979936
000310 b6 5e 29 3d 40 a9 5e be a0 86 5b be 7a 05 f2 bd
       0.04135009 -0.21744251 -0.21438074 -0.11817451
000320 09 e9 6c be 95 19 51 3e ca 3e 0d 3d 11 16 a0 bd
       -0.23135771 0.20419915 0.03448371 -0.07816709
000330 87 11 33 be fb 7a 87 bd 6a 62 4a be 69 d4 07 3c
       -0.17487155 -0.066152535 -0.19764104 0.008290389
000340 3f 8e 62 3e 34 e2 b5 3d 90 b7 15 3d 33 02 be 3d
       0.22124575 0.088810354 0.036552012 0.09277763
000350 4f 51 ec 3b b1 bc 60 3e f1 2c 00 bd a8 d9 86 3d
       0.007211841 0.2194698 -0.03129286 0.065844834
000360 a2 30 26 be f4 12 fd bd ac d1 27 3d 88 5a 57 3d
       -0.1622949 -0.12357131 0.040971443 0.05257657
000370 d7 e6 ce 3c 0c 44 64 3e c7 61 c7 bd 3c d8 b9 3a
       0.025256557 0.22291583 -0.097354464 0.0014178823
000380 79 21 67 3e 2d 01 2e 3e 0f 85 00 be c5 03 0f be
       0.22571363 0.16992636 -0.12550758 -0.13966282
000390 d4 da d3 bd 73 0f 8e 3d 1e d8 7e 3d 9f 3b 79 bd
       -0.103444725 0.069365405 0.062217824 -0.060847875
0003a0 03 1e 02 3c d1 a1 63 be 88 3a 23 3e f8 4f 73 3d
       0.007941726 -0.22229697 0.15940297 0.059402436
0003b0 5f 5e 43 be 46 87 47 3e 26 34 ca 3c b5 e6 98 3d
       -0.19078968 0.19485196 0.02468307 0.07465879
0003c0 30 59 3f be 62 04 f5 bd 68 d8 70 3e a0 e3 b7 bd
       -0.18686366 -0.119637266 0.23520052 -0.08978963
0003d0 6e 53 27 3e 52 64 26 be 7e bd 4a be f3 04 de 3d
       0.1634042 -0.16249207 -0.19798848 0.10840788
0003e0 27 c6 a8 39 31 26 01 3e 51 d7 34 3e 6d 68 6e 3e
       0.00032191092 0.12612225 0.17660262 0.23282023
0003f0 93 12 66 be fd a7 1a 3d 64 ef ad bd 8b bc 13 be
       -0.22468023 0.037757862 -0.08492926 -0.14427392

model.head0.1.weight f4 [1, 6144]
000000 bf 42 3b 3c f5 a9 b3 ba 41 30 95 bb 81 0f 89 bb
       0.011429488 -0.0013707267 -0.0045528715 -0.0041827564
000010 48 7d 8e 3b a7 32 44 3c 7a 29 ec ba 97 a8 f1 bb
       0.004348431 0.011974967 -0.0018017732 -0.007374834
000020 f5 ce 1a bb a7 70 1a 3c 70 e7 c0 bb 7a 4e b8 3b
       -0.002362189 0.0094262725 -0.0058869645 0.0056245895
000030 2b ae 0c 3b 40 5c 36 bc d0 b0 cd 3a 18 6e 3b 3b
       0.0021466117 -0.011130393 0.0015692953 0.0028599557
000040 82 b3 f5 ba a8 eb 04 bc 94 81 1d bc 1e 0f 20 3c
       -0.0018745514 -0.008112825 -0.009613413 0.009769229
000050 a9 36 c7 3b a9 50 95 3a 04 e1 9c ba 45 29 c9 ba
       0.006079514 0.0011391836 -0.0011968915 -0.0015347382
000060 19 78 37 3c c4 87 2e 3c 21 83 16 3c 77 f2 d8 3b
       0.011198067 0.010652486 0.009186537 0.006620701
000070 0b 85 11 3c f6 a0 c2 b9 dd 47 17 bc 50 bc c7 bb
       0.008881818 -0.0003712249 -0.009233442 -0.0060954466
000080 bc 2f 1b b8 5c 68 30 3c f6 96 10 3c 19 c8 8e bb
       -3.6999336e-05 0.010767069 0.008825054 -0.0043573496
000090 3e e8 b6 3b da 27 af 3b 35 30 21 bc 5e 77 17 bc
       0.0055818846 0.005345327 -0.009838154 -0.009244768
0000a0 a2 dc 39 3c 6a d2 27 bc c3 a4 d8 3b 22 a5 32 3c
       0.011344107 -0.010243038 0.006611438 0.010903629
0000b0 f8 13 ea 3b 67 f4 28 bb bc 42 d3 bb 15 f2 81 bb
       0.0071434937 -0.002578044 -0.0064471643 -0.003965626
0000c0 df e8 6e 39 a8 97 a4 3a c9 ed 77 bb 29 cc 3c bc
       0.000227842 0.0012557404 -0.003783094 -0.011523285
0000d0 e1 06 15 3c c8 31 09 bb 2f 84 15 3c 17 ad ae bb
       0.009095878 -0.0020934213 0.009125753 -0.0053306925
0000e0 ba 1f 1b bc f0 29 87 39 e4 da 3a 3c dd bc 75 3b
       -0.009468013 0.00025780452 0.011404727 0.0037496604
0000f0 a4 e2 37 bc 79 2c 4b bc 94 19 8d 3b 6f 69 c4 39
       -0.011223469 -0.01240074 0.0043060277 0.00037462587
000100 47 8e 2b 3c 7d 08 82 bb b4 38 b5 3a bf 6a d3 bb
       0.010470933 -0.003968297 0.0013826103 -0.006451934
000110 0a 4a 40 bc b6 45 b7 3b 45 f2 7a 3b 54 91 18 3c
       -0.011736402 0.005593027 0.0038291377 0.009311993
000120 66 03 16 bb 15 df 5b 3a 89 92 1b bc 1e e4 d3 bb
       -0.002289021 0.0008387429 -0.009495386 -0.0064664027
000130 18 21 55 3b 94 65 a6 bb 88 29 dd bb 9f 01 23 bc
       0.0032520946 -0.005078027 -0.0067493357 -0.009949117
000140 59 40 78 bb 75 59 08 3c 13 a0 24 ba 3f b9 0f bc
       -0.003788015 0.0083221095 -0.00062799564 -0.008772193
000150 af d2 2c 3c cf fe 14 bb 02 ae b6 3a 07 c6 8d 3b
       0.010548278 -0.0022734886 0.0013937356 0.004326585
000160 3a e4 a4 bb 12 f7 33 ba ab d1 af 3b ea 5c c1 3b
       -0.0050320895 -0.00068651245 0.0053655705 0.005900969
000170 01 b6 f1 bb f4 cd b1 bb 8f 68 2b bc c1 a3 19 bc
       -0.007376433 -0.005426163 -0.01046194 -0.009377421
000180 58 3c 8d bb 7b 39 23 3c 43 24 30 3c 50 8b b2 ba
       -0.004310172 0.009962435 0.010750833 -0.0013621841
000190 17 5a 39 bb 86 42 39 3b 0a a1 a6 3b b3 6b a1 3b
       -0.0028282457 0.002826841 0.0050851153 0.004926169
0001a0 65 d2 79 bb 76 ed 09 3c 8a 8b 03 bc 23 39 25 bb
       -0.003811979 0.0084184315 -0.008028874 -0.0025211058
0001b0 4f 4e 0b 3b 9d be 9b bb 69 a2 2f 3b 97 8b 24 bc
       0.0021256392 -0.0047529475 0.0026799685 -0.010043046
0001c0 a0 92 24 3c 2c 6c b3 3b bc 9a 78 3b 15 a1 a2 3b
       0.010044724 0.0054755416 0.0037934026 0.00496305
0001d0 f0 d3 8d bb 4c 64 26 3c a1 21 ac 3b 46 44 3e 3b
       -0.0043282434 0.010155749 0.0052530323 0.0029032393
0001e0 01 be 97 ba 86 ae 35 bc b9 af 41 3b 3b cd 10 3c
       -0.0011577011 -0.011088973 0.0029554202 0.008837993
0001f0 56 47 cb 3b fa 22 94 39 c9 d5 2f bc d0 92 b6 bb
       0.0062035723 0.0002825482 -0.010732123 -0.0055717006
000200 19 21 54 bc 58 c7 36 3c ef 8a 40 bb b7 34 48 3b
       -0.012947344 0.011155926 -0.0029379686 0.0030548999
000210 67 e1 3f bc d8 00 a6 ba 8e 28 d3 3b 45 8d ac bb
       -0.011711455 -0.0012665046 0.0064440435 -0.005265864
000220 7b 4c eb 3b 00 45 9e 3b f1 41 cc 3a 7d c7 ef 3b
       0.007180748 0.004830003 0.0015583617 0.007317482
000230 25 bc 28 bc cb ba b4 3a a1 de 8a ba 6a 36 bf bb
       -0.010298763 0.0013788579 -0.0010594913 -0.005835344
000240 79 29 b1 3b 7d 79 cb 3b 7f 4c 80 bb 3e dc 41 3c
       0.0054065553 0.006209551 -0.003915369 0.011832295
000250 5f d7 d6 bb 35 91 0e 3c 86 0d 42 3c 71 43 2f bb
       -0.006556436 0.008701612 0.011844045 -0.002674308
000260 fd f7 21 bc 04 09 08 3c 82 58 d3 bb 72 0f 37 bc
       -0.009885785 0.008302931 -0.00644976 -0.011173116
000270 c1 5e 45 bb 63 e5 98 3b 01 10 0b bb 52 69 8f bb
       -0.0030116292 0.004666017 -0.0021219256 -0.004376569
000280 0a b1 07 bc b3 0e 55 bb 8b ce 36 3c f3 24 c0 3b
       -0.0082819555 -0.0032509982 0.011157642 0.0058637797
000290 3e c1 d0 3a 7b fb 81 3b 25 91 28 bc 1c 33 0f 3c
       0.0015926731 0.0039667464 -0.010288511 0.008740213
0002a0 e5 ef 2b bb aa 9d 1e bb 10 85 b8 bb f2 80 b2 3b
       -0.0026235518 -0.0024202862 -0.0056310967 0.0054475004
0002b0 4c a5 dc 3b dc 7c 50 bb e4 40 01 bb bb 7b 47 bc
       0.006733572 -0.0031812703 -0.0019722516 -0.012175496
0002c0 41 f0 4e ba 68 ad bf ba d2 62 05 bb ad 71 8b bb
       -0.0007894077 -0.0014623823 -0.002035309 -0.0042554946
0002d0 a5 bd 26 bb a3 05 45 3c d8 49 0c bc b1 58 9d bb
       -0.0025442627 0.01202527 -0.008562528 -0.0048018326
0002e0 0d a5 8e 39 6a 76 03 3b 18 9a ea 3b 6c 25 54 b9
       0.00027207323 0.0020059594 0.0071594827 -0.00020231836
0002f0 f7 8e ab 3b c1 94 c2 bb bb 63 c8 ba 31 0a 30 bc
       0.0052355486 -0.005938143 -0.0015288511 -0.010744617
000300 0d 22 6c 3b ca 2c 9e bb 0b e9 e9 ba 5b 8f 31 3b
       0.0036031038 -0.0048271166 -0.0017845941 0.0027093503
000310 59 3e de bb 4a 46 3c 39 8e d6 49 bc 17 48 3c bb
       -0.0067823348 0.00017955262 -0.01231922 -0.0028729492
000320 a2 77 2b 3c 42 fe 29 bc 2b ab 16 3b d5 f7 bb 39
       0.010465534 -0.010375561 0.0022990208 0.0003585207
000330 98 68 8b bb 3e a6 fa 3b 4d 47 53 ba 9d b3 9c 3b
       -0.004254412 0.007649212 -0.0008059636 0.0047821538
000340 5b 10 31 bc 46 49 eb 3a d4 01 cc bb 25 11 af bb
       -0.010807122 0.0017950914 -0.006225804 -0.00534262
000350 b4 90 22 3b 57 f0 17 bc 1c ad af 3b 7e eb fc ba
       0.0024805488 -0.00927361 0.0053612124 -0.0019296256
000360 ef 87 1b 3c 80 cf 29 3c 5e 62 08 3c fb cd 83 3b
       0.009492858 0.010364413 0.008324234 0.0040223575
000370 79 a3 1c 3c 65 45 c8 3b 9d bf da 3b 57 df 2c bc
       0.009560459 0.006111788 0.006675674 -0.010551295
000380 9c df 45 3c f2 20 41 bb 3d 63 16 3c 4b d3 28 3c
       0.012077238 -0.00294691 0.009178934 0.010304282
000390 f8 1b 2c 3c 5b ec 16 3c 0c be 26 bb 52 2f 43 3c
       0.010504715 0.009211625 -0.0025442867 0.0119131375
0003a0 10 0e 55 bc b6 6c d9 3b 57 54 01 3c 15 c3 91 3b
       -0.013003841 0.006635274 0.007893643 0.0044483044
0003b0 2f 19 d9 3b dd a1 8c bb 40 b3 c7 bb f8 6d ad 3a
       0.0066253166 -0.0042917565 -0.0060943663 0.0013231626
0003c0 72 52 12 bb 03 b5 2f bc dc f3 1b 3c 21 f7 fd 3b
       -0.0022326973 -0.010724309 0.00951859 0.0077504073
0003d0 d5 65 d5 3b be 8c ec 39 ea 63 b7 3b 61 b5 9a bb
       0.0065123835 0.0004511829 0.0055966275 -0.004721329
0003e0 fb 6d 15 bb 53 51 26 bb 6e c6 2d 3c 84 3e af bb
       -0.002280115 -0.0025378063 0.010606391 -0.0053480286
0003f0 24 6d 37 bb b0 ce c7 3b 9e 0f 11 bc 7d 4e 2b 3c
       -0.0027988637 0.006097637 -0.008853821 0.010455725

model.head1.1.weight f4 [2, 6144]
000000 20 1d 96 3b cf 99 8e ba 0c 0e 8c ba 3e 4b 28 bc
       0.0045811087 -0.0010879579 -0.0010685339 -0.010271845
000010 c6 dc b5 3b e8 ae 0f 3b 93 9c 04 3c fd 63 2f bc
       0.00555 0.002192432 0.008093971 -0.010704991
000020 a8 c9 f4 bb 8f 18 10 bc 41 2c 15 b8 15 6e 8d 3b
       -0.0074703284 -0.008794918 -3.5565583e-05 0.0043161013
000030 e5 07 d7 3b 9c 7a 30 3c cd 5d 68 3b cf 14 35 3c
       0.0065622204 0.01077142 0.00354563 0.011052324
000040 3c 52 a9 3a a3 bb 86 ba 1f 7b 90 bb c7 d7 1d 3c
       0.0012918185 -0.0010279309 -0.0044092084 0.009633965
000050 d9 1b 8e 3a fe f8 fd 3b 36 93 21 3a 6a 54 ff 3b
       0.001084204 0.0077506294 0.0006163599 0.0077920454
000060 5e ea 34 3a 9f 1e ab 3b b0 3c 16 3b 58 25 85 3b
       0.00069013785 0.005222156 0.0022924356 0.0040632896
000070 7f 72 21 bc 0c 33 6d bb c0 2e d9 3b a1 51 ec 3b
       -0.009853958 -0.0036193756 0.0066278875 0.0072118794
000080 8d 2f 0f 3c 80 e4 a5 3b fd 1c c2 ba 54 45 4b bc
       0.008739364 0.0050626397 -0.0014809665 -0.012406666
000090 53 60 91 3b e4 4b 4f 3c ff 54 45 3c 45 b5 11 3c
       0.0044365316 0.012652371 0.01204419 0.008893316
0000a0 16 1d 92 bb 8e fd eb bb 91 43 18 bc 63 8f 06 bc
       -0.0044590337 -0.007201857 -0.009293453 -0.008212897
0000b0 69 17 1e bc e9 10 57 bb fa 49 cd 3b 8c 06 0a 3c
       -0.009649136 -0.0032816476 0.006264922 0.008424412
0000c0 98 df b8 bb 58 c2 25 3c 73 5f a0 3a 53 68 8d 3b
       -0.005641889 0.010117136 0.0012235477 0.004315415
0000d0 a7 b8 0a ba 6e 57 2a 3c 8a ab 3a 3b b8 55 27 bc
       -0.00052917976 0.010396821 0.0028483593 -0.010213308
0000e0 d3 d6 97 bb 20 1c c2 39 01 96 1a 3c 9e a9 e7 3b
       -0.0046337633 0.00037023518 0.009435178 0.0070697805
0000f0 18 b8 13 3c 56 f9 37 3c 54 4e 19 bb 71 05 ee 3b
       0.009016059 0.01122888 -0.0023392634 0.0072638323
000100 d9 67 1a 3c ce c9 2c bc 89 02 5e 3c 38 f6 d4 3b
       0.009424173 -0.010546161 0.013550409 0.006499078
000110 39 f8 3b 3c 32 38 1a bc 7d 5c 68 3b 2a bd 27 3c
       0.011472755 -0.009412812 0.0035455518 0.010237971
000120 3e ad 31 bb 3e 1f be b9 c4 6f 21 3b df 53 ea bb
       -0.0027111317 -0.000362629 0.0024633268 -0.0071511115
000130 15 7d 1a bc c9 dc 3d ba ec 13 e4 3a bc 43 2f 3c
       -0.009429236 -0.00072426774 0.0017400957 0.0106973015
000140 1c 00 b9 bb 94 4f 15 bc 0d 75 00 bb 16 ed 56 3c
       -0.005645765 -0.009113211 -0.0019601018 0.013118049
000150 8a cd f2 3b 13 9d fb 3a cc 47 e1 bb b8 b6 53 3b
       0.007409756 0.0019196592 -0.006875014 0.0032304954
000160 41 c0 9f 3b ac 5f 32 bc 44 24 c9 bb bb 7a 51 3a
       0.0048752134 -0.010887068 -0.0061383564 0.00079910056
000170 46 fb b6 bb 6c 97 c1 bb 4a f9 43 3c a0 dd 13 bc
       -0.0055841533 -0.0059079435 0.011961291 -0.0090250075
000180 ee 1f 3f bb 61 dd e7 ba 3f 0f 9f bb 2a 06 13 bc
       -0.0029163319 -0.0017689877 -0.0048541124 -0.008973638
000190 f3 f9 ff bb fc 60 6d 3b 08 50 8f 39 2b de 98 3b
       -0.0078117787 0.0036221137 0.00027334713 0.0046651564
0001a0 cc f6 4b 3b b5 3f 45 3b 32 b7 09 3b 13 35 bd bb
       0.0031122444 0.0030097787 0.0021013734 -0.005774149
0001b0 26 15 27 bc 7b c2 07 3c 90 33 42 3b a1 53 b2 bb
       -0.010197913 0.008286114 0.0029632784 -0.0054420982
0001c0 e9 34 79 3b ce b6 43 3c 34 1a aa 3b 74 77 49 3c
       0.0038025922 0.0119454395 0.005191112 0.012296546
0001d0 b0 b1 4f bb c4 6c 1d bc aa e3 3f 3b e5 40 43 3b
       -0.0031691603 -0.009608451 0.0029279985 0.0029793319
0001e0 8a 38 4d ba d4 2b 09 bc fd 74 07 3b ec 2c dc bb
       -0.00078285544 -0.008372266 0.0020669096 -0.0067192223
0001f0 7e 66 1c bc 64 aa 94 bb 50 42 1f 3c 02 da 3c 3c
       -0.00954592 -0.0045369137 0.0097204 0.0115265865
000200 4d 3c 34 3b 2a 20 33 3c 67 37 14 bc d8 80 69 b8
       0.0027501762 0.0109329615 -0.009046412 -5.5671524e-05
000210 7b fd 42 bc 37 fb 2b bc 9c 3f 57 bb ff 51 bc ba
       -0.011901255 -0.010496906 -0.003284431 -0.0014367698
000220 79 2c 2f bc ce 48 59 3a f6 a9 47 3c 0c a9 2e bc
       -0.010691755 0.0008288742 0.012186518 -0.010660421
000230 ea fe 41 bc 6b 8b 6a 3b 49 7a 05 3c 99 fe 37 3c
       -0.011840561 0.0035788666 0.008146831 0.011230134
000240 6c e1 f7 bb 6b 4f 08 3c dc a4 88 b9 35 b1 c7 bb
       -0.007564714 0.008319716 -0.0002606277 -0.006094123
000250 e6 21 93 ba 88 87 35 bc 18 4c b6 bb e3 00 24 bc
       -0.0011225312 -0.011079676 -0.0055632703 -0.010009977
000260 3c 87 de 3b be 2c 00 bc 7a 55 12 bc e4 56 35 bb
       0.0067910235 -0.007823167 -0.008931512 -0.00276702
000270 49 8b c8 3a 5d f1 d6 bb 29 a7 d8 bb 62 08 23 3c
       0.0015300299 -0.0065595345 -0.006611724 0.009950729
000280 28 fe f4 3a 49 e8 d5 3b 96 c4 ff ba fc 59 c3 3b
       0.0018691467 0.0065279347 -0.0019513543 0.0059616547
000290 d1 2c 3f 3c f9 ca 8b bb 7e a6 c9 bb 2b 5b 07 bb
       0.0116684 -0.0042661396 -0.0061538806 -0.0020653706
0002a0 37 9f 93 bb 96 43 44 3b 8f 5b b1 3b 9e 4d 1f 3c
       -0.004505064 0.002994751 0.005412526 0.009723095
0002b0 5b ae a4 bb 02 57 7c bb 99 01 21 bc 49 cd 3d 3c
       -0.0050256676 -0.003850401 -0.009827041 0.011584588
0002c0 31 de 41 3c 56 83 84 3b 73 b0 39 bc b0 45 ee 3b
       0.01183276 0.004043977 -0.011333573 0.007271491
0002d0 20 9f 82 38 94 e8 d8 39 cb 78 bd bb 9c 2f 20 bc
       6.2285224e-05 0.00041372015 -0.005782222 -0.009776976
0002e0 f4 c5 a9 3b 99 4a 29 3c b4 c4 0f ba 8b ab 53 bc
       0.0051810686 0.010332727 -0.0005484328 -0.012919317
0002f0 5a f4 23 3b 3e 97 24 3a 7c 98 83 39 d4 51 35 3c
       0.002501747 0.00062786404 0.00025099877 0.011066873
000300 f2 2b ac 3b a8 a9 bc bb d4 94 02 bb 30 3e 94 bb
       0.005254262 -0.0057575293 -0.0019925134 -0.004524015
000310 ef 2b 14 bc 29 c9 d8 3b 80 87 09 bc 38 cc 01 3c
       -0.009043678 0.006615777 -0.008394122 0.007922225
000320 6d 23 79 3b 00 4c 51 3c 2a 5d 17 bc c9 18 cc 39
       0.00380155 0.0127744675 -0.009238521 0.00038928378
000330 f3 66 0f bc 36 0e 69 3a af 6f d3 bb 5a 7c 28 bc
       -0.008752572 0.0008890362 -0.0064525227 -0.010283554
000340 ce 2f 80 bb 6d 6b 2c bc 04 aa af bb bb b2 39 3b
       -0.0039119488 -0.010523659 -0.0053608436 0.0028335291
000350 f6 a3 99 3a a8 6a f8 ba 56 7f cd 3b ef 14 4c 3c
       0.0011721838 -0.0018952684 0.006271283 0.012456163
000360 8f 04 40 bc ad 29 28 3b e7 17 d1 3a 21 5a e5 3b
       -0.011719837 0.0025659606 0.0015952558 0.0069992696
000370 98 d1 9d 3b e4 cc 26 bc 08 d1 8a bb cd ce 07 3c
       0.0048162453 -0.010180686 -0.0042363442 0.008289051
000380 bb 4e ea bb 88 a9 34 bc c0 59 20 bc e0 f1 4a 39
       -0.0071504987 -0.0110267475 -0.009787023 0.00019354327
000390 9c f6 72 bb f6 ca d2 bb f8 9c 4d 3a 59 77 f3 bb
       -0.003707326 -0.0064328862 0.00078435196 -0.007429999
0003a0 08 1a bb bb 1b d5 43 3c 54 e7 5e bb 34 54 49 3c
       -0.0057098903 0.011952664 -0.0034012394 0.012288142
0003b0 5c bb 02 bb c8 74 a4 3a 92 0d a5 3b 48 15 5c 39
       -0.00199481 0.001254701 0.005037018 0.00020988763
0003c0 85 a1 2f bc 23 7e 36 bb 92 59 f9 3b 7e c9 b3 3b
       -0.010719662 -0.002784618 0.0076095546 0.005486666
0003d0 40 8a 49 bb 00 c1 af bb b4 08 38 39 07 4b 84 bb
       -0.003075257 -0.0053635836 0.0001755085 -0.0040372643
0003e0 46 de 4b 3b ba d8 2d bb 67 59 be 3b 9a 71 e9 bb
       0.0031107827 -0.0026526884 0.0058089974 -0.007124138
0003f0 12 ec 90 3b e4 25 10 bb 3b 2c 25 bc 0a 60 3e bb
       0.004422673 -0.002199524 -0.010081346 -0.0029048943

model.head1.1.bias f4 [2]
000000 f2 91 3a 3b ac c5 15 3c
       0.0028468338 0.009141367

model.head1.4.weight f4 [1, 2]
000000 0a 8a 90 be 5e e2 93 3d
       -0.28230315 0.072209105

model.revin_layer.affine_weight f4 [4]
000000 fc 1e 82 3f 2c 07 82 3f f2 48 81 3f 64 73 80 3f
       1.0165706 1.0158439 1.0100386 1.0035214

model.revin_layer.affine_bias f4 [4]
000000 93 e3 a7 bb 0e 60 14 bc 0f 4c 80 ba a2 cf 3a 39
       -0.0051235645 -0.009056104 -0.0009788292 0.00017815692
