lstm_model/lstm_best.pth (torch, 7330 bytes, 9 tensors)

lstm.weight_ih_l0 f4 [40, 3]
00000000: c1bf afbc f49a 803d 747b ca3a 8c24 34bc
00000010: 11c0 9f3b b3aa 61ba c50e cebc deae 323d
00000020: ceec f339 a20b 96bc b1bb 913d 8211 713b
00000030: c6c1 a4bc a8e4 573d 0460 fe3a 289c b6bc
00000040: 3758 0d3d c5f6 2fba ea19 b2bc af70 253d
00000050: c78c 86b6 7112 b7bc cde5 f53c 34c7 77ba
00000060: e7b2 b9bb 0770 053b 6cd5 2f3c e2e1 0e3e
00000070: 3e67 013e b873 7c3d 0a89 0000 4d89 0000
00000080: 2c89 0080 0289 0000 389b 0080 bba1 0080
00000090: 1991 0000 2e8a 0000 7d89 0080 b189 0080
000000a0: 4f89 0000 b389 0000 f388 0080 f088 0000
000000b0: cb89 0080 ae9b 0080 2089 0000 f288 0000
000000c0: cc88 0000 058a 0080 0889 0080 c088 0080
000000d0: fd89 0000 70a9 0000 4789 0000 5789 0080
000000e0: d889 0000 c989 0000 c188 0000 b289 0080
000000f0: 6724 823d 0705 87be 4256 813a 1974 05bd
00000100: 0401 0b3e 13ee 2f3c 5dfd fdbd b310 543e
00000110: ee5b 22bc 440c cbbd be33 973e 8935 95bb
00000120: 2836 cc3d 12a9 83be c71f 213b c290 9b3d
00000130: 7ca4 4dbe 9944 99ba ed7a 95bd 0edf 603e
00000140: 2452 a53a 3794 ab3d a797 40be 1a41 a5ba
00000150: d882 ec3d cded 2bbe 131b 703d ff2c d6be
00000160: ac55 cd3e 9dde b5be 9696 bcbc 9831 843d
00000170: 3db1 113b 440f 36bc 05b1 9e3b 2c75 59ba
00000180: 1a47 d2bc e4cf 373d d371 9e3a ce1b 9fbc
00000190: 8fbb 953d 3a75 913b 9fc9 abbc 2117 5d3d
000001a0: 6959 2a3b e76a bdbc 2246 103d f4b2 22b9
000001b0: d71c babc b3f0 283d b4c1 0d3a 7463 bcbc
000001c0: fde3 fa3c 81db f0b9 abce bbbb fd03 023b
000001d0: 0090 2f3c fd0d 073e 1f63 f13d b11d 6d3d
-0.02145374 0.06279555 0.0015448169 -0.010995042 0.004875191 -0.0008608505 -0.025153527 0.043623798
0.00046525005 -0.018316094 0.071158774 0.0036784117 -0.02011193 0.052708298 0.0019407277 -0.022291258
0.034507956 -0.0006712492 -0.021740872 0.040390667 -4.0099e-06 -0.02234766 0.030016804 -0.0009451986
-0.005667079 0.0020360963 0.010732036 0.13953355 0.1263704 0.061633795 4.916e-41 4.9254e-41
-4.9208e-41 4.9149e-41 -5.5682e-41 -5.8018e-41 5.2051e-41 4.957e-41 -4.9322e-41 -4.9394e-41
4.9257e-41 4.9397e-41 -4.9128e-41 4.9124e-41 -4.9431e-41 -5.5847e-41 4.9191e-41 4.9127e-41
4.9073e-41 -4.9512e-41 -4.9158e-41 -4.9057e-41 4.9501e-41 6.0783e-41 4.9246e-41 -4.9268e-41
4.9449e-41 4.9428e-41 4.9058e-41 -4.9396e-41 0.063545994 -0.26371023 0.0009867626 -0.032581422
0.13574606 0.010737914 -0.12401841 0.20709495 -0.009909613 -0.09914449 0.29531664 -0.004553501
0.09971267 -0.25714928 0.002458559 0.0759597 -0.20082277 -0.0011693417 -0.07298837 0.21960089
0.0012612981 0.08377879 -0.18807851 -0.0012607903 0.11548394 -0.16789933 0.05861957 -0.41831204
0.40104425 -0.35521403 -0.023021024 0.06454772 0.0022230886 -0.011112038 0.0048428797 -0.0008295353
-0.02566867 0.044875994 0.0012088366 -0.019422438 0.073111646 0.0044390233 -0.020970164 0.053977136
0.0025993234 -0.023122264 0.035223134 -0.00015516189 -0.02271883 0.041245174 0.0005407587 -0.022996642
0.030626291 -0.0004593991 -0.005731424 0.0019838803 0.010715485 0.1318893 0.11786484 0.057889644

lstm.weight_hh_l0 f4 [40, 10]
00000000: 0d8a 0080 2c89 0080 7b89 0080 ca88 0080
00000010: e489 0000 c988 0000 5489 0080 f295 0000
00000020: b789 0000 a289 0000 b189 0000 ce89 0080
00000030: bf97 0000 5b89 0080 f388 0080 e289 0000
00000040: 058a 0080 a989 0000 5189 0000 3089 0000
00000050: 1d89 0080 f28f 0080 2789 0000 3dad 0080
00000060: 9c89 0000 d88a 0080 be89 0000 2189 0080
00000070: ea89 0000 fc89 0000 9b89 0080 5689 0080
00000080: 57a4 0080 5189 0080 fd88 0000 e289 0000
00000090: 3789 0000 e589 0080 098a 0080 f388 0080
000000a0: ca88 0080 0389 0000 c889 0000 9889 0080
000000b0: 208a 0000 a189 0000 6689 0000 ea8b 0080
000000c0: f189 0080 95ad 0000 e989 0000 c188 0000
000000d0: 4489 0080 fc8a 0000 f889 0000 be89 0000
000000e0: 3689 0000 3b89 0080 c589 0080 078a 0080
000000f0: ef89 0000 088a 0000 5189 0080 eb9a 0000
00000100: b089 0080 8689 0000 cf89 0000 088a 0000
00000110: 0589 0000 6c89 0080 4089 0000 4389 0080
00000120: f989 0080 3ea2 0080 f29f 0000 bc88 0000
00000130: cf89 0080 8e89 0000 c489 0000 eb88 0080
00000140: 3789 0080 908a 0000 ac89 0000 c2a2 0080
00000150: e889 0080 a789 0000 2589 0000 2c89 0000
00000160: dc88 0080 b988 0000 a889 0000 e488 0000
00000170: fca9 0080 aa89 0080 0189 0000 2389 0000
00000180: 8489 0080 fe88 0080 e388 0080 3ba7 0000
00000190: f989 0000 dda9 0080 5a89 0080 6789 0080
000001a0: d588 0000 0089 0000 9389 0000 c988 0080
000001b0: 3e89 0000 5289 0000 088a 0000 c388 0080
000001c0: 7a89 0080 038a 0080 818a 0000 ce88 0080
000001d0: e089 0000 9a89 0000 058a 0000 058d 0080
000001e0: 008a 0000 3289 0080 f188 0080 368a 0000
000001f0: 9089 0000 598a 0080 ba88 0000 fd88 0000
00000200: 5889 0080 6e9a 0000 10a9 0080 2089 0080
00000210: d988 0000 6c89 0080 b497 0000 77a7 0080
00000220: 6e89 0080 c988 0000 d589 0080 bb88 0080
00000230: f289 0000 8389 0000 0089 0080 0d8a 0000
00000240: 2c89 0000 7189 0080 fc88 0080 3f8a 0000
00000250: 9289 0080 f188 0000 ff89 0080 178a 0000
00000260: 17a6 0080 8689 0000 c988 0000 9389 0000
00000270: 7d89 0080 3a89 0000 298a 0080 0f8a 0080
00000280: 7b89 0000 5089 0080 d089 0080 9f89 0000
00000290: 488a 0080 0189 0080 8e8a 0000 6d93 0000
000002a0: 7f89 0000 3889 0080 3989 0080 0c89 0080
000002b0: 6c89 0080 9089 0080 cc89 0000 068a 0000
000002c0: 6889 0000 0389 0080 7e89 0000 8989 0000
000002d0: 1f89 0080 9e89 0080 be88 0000 5689 0000
000002e0: 1d89 0080 fc89 0080 0d8a 0000 1589 0080
000002f0: a089 0000 be89 0080 eb97 0080 b988 0000
00000300: cc89 0080 be88 0080 4889 0080 cd89 0000
00000310: 0a8a 0080 5589 0000 f2a9 0000 238a 0000
00000320: c488 0000 ec88 0000 a989 0000 8589 0080
00000330: 6794 0080 4da2 0080 da88 0080 db89 0080
00000340: 88a4 0080 7f8f 0080 3089 0080 b2a9 0000
00000350: e689 0080 ca88 0080 889b 0000 6898 0080
00000360: fa89 0000 f1ab 0000 02af 0000 cd88 0080
00000370: 9a89 0000 c088 0000 7989 0080 d188 0080
00000380: 1189 0000 cc8a 0000 ca88 0000 78ad 0000
00000390: c288 0000 a389 0080 c189 0000 5a89 0000
000003a0: e888 0080 21ac 0080 e288 0000 d689 0080
000003b0: af89 0080 9489 0080 138a 0000 b689 0080
000003c0: f389 0000 c289 0080 3b8e 0080 ec88 0000
000003d0: f689 0080 2689 0080 fda6 0080 ee89 0080
000003e0: ac9e 0080 1689 0000 118a 0080 1e89 0000
000003f0: 6d89 0080 dc88 0080 1989 0000 418a 0000
-4.9523e-41 -4.9208e-41 -4.9319e-41 -4.907e-41 4.9466e-41 4.9069e-41 -4.9264e-41 5.379e-41
4.9403e-41 4.9373e-41 4.9394e-41 -4.9435e-41 5.4436e-41 -4.9274e-41 -4.9128e-41 4.9463e-41
-4.9512e-41 4.9383e-41 4.926e-41 4.9214e-41 -4.9187e-41 -5.1638e-41 4.9201e-41 -6.2146e-41
4.9365e-41 -4.9808e-41 4.9413e-41 -4.9193e-41 4.9474e-41 4.95e-41 -4.9364e-41 -4.9267e-41
-5.8954e-41 -4.926e-41 4.9142e-41 4.9463e-41 4.9223e-41 -4.9467e-41 -4.9518e-41 -4.9128e-41
-4.907e-41 4.915e-41 4.9427e-41 -4.936e-41 4.955e-41 4.9372e-41 4.9289e-41 -5.0192e-41
-4.9484e-41 6.227e-41 4.9473e-41 4.9058e-41 -4.9242e-41 4.9858e-41 4.9494e-41 4.9413e-41
4.9222e-41 -4.9229e-41 -4.9422e-41 -4.9515e-41 4.9481e-41 4.9516e-41 -4.926e-41 5.5574e-41
-4.9393e-41 4.9334e-41 4.9436e-41 4.9516e-41 4.9153e-41 -4.9298e-41 4.9236e-41 -4.924e-41
-4.9495e-41 -5.8202e-41 5.7378e-41 4.9051e-41 -4.9436e-41 4.9345e-41 4.9421e-41 -4.9117e-41
-4.9223e-41 4.9707e-41 4.9387e-41 -5.8387e-41 -4.9471e-41 4.938e-41 4.9198e-41 4.9208e-41
-4.9096e-41 4.9047e-41 4.9382e-41 4.9107e-41 -6.0979e-41 -4.9385e-41 4.9148e-41 4.9195e-41
-4.9331e-41 -4.9144e-41 -4.9106e-41 5.9991e-41 4.9495e-41 -6.0935e-41 -4.9272e-41 -4.929e-41
4.9086e-41 4.9146e-41 4.9352e-41 -4.9069e-41 4.9233e-41 4.9261e-41 4.9516e-41 -4.9061e-41
-4.9317e-41 -4.9509e-41 4.9686e-41 -4.9076e-41 4.946e-41 4.9362e-41 4.9512e-41 -5.0588e-41
4.9505e-41 -4.9216e-41 -4.9125e-41 4.9581e-41 4.9348e-41 -4.963e-41 4.9048e-41 4.9142e-41
-4.927e-41 5.5399e-41 -6.0648e-41 -4.9191e-41 4.9092e-41 -4.9298e-41 5.4421e-41 -6.0075e-41
-4.93e-41 4.9069e-41 -4.9445e-41 -4.905e-41 4.9485e-41 4.933e-41 -4.9146e-41 4.9523e-41
4.9208e-41 -4.9305e-41 -4.9141e-41 4.9593e-41 -4.9351e-41 4.9125e-41 -4.9504e-41 4.9537e-41
-5.9582e-41 4.9334e-41 4.9069e-41 4.9352e-41 -4.9322e-41 4.9228e-41 -4.9563e-41 -4.9526e-41
4.9319e-41 -4.9258e-41 -4.9438e-41 4.9369e-41 -4.9606e-41 -4.9148e-41 4.9704e-41 5.2886e-41
4.9324e-41 -4.9225e-41 -4.9226e-41 -4.9163e-41 -4.9298e-41 -4.9348e-41 4.9432e-41 4.9513e-41
4.9292e-41 -4.915e-41 4.9323e-41 4.9338e-41 -4.919e-41 -4.9368e-41 4.9054e-41 4.9267e-41
-4.9187e-41 -4.95e-41 4.9523e-41 -4.9176e-41 4.937e-41 -4.9413e-41 -5.4498e-41 4.9047e-41
-4.9432e-41 -4.9054e-41 -4.9247e-41 4.9434e-41 -4.9519e-41 4.9265e-41 6.0965e-41 4.9554e-41
4.9062e-41 4.9118e-41 4.9383e-41 -4.9333e-41 -5.3237e-41 -5.8223e-41 -4.9093e-41 -4.9453e-41
-5.9023e-41 -5.1477e-41 -4.9214e-41 6.0875e-41 -4.9469e-41 -4.907e-41 5.5794e-41 -5.4673e-41
4.9497e-41 6.1681e-41 6.2781e-41 -4.9075e-41 4.9362e-41 4.9057e-41 -4.9316e-41 -4.908e-41
4.917e-41 4.9791e-41 4.907e-41 6.2229e-41 4.906e-41 -4.9375e-41 4.9417e-41 4.9272e-41
-4.9113e-41 -6.1748e-41 4.9104e-41 -4.9446e-41 -4.9392e-41 -4.9354e-41 4.9532e-41 -4.9401e-41
4.9487e-41 -4.9418e-41 -5.1023e-41 4.9118e-41 -4.9491e-41 -4.92e-41 -5.9904e-41 -4.948e-41
-5.6921e-41 4.9177e-41 -4.9529e-41 4.9188e-41 -4.9299e-41 -4.9096e-41 4.9181e-41 4.9596e-41

lstm.bias_ih_l0 f4 [40]
00000000: 8015 543d 56e5 883c 121c 3b3d 1243 833d
00000010: 6ae7 513d d42f 103d d558 203d 5803 083d
00000020: 178c fa3c 3f7b b43e d689 0080 d789 0080
00000030: 278a 0000 2889 0080 8589 0080 9189 0000
00000040: e688 0080 f689 0000 7aa2 0080 0e89 0000
00000050: fcc1 abbd a2e9 d2bc b35a c13d 4f9b 933d
00000060: eae8 91bd 0add a3bd 19cd a73d bb37 93bd
00000070: 3c9a 763d 8a66 39be e738 613d 2146 893c
00000080: 5fa5 463d 5646 8a3d 4a68 5c3d 402b 173d
00000090: b918 283d 2e53 0e3d 5384 fa3c 25a2 b23e
0.051778316 0.016710918 0.045681067 0.06409277 0.051246084 0.035201862 0.039147217 0.033206314
0.030584378 0.3525028 -4.9446e-41 -4.9448e-41 4.956e-41 -4.9202e-41 -4.9333e-41 4.935e-41
-4.911e-41 4.9491e-41 -5.8286e-41 4.9166e-41 -0.08386609 -0.02574617 0.09441128 0.07207357
-0.07124503 -0.08001144 0.08193416 -0.07188364 0.060205683 -0.18105522 0.054985907 0.016757073
0.048497554 0.06751697 0.053810395 0.03690648 0.041039202 0.034747295 0.030580675 0.3488933

lstm.bias_hh_l0 f4 [40]
00000000: 0db3 543d 56e5 883c 6122 3b3d 7f46 833d
00000010: cdf0 513d d42f 103d 495b 203d 5803 083d
00000020: 118c fa3c 7975 b43e c688 0000 cb88 0080
00000030: dc88 0080 a189 0000 f388 0000 2289 0000
00000040: 0c89 0080 618a 0080 6f89 0080 7189 0080
00000050: f11d b4bd 5508 9d3b 7eb2 a13d de62 993d
00000060: 6de3 95bd 2209 97bd 7d22 923d 7b44 99bd
00000070: ec96 a43d 0ae4 033c c935 603d 2146 893c
00000080: 9ba1 463d 3748 8a3d 0960 5c3d d329 173d
00000090: 5518 283d 2e53 0e3d 6384 fa3c daa4 b23e
0.05192857 0.016710918 0.045687083 0.064099304 0.051255036 0.035201862 0.039149556 0.033206314
0.030584367 0.35245875 4.9065e-41 -4.9072e-41 -4.9096e-41 4.9372e-41 4.9128e-41 4.9194e-41
-4.9163e-41 -4.9641e-41 -4.9302e-41 -4.9305e-41 -0.08794773 0.004792253 0.07895373 0.074895605
-0.07318769 -0.07374789 0.07135484 -0.07483765 0.080365986 0.008049974 0.054738794 0.016757073
0.048493963 0.06752055 0.053802524 0.03690512 0.04103883 0.034747295 0.030580705 0.34891397

lstm.weight_ih_l0_reverse f4 [40, 3]
00000000: aa16 bcbc 2edd 243d ccfd fab9 4fb8 d73c
00000010: 8f04 133e 9e79 92bb 3fea f9bb 5939 e73d
00000020: 655f fd3b 647b b8bc a8c1 053d 7cff 58ba
00000030: c5dc b9bc e8e8 223d 8a3c 93b9 0d58 783a
00000040: 53be 033e 8bbe 483b b0cd a2bc e8a7 763d
00000050: 80c1 c33a e35c 89bc a71d ba3d d29e 8c3b
00000060: c762 b1bc 92b8 3d3d 18f0 183a 1a6b 893b
00000070: 08ac 083e 45dc 4b3c 8d89 0000 8698 0000
00000080: 198a 0000 1c89 0000 139a 0080 de89 0000
00000090: 9d89 0000 2589 0000 d788 0000 e488 0000
000000a0: cd88 0080 d788 0000 8d89 0000 df88 0080
000000b0: 609d 0000 2689 0080 008a 0000 0289 0000
000000c0: d988 0000 e788 0000 3a89 0000 8189 0080
000000d0: d588 0000 ba88 0000 3e89 0080 168a 0000
000000e0: 239c 0080 e08a 0080 25ac 0000 db88 0000
000000f0: 587f 823d a138 56be 9452 61ba 58c5 de3e
00000100: 35ed eabe 36f9 213e 42ce 9a3d 32d3 c9be
00000110: 4fed 28ba 0fbf a13d 1fbc 46be 11a0 7eba
00000120: 2ad2 8bbd f862 573e c245 833a 8e48 a2be
00000130: 4058 df3e 70a6 b8bd 8a68 43bd 3757 8a3e
00000140: 0fdf 4e3b 75ee 93bd 9685 a73e 19e8 4fbb
00000150: ba84 9e3d 312c 6fbe a642 6339 01da 6bbe
00000160: 5945 e53e 58d2 13bd 6656 c5bc 5883 283d
00000170: e571 a738 800a db3c 81b9 133e aead 90bb
00000180: 7768 16bc 7291 ee3d a8a5 093c 25ba bebc
00000190: ce87 083d 4806 a7b9 cf6e c2bc 9e63 263d
000001a0: ade5 8e39 d2de 583b b066 073e 43af 893b
000001b0: 678c b0bc fec7 7c3d d17c 073b c20a 97bc
000001c0: b573 c03d f479 a53b de0a babc 0d1d 423d
000001d0: eb0b 9b3a f345 aa3b 2c44 0d3e 0a5b 5e3c
-0.022960026 0.040249996 -0.0004787281 0.026333002 0.14357208 -0.0044700643 -0.0076268013 0.11290235
0.007732319 -0.022519775 0.032655388 -0.0008277816 -0.022688279 0.039772898 -0.0002808313 0.000947357
0.12865572 0.003063115 -0.01987347 0.06021872 0.0014934987 -0.016767925 0.09087687 0.004291394
-0.021653546 0.046318598 0.00058341166 0.0041936757 0.13346875 0.012442653 4.9344e-41 5.4715e-41
4.954e-41 4.9186e-41 -5.5271e-41 4.9457e-41 4.9366e-41 4.9198e-41 4.9089e-41 4.9107e-41
-4.9075e-41 4.9089e-41 4.9344e-41 -4.91e-41 5.6456e-41 -4.92e-41 4.9505e-41 4.9149e-41
4.9092e-41 4.9111e-41 4.9228e-41 -4.9327e-41 4.9086e-41 4.9048e-41 -4.9233e-41 4.9536e-41
-5.6011e-41 -4.9819e-41 6.1754e-41 4.9094e-41 0.06371945 -0.2092004 -0.0008595374 0.43509936
-0.458841 0.15817723 0.07558872 -0.39418942 -0.0006444053 0.0789777 -0.194077 -0.0009713183
-0.06827195 0.21033847 0.0010015296 -0.3169598 0.43622017 -0.090161204 -0.047707118 0.27019665
0.0031566059 -0.072232164 0.32719105 -0.0031724034 0.07740159 -0.23356701 0.00021673235 -0.2303238
0.4477947 -0.03608927 -0.02408905 0.041140884 7.984395e-05 0.026738405 0.14426233 -0.0044152355
-0.00918018 0.11648835 0.008401312 -0.02328212 0.03333264 -0.00031857402 -0.023734478 0.040622346
0.00027255472 0.0033091796 0.13222766 0.004201801 -0.021551324 0.061714165 0.0020673762 -0.018437747
0.09397069 0.0050499383 -0.02271026 0.047390986 0.0011829113 0.005196327 0.13795537 0.01357151

lstm.weight_hh_l0_reverse f4 [40, 10]
00000000: e0ac 0080 b58a 0000 2989 0000 9b89 0000
00000010: d389 0000 1989 0000 c088 0000 f28e 0080
00000020: ea89 0080 b789 0000 de89 0000 2d89 0080
00000030: 028a 0080 5c89 0080 5e89 0000 fc89 0000
00000040: c188 0080 e389 0080 a289 0080 2a89 0080
00000050: 2689 0000 b789 0000 ed88 0080 5089 0080
00000060: 1589 0000 429c 0080 5b89 0000 e388 0000
00000070: fcab 0000 c988 0000 f389 0080 038a 0080
00000080: 7d89 0000 5889 0000 0d89 0080 e289 0000
00000090: e688 0080 d389 0000 6689 0000 6389 0080
000000a0: a189 0000 5589 0080 e489 0080 fd89 0000
000000b0: fc89 0080 5c89 0000 9d89 0080 e589 0080
000000c0: 9089 0000 6b89 0000 8989 0000 9689 0080
000000d0: c789 0080 128a 0080 b289 0080 2289 0080
000000e0: 968f 0000 6a89 0000 7289 0000 a889 0080
000000f0: 9689 0080 c088 0080 e388 0000 bda9 0000
00000100: 4189 0000 1989 0080 c189 0080 e289 0000
00000110: be89 0080 be88 0000 608a 0000 9a89 0000
00000120: e089 0080 ac89 0080 2389 0080 4d89 0000
00000130: c789 0000 799b 0080 0289 0000 ea88 0000
00000140: 0689 0000 4689 0000 5489 0000 f288 0080
00000150: f388 0080 bf88 0000 e388 0080 9989 0000
00000160: 2c89 0000 be88 0080 d695 0000 d888 0080
00000170: 178a 0080 cb89 0080 c089 0000 c6a7 0000
00000180: 2889 0000 018a 0080 fa89 0080 0389 0000
00000190: 7389 0000 0e89 0080 c488 0000 4c89 0000
000001a0: 9289 0000 e189 0080 6d89 0080 4a89 0080
000001b0: d588 0080 3f89 0080 f888 0000 1789 0000
000001c0: e788 0080 6e89 0080 d489 0000 bd89 0080
000001d0: 0a89 0000 078a 0080 d189 0080 c289 0080
000001e0: 2189 0000 e88b 0080 a690 0000 0e8a 0000
000001f0: e289 0080 4a89 0080 d688 0080 8789 0000
00000200: 1889 0080 c088 0000 9089 0000 1289 0080
00000210: dd89 0080 8389 0080 5489 0080 cf88 0080
00000220: c889 0000 5689 0000 4c89 0000 fda4 0080
00000230: 899c 0000 3889 0000 1f89 0080 7889 0000
00000240: 6f9f 0000 8989 0080 da88 0000 408a 0080
00000250: 0189 0080 ff88 0000 5f89 0080 0c89 0080
00000260: b689 0000 f589 0080 7789 0080 0e8a 0080
00000270: 6e89 0080 c789 0080 108a 0000 de88 0000
00000280: 6889 0000 9989 0080 fc88 0000 d988 0080
00000290: ff8e 0080 0089 0080 3f89 0080 108a 0080
000002a0: 2c89 0080 c188 0000 9989 0000 fd88 0080
000002b0: 268a 0000 acad 0000 8089 0080 3489 0000
000002c0: e689 0080 d288 0080 bd88 0000 3a89 0080
000002d0: b399 0080 4789 0080 e789 0000 3989 0000
000002e0: 8389 0080 be96 0080 9f89 0000 df88 0080
000002f0: a089 0080 439e 0000 008a 0000 ab89 0080
00000300: 9789 0000 1689 0080 1889 0000 bc89 0000
00000310: 8d89 0080 4d89 0000 3c89 0000 048c 0080
00000320: 808e 0080 cb88 0080 eb89 0000 f689 0000
00000330: 8689 0080 c689 0000 0e89 0000 cb88 0000
00000340: 3989 0000 0c89 0000 f088 0080 7f92 0080
00000350: fd88 0000 3f89 0080 84a2 0080 8d89 0080
00000360: 4989 0080 d588 0080 bb88 0000 8289 0000
00000370: 5089 0000 da89 0080 6a89 0000 4189 0000
00000380: ef89 0000 c688 0000 a089 0080 c689 0000
00000390: deab 0000 728a 0000 0489 0000 a789 0080
000003a0: d888 0080 7c89 0000 1489 0080 0789 0080
000003b0: a689 0000 be89 0080 1189 0000 9189 0000
000003c0: e788 0000 6189 0080 f388 0000 2489 0080
000003d0: eb88 0080 fb89 0080 e188 0000 d988 0000
000003e0: 7889 0080 638a 0000 b189 0000 5d89 0080
000003f0: 17a6 0000 c389 0080 9389 0000 058a 0080
-6.2016e-41 4.9759e-41 4.9204e-41 4.9364e-41 4.9442e-41 4.9181e-41 4.9057e-41 -5.1279e-41
-4.9474e-41 4.9403e-41 4.9457e-41 -4.921e-41 -4.9508e-41 -4.9275e-41 4.9278e-41 4.95e-41
-4.9058e-41 -4.9464e-41 -4.9373e-41 -4.9205e-41 4.92e-41 4.9403e-41 -4.912e-41 -4.9258e-41
4.9176e-41 -5.6055e-41 4.9274e-41 4.9106e-41 6.1696e-41 4.9069e-41 -4.9487e-41 -4.9509e-41
4.9322e-41 4.927e-41 -4.9165e-41 4.9463e-41 -4.911e-41 4.9442e-41 4.9289e-41 -4.9285e-41
4.9372e-41 -4.9265e-41 -4.9466e-41 4.9501e-41 -4.95e-41 4.9275e-41 -4.9366e-41 -4.9467e-41
4.9348e-41 4.9296e-41 4.9338e-41 -4.9357e-41 -4.9425e-41 -4.953e-41 -4.9396e-41 -4.9194e-41
5.1509e-41 4.9295e-41 4.9306e-41 -4.9382e-41 -4.9357e-41 -4.9057e-41 4.9106e-41 6.089e-41
4.9237e-41 -4.9181e-41 -4.9417e-41 4.9463e-41 -4.9413e-41 4.9054e-41 4.964e-41 4.9362e-41
-4.946e-41 -4.9387e-41 -4.9195e-41 4.9254e-41 4.9425e-41 -5.5773e-41 4.9149e-41 4.9116e-41
4.9155e-41 4.9244e-41 4.9264e-41 -4.9127e-41 -4.9128e-41 4.9055e-41 -4.9106e-41 4.9361e-41
4.9208e-41 -4.9054e-41 5.3751e-41 -4.909e-41 -4.9537e-41 -4.9431e-41 4.9415e-41 6.0186e-41
4.9202e-41 -4.9506e-41 -4.9497e-41 4.915e-41 4.9307e-41 -4.9166e-41 4.9062e-41 4.9253e-41
4.9351e-41 -4.9462e-41 -4.9299e-41 -4.925e-41 -4.9086e-41 -4.9235e-41 4.9135e-41 4.9179e-41
-4.9111e-41 -4.93e-41 4.9443e-41 -4.9411e-41 4.916e-41 -4.9515e-41 -4.9439e-41 -4.9418e-41
4.9193e-41 -5.0189e-41 5.189e-41 4.9525e-41 -4.9463e-41 -4.925e-41 -4.9087e-41 4.9336e-41
-4.918e-41 4.9057e-41 4.9348e-41 -4.9172e-41 -4.9456e-41 -4.933e-41 -4.9264e-41 -4.9078e-41
4.9427e-41 4.9267e-41 4.9253e-41 -5.9187e-41 5.6154e-41 4.9225e-41 -4.919e-41 4.9314e-41
5.7194e-41 -4.9338e-41 4.9093e-41 -4.9595e-41 -4.9148e-41 4.9145e-41 -4.928e-41 -4.9163e-41
4.9401e-41 -4.949e-41 -4.9313e-41 -4.9525e-41 -4.93e-41 -4.9425e-41 4.9527e-41 4.9099e-41
4.9292e-41 -4.9361e-41 4.9141e-41 -4.9092e-41 -5.1297e-41 -4.9146e-41 -4.9235e-41 -4.9527e-41
-4.9208e-41 4.9058e-41 4.9361e-41 -4.9142e-41 4.9558e-41 6.2302e-41 -4.9326e-41 4.9219e-41
-4.9469e-41 -4.9082e-41 4.9052e-41 -4.9228e-41 -5.5137e-41 -4.9246e-41 4.947e-41 4.9226e-41
-4.933e-41 -5.4076e-41 4.9369e-41 -4.91e-41 -4.937e-41 5.6774e-41 4.9505e-41 -4.9386e-41
4.9358e-41 -4.9177e-41 4.918e-41 4.941e-41 -4.9344e-41 4.9254e-41 4.923e-41 -5.0228e-41
-5.112e-41 -4.9072e-41 4.9476e-41 4.9491e-41 -4.9334e-41 4.9424e-41 4.9166e-41 4.9072e-41
4.9226e-41 4.9163e-41 -4.9124e-41 -5.2553e-41 4.9142e-41 -4.9235e-41 -5.83e-41 -4.9344e-41
-4.9249e-41 -4.9086e-41 4.905e-41 4.9329e-41 4.9258e-41 -4.9452e-41 4.9295e-41 4.9237e-41
4.9481e-41 4.9065e-41 -4.937e-41 4.9424e-41 6.1654e-41 4.9665e-41 4.9152e-41 -4.938e-41
-4.909e-41 4.932e-41 -4.9174e-41 -4.9156e-41 4.9379e-41 -4.9413e-41 4.917e-41 4.935e-41
4.9111e-41 -4.9282e-41 4.9128e-41 -4.9197e-41 -4.9117e-41 -4.9498e-41 4.9103e-41 4.9092e-41
-4.9314e-41 4.9644e-41 4.9394e-41 -4.9277e-41 5.9582e-41 -4.942e-41 4.9352e-41 -4.9512e-41

lstm.bias_ih_l0_reverse f4 [40]
00000000: a8c1 183d 4ac1 8d3e fc68 bd3d 2346 0c3d
00000010: c01e 1b3d 03dc 293e b3cc 4c3d 1a3d 933d
00000020: b0c7 313d d754 0c3e 8589 0080 a289 0080
00000030: d389 0000 3a89 0080 eb88 0000 f488 0080
00000040: f688 0080 f689 0080 0889 0080 4e89 0080
00000050: 8a8e d1bd e3f4 1a3d 41d8 afbc a249 90bd
00000060: 2db7 a13d 7a18 10bd 066b 7e3d cca2 0c3d
00000070: 8b4a 8cbd 7ddc d53c 5fbd 203d 6283 8e3e
00000080: 860f c83d e00d 133d fde4 223d 486d 303e
00000090: 9953 573d 56aa 9e3d 9fe5 3a3d c964 133e
0.03729406 0.2768653 0.0924854 0.034246575 0.037871122 0.16587834 0.049999904 0.071893886
0.043403327 0.13704239 -4.9333e-41 -4.9373e-41 4.9442e-41 -4.9228e-41 4.9117e-41 -4.913e-41
-4.9132e-41 -4.9491e-41 -4.9158e-41 -4.9256e-41 -0.10232265 0.0378312 -0.021465423 -0.07045294
0.07896266 -0.035179593 0.062113784 0.034334943 -0.068501554 0.026106114 0.0392431 0.27834612
0.09768586 0.035901904 0.03976916 0.17229187 0.05256996 0.07747333 0.04562914 0.14393915

lstm.bias_hh_l0_reverse f4 [40]
00000000: 00c2 183d 1ac1 8d3e 1aa1 bd3d 6d46 0c3d
00000010: e11e 1b3d 8aa6 293e 514a 4d3d a947 963d
00000020: 19d5 313d 3b8e 0c3e 8989 0080 cc88 0080
00000030: ef92 0000 5889 0000 c688 0080 208a 0080
00000040: b789 0080 1089 0000 0b9b 0000 e789 0000
00000050: 9f11 86bd b4a1 50b9 7b3e bebd 1d4d a9bd
00000060: d66e a93d 5388 b63d 9d4c c13d d2ed fd3d
00000070: 44f5 b5bd 4396 423d 3db0 203d 9482 8e3e
00000080: cd04 c83d 860d 133d 0ee3 223d 1dcd 303e
00000090: 4840 573d b720 9d3d 28e8 3a3d 4554 133e
0.037294388 0.27686387 0.09259243 0.03424685 0.037871245 0.16567436 0.0501197 0.07337887
0.043416116 0.13726132 -4.9338e-41 -4.9073e-41 5.271e-41 4.927e-41 -4.9065e-41 -4.955e-41
-4.9403e-41 4.9169e-41 5.5619e-41 4.947e-41 -0.0654633 -0.00019896665 -0.09289261 -0.08266661
0.082730934 0.089127205 0.09438441 0.12398876 -0.08884671 0.047506582 0.039230574 0.27833998
0.09766541 0.03590157 0.039767317 0.17265745 0.052551538 0.076722555 0.045631558 0.14387615

fc.weight f4 [1, 20]
00000000: 3852 bbbe f37d 3a3e 1803 b53e d919 d03e
00000010: e156 b7be 66fc 96be 76ed 9e3e 9e33 93be
00000020: 1f4c 7fbe b5ce 803f 99c1 9cbe 6dfa 66bf
00000030: b0ac f9be b97a 95be 7304 9e3e d21b 333f
00000040: f5f0 b33e 5bc1 df3e 8962 a8be f0e7 1b3f
-0.36586165 0.18212108 0.35353923 0.4064472 -0.3580847 -0.2948944 0.31040543 -0.28750318
-0.24931382 1.0063082 -0.30616453 -0.9022587 -0.48764563 -0.29195192 0.3086277 0.69964325
0.35144773 0.43702206 -0.32887676 0.60900784
