lstm_model/lstm_model1.pth (torch, 4464 bytes, 5 tensors)

lstm.weight_ih_l0 f4 [40, 3]
-0.76028067 0.6103893 1.8139217 -0.5979759 1.1531227 1.3795584 -1.044994 1.0139916
-1.7774271 -1.9758542 -1.7573272 -0.47809613 -0.84882987 1.0971628 1.5550237 -1.3770618
0.70438707 0.2398448 -1.2960311 0.7134355 1.5577743 -0.85180974 1.3913977 -1.0226805
-2.1314046 -0.89075065 0.5701304 -1.7989794 -1.3001487 1.2598135 0.116741486 -0.031284753
0.108052604 0.049650494 -0.17782323 0.06579315 -0.08731457 -0.30162466 0.1366625 -0.25467443
0.24782784 -0.20626448 -0.017734801 -0.03436006 0.18025218 0.001510568 0.005695645 -0.15311506
-0.033632047 -0.30376482 -0.26298 -0.094208345 -0.30653322 -0.20870225 -0.27496037 -0.21653876
0.118541874 -0.11166781 0.03537027 -0.19643714 -0.7649479 1.115219 0.9998518 -0.8368493
1.3787246 0.9831069 -0.48586667 1.6007856 -1.064069 -1.031264 0.14665371 -0.6174809
0.8217729 -1.3548697 -1.0099922 0.58282423 -1.5658777 0.12733701 0.24175425 -1.4309406
-0.086708955 0.73833066 -1.6263587 0.3362984 -0.5539951 0.82858676 1.0626391 -0.663799
0.76609874 1.2627366 -1.2192551 0.5971583 2.2953382 -0.62608 0.82787013 1.6612198
-0.6718565 1.2650687 -1.9144201 -1.9225769 -1.5845352 -0.63238543 -1.0192493 0.8627933
2.1065123 -1.6574117 0.8736943 0.18340495 -1.06038 0.8406012 1.458406 -0.9416958
0.9748074 -1.2142414 -2.2002506 -1.130671 0.7316206 -2.1702933 -1.1497504 1.6554443
00000000: c1a1 42bf 7942 1c3f 962e e83f f314 19bf
00000010: 8699 933f 5f95 b03f 5dc2 85bf 7aca 813f
00000020: bb82 e3bf cae8 fcbf 19f0 e0bf 04c9 f4be
00000030: ea4c 59bf d56f 8c3f 040b c73f 9043 b0bf
00000040: b652 343f e099 753e 59e4 a5bf b5a3 363f
00000050: 2665 c73f 3410 5abf 5219 b23f 32e7 82bf
00000060: ef68 08c0 3c08 64bf 11f4 113f f544 e6bf
00000070: 466b a6bf 9241 a13f 2916 ef3d 7124 00bd
00000080: af4a dd3d 515e 4b3d 4b17 36be 8fbe 863d
00000090: fbd1 b2bd 8c6e 9abe 41f1 0b3e b064 82be
000000a0: 95c6 7d3e ff36 53be 9348 91bc 22bd 0cbd
000000b0: 0794 383e 40fe c53a 89a2 ba3b 32ca 1cbe
000000c0: c2c1 09bd 1087 9bbe 51a5 86be 4ef0 c0bd
000000d0: ecf1 9cbe 0bb6 55be 9bc7 8cbe 56bc 5dbe
000000e0: 15c6 f23d 18b2 e4bd 6be0 103d d126 49be
000000f0: a0d3 43bf 7fbf 8e3f 4af6 7f3f c13b 56bf
00000100: 0c7a b03f e5ac 7b3f 84c3 f8be 8be6 cc3f
00000110: 6a33 88bf 7500 84bf 642c 163e 3a13 1ebf
00000120: b55f 523f 5f6c adbf 6d47 81bf f833 153f
00000130: ae6e c8bf a264 023e 6d8e 773e 1029 b7bf
00000140: 7794 b1bd 3d03 3d3f 862c d0bf 4e2f ac3e
00000150: 9fd2 0dbf 431e 543f 8f04 883f bbee 29bf
00000160: 0c1f 443f 5aa1 a13f 8d10 9cbf 5edf 183f
00000170: d2e6 1240 c746 20bf 4cef 533f daa2 d43f
00000180: cafe 2bbf c5ed a13f b80b f5bf 0017 f6bf
00000190: 0dd2 cabf 03e4 21bf c376 82bf 06e0 5c3f
000001a0: 19d1 0640 1126 d4bf 6eaa 5f3f 82ce 3b3e
000001b0: 88ba 87bf a431 573f 0cad ba3f fa12 71bf
000001c0: fa8c 793f 436c 9bbf e8d0 0cc0 d4b9 90bf
000001d0: 7d4b 3b3f 16e6 0ac0 052b 93bf 99e5 d33f

lstm.weight_hh_l0 f4 [40, 10]
0.17494617 -0.02343384 0.1152112 0.2748945 -0.30268312 -0.026217597 0.08493625 0.22743449
-0.04757477 0.22702527 0.24659288 -0.31464952 0.1720736 0.13641962 0.1133525 -0.295775
-0.12268853 0.047363285 0.27296537 0.08725241 -0.2610408 -0.1508394 -0.0063175755 -0.009130547
0.221122 0.24843311 0.28076005 0.21854131 -0.004497324 0.21685255 -0.18111967 -0.0793071
-0.042656895 -0.24264534 0.16171642 -0.08995911 -0.29559293 0.28995305 0.23745845 0.23208542
0.29954755 0.15028672 -0.08628306 -0.27631694 0.27901262 -0.03552811 0.119445175 0.26752457
0.0124395015 -0.1563215 0.10518229 -0.20727861 0.18572974 -0.17947033 -0.17147577 -0.2964244
0.093356505 -0.22183594 0.14347312 -0.029747006 -0.04943645 -0.25354657 -0.14225931 0.10017213
-0.09625851 -0.02319156 -0.1672969 0.12047295 -0.036658276 0.15179777 0.27119982 -0.1514631
0.14397918 0.06605545 -0.18628243 -0.1552115 -0.2924285 0.08092952 -0.0627074 -0.024347058
0.2745482 -0.1944722 0.03240131 -0.27671725 -0.19262397 -0.23765606 -0.30576175 -0.076058954
-0.29068762 0.2160903 0.3021326 0.12726638 0.11175983 -0.09323979 -0.21584682 0.13074422
-0.2758266 -0.18073957 -0.020487081 0.12140969 -0.10170589 0.101811774 -0.045502774 0.039951924
0.24444029 -0.18574132 0.2123829 -0.14125954 -0.0001848298 0.19277559 -0.008908698 -0.0055205794
0.16242725 0.02063738 -0.21595603 -0.2771382 0.19082099 0.100411475 0.019616274 -0.020245252
-0.23876704 -0.17420986 0.30796728 -0.29472014 -0.19264829 0.22427149 0.049038894 -0.16549343
-0.23508352 0.22671627 0.11636674 -0.12367869 0.23729526 -0.18262379 0.28127238 0.059001457
-0.082295775 0.29966843 -0.14818452 0.23884134 -0.14873038 -0.1218328 0.062034428 0.013454275
0.0715481 -0.09013373 0.27130526 -0.2282637 0.14906499 0.02166791 -0.24367876 -0.18374118
0.05681196 0.07633667 0.017041171 0.08857626 0.30180582 0.12696338 -0.08487789 0.10851021
-0.16502549 0.1188315 -0.010614839 -0.16175668 -0.2430453 -0.077374816 -0.20042114 0.00813941
0.016562454 0.24622352 -0.2983239 -0.30256364 0.17058294 -0.121001504 0.17303541 -0.021789672
0.06261104 -0.01643779 -0.04157072 0.03697972 0.24779893 0.107217684 -0.3118198 0.10016109
-0.11908467 -0.24067076 -0.13585672 0.040867932 0.051853787 0.27206075 -0.008217443 0.075446524
-0.18811357 0.14105602 0.23824248 0.29156655 0.25084156 0.29014656 -0.022874111 0.15446463
0.22410905 -0.16737735 0.06567821 0.29642397 0.20489964 0.015407786 0.24097987 -0.28150448
-0.3032689 0.17107771 -0.23979685 -0.22257982 0.23456681 0.09268481 0.16691759 -0.020078668
0.012219424 -0.059601184 0.0794044 0.309409 0.22973055 0.2692202 -0.29632017 -0.12723581
0.25541702 -0.105689205 0.08578553 0.315591 0.22757795 -0.29949903 0.0054844273 0.108839795
0.25587806 -0.2412151 0.1583272 0.13718751 0.13449928 0.30128962 -0.14322044 -0.14368585
-0.27838987 0.2158743 0.014001941 0.23303178 0.23609442 0.2695121 0.10365005 0.13111685
0.30143082 -0.032413296 0.19561704 -0.11760408 0.2271862 0.24706233 -0.07283587 0.22802562
00000000: 1725 333e 53f8 bfbc daf3 eb3d f9be 8c3e
00000010: 48f9 9abe 49c6 d6bc 0ef3 ad3d 96e4 683e
00000020: c3dd 42bd 5079 683e d882 7c3e be19 a1be
00000030: 1034 303e 96b1 0b3e 5b25 e83d d26f 97be
00000040: 2044 fbbd 0100 423d 1ec2 8b3e 64b1 b23d
00000050: 24a7 85be a575 1abe aa03 cfbb 4a98 15bc
00000060: ce6d 623e 4065 7e3e c8bf 8f3e 4bc9 5f3e
00000070: 4a5e 93bb 980e 5e3e 6f77 39be c36b a2bd
00000080: ffb8 2ebd 0578 78be fd98 253e 7b3c b8bd
00000090: f557 97be ba74 943e 4f28 733e cda7 6d3e
000000a0: 4c5e 993e c3e4 193e 2cb5 b0bd 6a79 8dbe
000000b0: beda 8e3e ec85 11bd ac9f f43d fbf8 883e
000000c0: 0dcf 4b3c be12 20be d069 d73d d840 54be
000000d0: f02f 3e3e 12c7 37be 5897 2fbe f0c4 97be
000000e0: b231 bf3d f628 63be 9eea 123e feaf f3bc
000000f0: e07d 4abd dbd0 81be 6dac 11be 0c27 cd3d
00000100: 2f23 c5bd 3afc bdbc e14f 2bbe 86ba f63d
00000110: fd26 16bd e070 1b3e b4da 8a3e 2519 1bbe
00000120: 476f 133e 1448 873d d2c0 3ebe c3ef 1ebe
00000130: 30b9 95be 60be a53d bd6c 80bd 7b73 c7bc
00000140: 9591 8c3e b823 47be 3cb7 043d e2ad 8dbe
00000150: 383f 45be 1c5c 73be ce8c 9cbe ccc4 9bbd
00000160: 02d5 94be c746 5d3e 20b1 9a3e 1e52 023e
00000170: 56e2 e43d 81f4 bebd f306 5dbe d0e1 053e
00000180: 2539 8dbe cb13 39be 86d4 a7bc a5a5 f83d
00000190: 2d4b d0bd b182 d03d 1e61 3abd a1a4 233d
000001a0: 8e4e 7a3e f932 3ebe e77a 593e 57a6 10be
000001b0: dfce 41b9 f766 453e caf5 11bc fae5 b4bb
000001c0: 5453 263e b90f a93c 9423 5dbe 0fe5 8dbe
000001d0: 9466 433e 88a4 cd3d 4fb2 a03c 5fd9 a5bc
000001e0: 597f 74be 1264 32be e3ad 9d3e 8fe5 96be
000001f0: 9845 45be 6da7 653e 02dd 483d 1c77 29be
00000200: bcb9 70be 4f28 683e af51 ee3d 414b fdbd
00000210: 87fd 723e bb01 3bbe ef02 903e 83ab 713d
00000220: b08a a8bd 246e 993e afbd 17be d392 743e
00000230: c74c 18be 7a83 f9bd d017 7e3d 526f 5c3c
00000240: cf87 923d 0898 b8bd 86e8 8a3e f6bd 69be
00000250: 7ea4 183e e780 b13c ed86 79be a626 3cbe
00000260: a8b3 683d 6656 9c3d ed99 8b3c 7867 b53d
00000270: 4b86 9a3e b002 023e 76d4 adbd 9a3a de3d
00000280: 71fc 28be ee5d f33d dde9 2dbc 8ba3 25be
00000290: dee0 78be b076 9ebd 333b 4dbe 295b 053c
000002a0: fcad 873c 0522 7c3e e9bd 98be 9fe9 9abe
000002b0: 4bad 2e3e a3cf f7bd 3230 313e 4180 b2bc
000002c0: 383a 803d 8ba8 86bc 0f46 2abd 0c78 173d
000002d0: 01bf 7d3e f294 db3d d8a6 9fbe 4221 cd3d
000002e0: aae2 f3bd 6572 76be 061e 0bbe 2265 273d
000002f0: a364 543d 8c4b 8b3e 74a2 06bc b583 9a3d
00000300: d8a0 40be fd70 103e d6f5 733e 3648 953e
00000310: 4e6e 803e 178e 943e 7d62 bbbc fa2b 1e3e
00000320: d87c 653e f864 2bbe 4c82 863d e2c4 973e
00000330: 36d1 513e f070 7c3c 6dc3 763e 5b21 90be
00000340: 1046 9bbe ff2e 2f3e 4e8d 75be f7eb 63be
00000350: 4832 703e 89d1 bd3d 72ec 2a3e 057c a4bc
00000360: fb33 483c 5f20 74bd c69e a23d db6a 9e3e
00000370: 7c3e 6b3e 3bd7 893e 47b7 97be 1b4a 02be
00000380: 05c6 823e 9573 d8bd 53b0 af3d 2595 a13e
00000390: 320a 693e f057 99be b6b6 b33b 66e7 de3d
000003a0: 7302 833e 1701 77be 8720 223e e27a 0c3e
000003b0: 2eba 093e a242 9a3e 61a8 12be 6222 13be
000003c0: 1e89 8ebe 270e 5d3e 6668 653c e29f 6e3e
000003d0: bcc2 713e 7dfd 893e 7a46 d43d 7f43 063e
000003e0: 2455 9a3e cec3 04bd d54f 483e 68da f0bd
000003f0: 80a3 683e e8fd 7c3e f92a 95bd 8c7f 693e

lstm.bias_ih_l0 f4 [40]
-0.8209899 -0.47137147 -0.21954863 -0.9648141 -0.29168463 -0.46080765 -0.794398 0.14891556
-1.660633 -2.4526548 -0.01686765 -0.13783997 0.22099687 0.015201695 -0.27144754 -0.06502684
-0.22787735 -0.18966885 0.12196871 0.07217202 0.10078662 -0.35811046 0.19179866 0.043427713
-0.05704181 -0.5031268 -0.7291165 -0.09217723 -0.3135327 -0.17198001 -1.0840787 -0.11734701
-0.33896253 -1.0845457 -0.8645473 -0.49006146 -0.6469353 0.059290573 -1.5546596 -2.561863
00000000: 652c 52bf 9a57 f1be 5bd1 60be 0ffe 76bf
00000010: b057 95be fbee ebbe ab5d 4bbf 527d 183e
00000020: 9f8f d4bf 4cf8 1cc0 072e 8abc ec25 0dbe
00000030: 014d 623e 8810 793c 2cfb 8abe cb2c 85bd
00000040: ae58 69be 8d38 42be bbca f93d edce 933d
00000050: 3769 ce3d 415a b7be de66 443e 42e1 313d
00000060: aca4 69bd ebcc 00bf 61a7 3abf 6ac7 bcbd
00000070: 5c87 a0be 871b 30be 17c3 8abf a153 f0bd
00000080: 7f8c adbe 65d2 8abf f952 5dbf 56e9 fabe
00000090: 8d9d 25bf acda 723d 16ff c6bf 90f5 23c0

lstm.bias_hh_l0 f4 [40]
-0.73904014 -0.42766282 0.1695157 -1.0037285 -0.43050697 -0.49639907 -0.8811398 -0.08932459
-1.68071 -1.8367524 -0.20794103 0.05609786 -0.2756795 0.26939487 0.10231036 0.06950776
0.3128996 0.13348255 -0.09245614 -0.059800223 -0.43161097 -0.06761841 0.11347034 -0.046895348
0.024657132 -0.113158554 -0.4109745 -0.0037120774 -0.3077913 0.03272493 -0.9752479 -0.55675507
0.1820416 -1.366027 -0.5628788 -0.6758632 -0.61046845 -0.008656608 -1.6392578 -2.0901349
00000000: bc31 3dbf 9ff6 dabe 8695 2d3e 2d7a 80bf
00000010: 696b dcbe 0528 febe 6192 61bf d0ef b6bd
00000020: 8121 d7bf b41a ebbf 7eee 54be dfc6 653d
00000030: dd25 8dbe 20ee 893e 1888 d13d 165a 8e3d
00000040: 6034 a03e a6af 083e a559 bdbd 14f1 74bd
00000050: 1dfc dcbe 857b 8abd 2363 e83d 5615 40bd
00000060: c1fd c93c acbf e7bd 406b d2be 5346 73bb
00000070: d296 9dbe 940a 063d d9a9 79bf 8087 0ebf
00000080: 1d69 3a3e f9d9 aebf d318 10bf 5f05 2dbf
00000090: a947 1cbf 72d4 0dbc 33d3 d1bf c5c4 05c0

fc.weight f4 [1, 10]
0.10130252 0.32449362 0.95340866 0.15160885 -0.32173023 -0.38483784 -0.22221884 -0.8246905
-0.064552546 -0.3331265
00000000: b277 cf3d 0724 a63e 9712 743f 5a3f 1b3e
00000010: d3b9 a4be 7709 c5be 568d 63be eb1e 53bf
00000020: 2034 84bd 8e8f aabe
