checkpoints/loss_flag2_lr0.0001_dm512_test_PatchMixer_A123Custom_ftMS_sl48_pl24_p16s8_random2021_0/checkpoint.pth (torch, 939426 bytes, 34 tensors)

model.PatchMixer_blocks.0.Resnet.0.weight f4 [6, 1, 8]
0	0xbe8764bf	-0.2644405
1	0x3ab15ec2	0.0013532268
2	0x3dfef672	0.124493495
3	0x3e26c34d	0.16285439
4	0x3d15c857	0.036568012
5	0xbe669838	-0.22519004
6	0xbeabf905	-0.33588424
7	0x3eacc40b	0.3374332
8	0xbe18a317	-0.14905964
9	0xbe90031e	-0.28127378
10	0x3e578f6b	0.21050803
11	0xbeb49547	-0.3527014
12	0x3e53510f	0.2063639
13	0xbe8c843b	-0.27444634
14	0x3e30ff9d	0.17285009
15	0xbdcd323b	-0.10019346
16	0x3bc25271	0.005930238
17	0xbe07077c	-0.13186449
18	0x3e462579	0.19350232
19	0x3e2caa9d	0.16861959
20	0x3e62f4be	0.22163674
21	0xbdec1b70	-0.11528671
22	0x3eb8e342	0.36110884
23	0x3c181f5a	0.009284819
24	0xbdba369a	-0.09092446
25	0xbea0c08a	-0.31396896
26	0x3e873f6c	0.26415575
27	0xbe986fe2	-0.2977286
28	0xbe5ada71	-0.21372391
29	0xbdde3938	-0.10850757
30	0x3e2f8333	0.17139892
31	0x3e1bc4d6	0.15211806
32	0x3e7423b4	0.23841745
33	0x3ca9f732	0.020747755
34	0x3e2eb279	0.1706027
35	0x3e6e846d	0.23292704
36	0xbeab8585	-0.33500305
37	0xbe9dd04c	-0.3082298
38	0xbeb2d1a3	-0.34925565
39	0xbe83ba91	-0.25728276
40	0x3e389762	0.18026498
41	0x3e9e77a7	0.30950662
42	0x3deb1b35	0.11479799
43	0xbe8bf47b	-0.2733496
44	0x3e2672c6	0.1625472
45	0x3e42a8d7	0.1900972
46	0x3e9c7039	0.3055437
47	0xbea78d4f	-0.32724997

model.PatchMixer_blocks.0.Resnet.0.bias f4 [6]
0	0xbd8916b0	-0.066937804
1	0xbe3d02f3	-0.18458156
2	0x3e9e61cb	0.30933985
3	0x3e292c25	0.16520746
4	0x3c03590a	0.008016834
5	0x3bc7dc5f	0.0060992683

model.PatchMixer_blocks.0.Resnet.2.weight f4 [6]
0	0x3f821ae9	1.0164462
1	0x3f802a1c	1.0012851
2	0x3f7fe268	0.99954844
3	0x3f7d7d5f	0.99019426
4	0x3f7f0605	0.9961856
5	0x3f80630b	1.0030226

model.PatchMixer_blocks.0.Resnet.2.bias f4 [6]
0	0x3cc30174	0.023804404
1	0x3d43b09f	0.04777586
2	0x3ce26b1a	0.02763896
3	0x3d33ddc3	0.04391266
4	0xbc447cbb	-0.011992629
5	0xbceeaaf0	-0.029134244

model.PatchMixer_blocks.0.Resnet.2.running_mean f4 [6]
0	0x3c5495ed	0.012975198
1	0xbd3268ec	-0.043557093
2	0x3e5d3316	0.21601519
3	0x3dfadbfb	0.12248989
4	0x3d7d48d2	0.061837025
5	0x3d9a5e93	0.0753757

model.PatchMixer_blocks.0.Resnet.2.running_var f4 [6]
0	0x3d005803	0.031333935
1	0x3c94580e	0.018108394
2	0x3d020163	0.031739604
3	0x3d0d88ca	0.03455428
4	0x3d5716c0	0.05251193
5	0x3d9bfb25	0.076162614

model.PatchMixer_blocks.0.Conv_1x1.0.weight f4 [6, 6, 1]
0	0x3e4b928e	0.19880125
1	0xbe9c74d8	-0.30557895
2	0xbd6563e3	-0.056003463
3	0xbe9d465c	-0.30717742
4	0x3e0f4690	0.13991761
5	0x3e04f76a	0.12985006
6	0xbebe31b3	-0.37147292
7	0xbbb04dd6	-0.0053803725
8	0x3e498b2d	0.19681998
9	0x3e542541	0.20717336
10	0x3ec3dae1	0.3825293
11	0xbeb8a4ae	-0.3606314
12	0xbe0a010b	-0.1347696
13	0xbe0a241c	-0.13490337
14	0xbeaf5205	-0.34242263
15	0xbec7ede5	-0.39048687
16	0xbe963902	-0.29340369
17	0x3e456336	0.19276127
18	0xbeaf679e	-0.3425874
19	0xbe3ca3a5	-0.184218
20	0xbe959793	-0.29217204
21	0xbea4c47a	-0.3218115
22	0x3ebb3a17	0.36567757
23	0xbcabc3f6	-0.020967465
24	0xbdf7e3a8	-0.12103969
25	0x3ec1c3b2	0.37844616
26	0xbe61c88a	-0.22049156
27	0xbe33679a	-0.1751999
28	0xbe0903f4	-0.13380414
29	0xbe8f552d	-0.2799467
30	0xbe5c4bce	-0.21513292
31	0xbdc598d5	-0.09648291
32	0x3af1a679	0.0018436454
33	0xbe762b51	-0.24039961
34	0xbc1368f8	-0.0089971945
35	0x3ecd09fe	0.40046686

model.PatchMixer_blocks.0.Conv_1x1.0.bias f4 [6]
0	0xbd14e40a	-0.036350287
1	0xbd7a1ab1	-0.06106061
2	0xbed7ca64	-0.421466
3	0xbea69938	-0.32538772
4	0x3e54546d	0.20735331
5	0x3e502e51	0.20330168

model.PatchMixer_blocks.0.Conv_1x1.2.weight f4 [6]
0	0x3f810c9e	1.0081975
1	0x3f82f5bc	1.0231242
2	0x3f7f2e44	0.9967997
3	0x3f8040d5	1.0019785
4	0x3f80424e	1.0020235
5	0x3f78edaa	0.97237647

model.PatchMixer_blocks.0.Conv_1x1.2.bias f4 [6]
0	0xbc5cc345	-0.01347429
1	0xba0c790c	-0.00053586136
2	0x3bed4bf3	0.00724172
3	0xbc2602a8	-0.010132469
4	0x3c3e72b2	0.011624025
5	0xbbcb92cd	-0.0062125684

model.PatchMixer_blocks.0.Conv_1x1.2.running_mean f4 [6]
0	0x3d652e1b	0.055952173
1	0x3e3e1d4b	0.18565862
2	0xbcdb312c	-0.026756845
3	0x3d50ab48	0.050944597
4	0x3e69ed26	0.22844371
5	0x3e3caa0f	0.18424247

model.PatchMixer_blocks.0.Conv_1x1.2.running_var f4 [6]
0	0x3d864639	0.06556363
1	0x3e604dc6	0.21904668
2	0x3d3dc6ef	0.046332296
3	0x3e0da8e9	0.13833965
4	0x3e1be651	0.15224577
5	0x3e12457b	0.14284317

model.PatchMixer_blocks.1.Resnet.0.weight f4 [6, 1, 8]
0	0xbea08c23	-0.31356916
1	0x3da268ee	0.0793017
2	0x3daaf5a1	0.08347631
3	0xbe00211a	-0.12512627
4	0x3e92506e	0.28576988
5	0x3d3907ee	0.045173578
6	0xbe893cfd	-0.26804343
7	0x3e9f1afb	0.31075272
8	0x3e22e985	0.15909393
9	0xbe2aab5a	-0.16666928
10	0x3c9b56da	0.018962312
11	0x3e8a7393	0.270413
12	0x3e8b882e	0.27252334
13	0x3e2dfed5	0.16991742
14	0x3dca2e10	0.09872067
15	0x3b8ab3bc	0.004232852
16	0x3d789fb2	0.060699172
17	0xbe84f817	-0.25970528
18	0x3c069433	0.008214044
19	0xbeb4c919	-0.35309675
20	0x3e467328	0.19379866
21	0xbe86be2f	-0.26316974
22	0xbe7c50cf	-0.24640201
23	0x3e8b15a1	0.2716494
24	0xbdffe81f	-0.124954455
25	0xbe746aa1	-0.238688
26	0xbe920346	-0.28518122
27	0x3e24a158	0.16077173
28	0xbea25f52	-0.3171335
29	0x3e8bf70c	0.2733692
30	0x3dc61d7a	0.09673591
31	0x3ea53fb2	0.32275158
32	0xbe052786	-0.13003358
33	0xbe9cd9e1	-0.30634978
34	0xbcd29c8d	-0.025709415
35	0x3e90c8fe	0.28278345
36	0xbe21857f	-0.15773581
37	0xbea729b2	-0.32648998
38	0x3e8d26b3	0.27568588
39	0x3e84a332	0.25905758
40	0x3e782c6f	0.242357
41	0x3e45323a	0.19257441
42	0xbbd7e54c	-0.0065886136
43	0xbea48957	-0.32136032
44	0xbe772a5e	-0.24137256
45	0xbe2b0694	-0.16701728
46	0xbe787446	-0.24263105
47	0xbe94b8a4	-0.2904712

model.PatchMixer_blocks.1.Resnet.0.bias f4 [6]
0	0x3e6aa82b	0.22915713
1	0x3e81de8e	0.25365108
2	0xbe6c958e	-0.23103926
3	0xbd087dd1	-0.033323113
4	0x3ea6d671	0.3258548
5	0x3e408fb2	0.18804815

model.PatchMixer_blocks.1.Resnet.2.weight f4 [6]
0	0x3f7f79ee	0.99795425
1	0x3f825d52	1.0184729
2	0x3f7dcdd7	0.9914221
3	0x3f7d9a20	0.990633
4	0x3f8008fb	1.0002741
5	0x3f82831f	1.0196265

model.PatchMixer_blocks.1.Resnet.2.bias f4 [6]
0	0xbc2e47c0	-0.010637224
1	0x3b4ff055	0.0031728942
2	0x3b8cb81b	0.004294408
3	0xbc34c191	-0.011032478
4	0x3c183d35	0.009291937
5	0x3bfd3b99	0.007728052

model.PatchMixer_blocks.1.Resnet.2.running_mean f4 [6]
0	0x3e6f7ede	0.2338824
1	0x3e6ed010	0.23321557
2	0x3c8babc6	0.017049681
3	0x3df141dd	0.117801405
4	0x3ea3cd6e	0.31992668
5	0x3e87605d	0.26440707

model.PatchMixer_blocks.1.Resnet.2.running_var f4 [6]
0	0x3e1699b6	0.14707074
1	0x3e4dba3b	0.20090573
2	0x3d6cb09e	0.057785623
3	0x3e19f6ad	0.15035506
4	0x3e4d4612	0.20046261
5	0x3e01c26c	0.12671822

model.PatchMixer_blocks.1.Conv_1x1.0.weight f4 [6, 6, 1]
0	0xbdcd8e31	-0.100368865
1	0xbe037c5b	-0.12840407
2	0x3e5002f2	0.20313624
3	0xbe24e812	-0.16104153
4	0xbe9ea2ea	-0.3098367
5	0xbde846c5	-0.11341623
6	0x3e83f980	0.2577629
7	0xbe330f82	-0.17486385
8	0xbe8fe412	-0.2810369
9	0xbe1dfed7	-0.15429245
10	0xbe174eec	-0.147762
11	0xbe9e2a75	-0.30891767
12	0xbc86f556	-0.016474407
13	0x3e4e1745	0.20126064
14	0x3ec33ff9	0.38134745
15	0x3dde48e0	0.108537436
16	0x3ea9f81b	0.33197102
17	0x3e2357e0	0.1595149
18	0xbdda4883	-0.10658362
19	0xbeb90c43	-0.36142167
20	0xbdd947cf	-0.106093995
21	0x3e331639	0.17488946
22	0x3d9fdcde	0.07805799
23	0xbdc20b22	-0.0947478
24	0xbbbe1f72	-0.0058020884
25	0x3e0f3ce2	0.13988069
26	0xbd60801e	-0.054809682
27	0x3e9dbfb0	0.30810308
28	0xbe8888e8	-0.2666695
29	0x3d73fe1a	0.059568502
30	0x3e68f82f	0.22750925
31	0x3ea4cae2	0.32186037
32	0x3d3ab416	0.0455819
33	0x3cfe7c95	0.031065265
34	0x3eb70d3d	0.35752288
35	0xbe933eed	-0.28758946

model.PatchMixer_blocks.1.Conv_1x1.0.bias f4 [6]
0	0xbe48d3cc	-0.19612044
1	0xbe80b542	-0.2513829
2	0x3ec06f82	0.37585074
3	0x3c1d96e8	0.009618498
4	0xbeb6e25b	-0.3571957
5	0x3d2ca56d	0.04214995

model.PatchMixer_blocks.1.Conv_1x1.2.weight f4 [6]
0	0x3f814c36	1.0101383
1	0x3f842175	1.032271
2	0x3f7e7156	0.99391687
3	0x3f81c4ff	1.0138243
4	0x3f7f3db8	0.9970355
5	0x3f8024bd	1.0011212

model.PatchMixer_blocks.1.Conv_1x1.2.bias f4 [6]
0	0x3b308c57	0.0026939118
1	0x39bab443	0.0003561099
2	0xbc4bed62	-0.012446733
3	0x3b8f0fe8	0.00436591
4	0xbc02476b	-0.007951598
5	0xbb7e79c6	-0.0038829907

model.PatchMixer_blocks.1.Conv_1x1.2.running_mean f4 [6]
0	0x3d226c71	0.0396542
1	0x3d895881	0.06706334
2	0x3ee0d775	0.4391438
3	0x3e07ca33	0.13260727
4	0x3ccf6c48	0.025320187
5	0x3e6a66f1	0.22890832

model.PatchMixer_blocks.1.Conv_1x1.2.running_var f4 [6]
0	0x3d4dda50	0.050257027
1	0x3dcfcb40	0.10146189
2	0x3f189632	0.5960418
3	0x3d893784	0.06700042
4	0x3e4dede0	0.20110273
5	0x3ec9a480	0.39383316

model.W_P.weight f4 [512, 16]
0	0xbe76cf75	-0.24102576
1	0x3e03e783	0.12881283
2	0x3e40b67f	0.18819617
3	0x3dcdf9b0	0.1005739
4	0xbd635a59	-0.055506084
5	0xbe10c05b	-0.14135878
6	0x3e5b18c7	0.2139617
7	0xbd337604	-0.04381372
8	0x3dcc2c66	0.09969406
9	0xbc8cbc8a	-0.017179746
10	0x3e518b8d	0.2046339
11	0xbd2f1845	-0.042747755
12	0x3e23d048	0.15997422
13	0xbe3bebf3	-0.18351726
14	0xbe540ff1	-0.20709206
15	0x3d3377b1	0.04381532
16	0x3e4f9db8	0.20275009
17	0xbe2d0e7c	-0.16900057
18	0x3e222af3	0.15836696
19	0x3cc46779	0.02397512
20	0xbe680158	-0.22656763
21	0xbe1f639f	-0.15565346
22	0xbd2629c9	-0.040567193
23	0x3d107685	0.03526928
24	0x3dd3da2c	0.10344347
25	0x3e60c06c	0.21948403
26	0x3e605bf5	0.21910079
27	0xbe570939	-0.20999612
28	0x3e0b84dc	0.136249
29	0xbd8f321d	-0.0699198
30	0xbc9a4ce0	-0.018835485
31	0x3e6c522a	0.23078218
32	0xbd59b520	-0.05315125
33	0xbde2d74e	-0.11076222
34	0x3e035563	0.12825541
35	0xbb819f19	-0.0039557335
36	0x3d803b87	0.06261354
37	0x3c642d8a	0.013926873
38	0x3e61bc09	0.22044386
39	0x3e432c29	0.19059815
40	0x3d931617	0.07181948
41	0x3c938849	0.018009322
42	0x3d892993	0.06697383
43	0xbdd5a3c0	-0.104316235
44	0x3e0addec	0.13561219
45	0x3e47337c	0.19453233
46	0x3e3fafd7	0.18719421
47	0xbe156115	-0.14587815
48	0xbdf3bcbd	-0.11901233
49	0x3e55c56a	0.20876089
50	0x3e46fe4a	0.19432941
51	0x3e18400e	0.14868185
52	0x3e4d1201	0.20026399
53	0x3e67c6a5	0.2263437
54	0xbe099c19	-0.13438453
55	0xbe4ef7f5	-0.20211776
56	0xbc069001	-0.008213044
57	0x3e173759	0.14767207
58	0xbdeb7342	-0.11496593
59	0xbe1e8f81	-0.1548443
60	0xbe7f2241	-0.2491541
61	0x3cfef31e	0.031121787
62	0x3cdcd958	0.026959106
63	0xbe0e43f7	-0.13893114
64	0x3dcd0d2d	0.10012279
65	0xbcb0a64c	-0.021563672
66	0xbe45add9	-0.19304599
67	0xbcd8f74f	-0.026485113
68	0xbe772103	-0.24133687
69	0x3e77d4c8	0.24202263
70	0xbe679a43	-0.2261744
71	0x3dbd168e	0.092328176
72	0xbe0ac180	-0.13550377
73	0xbe1edddf	-0.15514325
74	0x3e064f50	0.13116193
75	0x3de0a1e1	0.10968376
76	0x3e6bc6e6	0.23025092
77	0x3e52a45c	0.2057051
78	0xbdba35b0	-0.09092271
79	0xbd2cb7f3	-0.042167615
80	0x3d477010	0.048690856
81	0x3e36942e	0.17829964
82	0xbdd33f1f	-0.10314774
83	0xbe192d7d	-0.14958759
84	0x3e0fe60e	0.14052603
85	0x3e6c2392	0.23060444
86	0x3c2eb3ce	0.010662986
87	0xbe415c61	-0.18882896
88	0xbe181bcf	-0.14854358
89	0xbe6b753f	-0.22993945
90	0xbda1716e	-0.07882963
91	0x3dc8b7d9	0.09800691
92	0xbb8c43b0	-0.00428053
93	0x3dce2c6b	0.10067066
94	0x3d4c0a4f	0.04981452
95	0x3e516a5a	0.20450726
96	0x3dcc7566	0.099833295
97	0x3e27a9d0	0.16373372
98	0x3d9e96ab	0.077435814
99	0xbe60fda6	-0.21971759
100	0x3df13a68	0.11778718
101	0x3e6f5823	0.23373465
102	0x3e181258	0.14850748
103	0xbd83f4ec	-0.064431995
104	0xbd6e26a9	-0.058142338
105	0x3de219b5	0.110400595
106	0xbe3fa780	-0.1871624
107	0xbe27d3a8	-0.16389334
108	0x3d717dd1	0.05895788
109	0x3db292cc	0.087194055
110	0x3d6501d5	0.05590995
111	0xbd8d248e	-0.06891738
112	0xbdae07ac	-0.08497557
113	0xbd565711	-0.052329127
114	0xbe48e03e	-0.19616792
115	0xbcadd613	-0.021220243
116	0x3e19ece0	0.15031767
117	0xbe4bc8d2	-0.19900826
118	0xbc0e3e71	-0.008681879
119	0x3e7515c9	0.23934092
120	0xbbba7712	-0.005690464
121	0x3ce30990	0.02771452
122	0x3dcf7949	0.10130555
123	0xbd9caab3	-0.07649746
124	0xbe678452	-0.2260907
125	0xbd9b82bb	-0.07593294
126	0x3e6940c1	0.22778608
127	0xbda3c9ba	-0.07997461
128	0x3e41c313	0.18922071
129	0x3de11c53	0.109917305
130	0x3d73f69d	0.05956136
131	0xbe2e0d53	-0.1699727
132	0x3e377e54	0.17919284
133	0x3e763cc9	0.24046625
134	0xbe76092a	-0.24026933
135	0x3e5f7b96	0.21824488
136	0xbe5f9032	-0.2183235
137	0xbe3f0062	-0.1865249
138	0x3e04a4f9	0.12953557
139	0x3e2c619c	0.1683411
140	0xbd9d6c71	-0.07686699
141	0xbdc5723e	-0.096409306
142	0xbd87bf4c	-0.06628284
143	0x3bf6acda	0.0075279297
144	0x3dcb0555	0.099131264
145	0xbd83f836	-0.06443827
146	0xbe5c317b	-0.2150325
147	0xbe4ea295	-0.20179208
148	0x3e64a9c2	0.22330382
149	0xbe152c00	-0.14567566
150	0xbe0a338b	-0.13496225
151	0x3dd8fc17	0.10594957
152	0x3e0f1d3d	0.13975997
153	0xbe00ebb9	-0.12589921
154	0xbd3f1a17	-0.04665574
155	0xbcef977c	-0.029247038
156	0xbd3b16cb	-0.045676034
157	0xbd48ef65	-0.04905643
158	0x3e3d7b64	0.18504101
159	0xbe5c4ebe	-0.21514413
160	0x3df89f96	0.121398136
161	0x3cb5c2bb	0.022187581
162	0x3e3fe55e	0.1873984
163	0xbd2abda1	-0.04168475
164	0xbdb64d3f	-0.08901452
165	0xbd7968d5	-0.06089099
166	0xbd192253	-0.03738625
167	0xbd8b190a	-0.06791885
168	0x3deac8ca	0.11464079
169	0x3e72afcd	0.23699875
170	0xbddaa5a1	-0.106761225
171	0xbd5d33ee	-0.054004602
172	0xbc95f1f4	-0.018303849
173	0x3c4c2bc7	0.012461609
174	0x3c8e20c1	0.017349603
175	0x3e3a482d	0.18191595
176	0x3d31d676	0.043417417
177	0x3e50d583	0.20393948
178	0x3df49421	0.11942316
179	0xbdc6e4d2	-0.09711613
180	0xbe65ee19	-0.22454108
181	0xbd956a96	-0.0729572
182	0x3c87746a	0.016535003
183	0x3dd6eba5	0.104941644
184	0xbe5d5f0b	-0.21618287
185	0xbde571ad	-0.112033226
186	0x3e05f3a5	0.13081224
187	0xbd50d481	-0.05098391
188	0x3e39fe6b	0.18163459
189	0xbe5df20d	-0.21674366
190	0x3e0c35b8	0.13692367
191	0xbd4953b8	-0.049152106
192	0xbddd9081	-0.108185776
193	0x3d001fda	0.031280376
194	0x3d299ff3	0.041412305
195	0xbdc7840f	-0.09741985
196	0x3e37a1aa	0.17932764
197	0xbdad10a5	-0.0845044
198	0x3cfb6bd7	0.03069107
199	0xbe4e98dd	-0.201755
200	0xbd9c487d	-0.076310135
201	0x3e58b8f6	0.21164307
202	0x3b321c8f	0.0027177667
203	0x3e0ab4a2	0.13545468
204	0x3d0cd574	0.034383252
205	0x3e4912f9	0.19636144
206	0xbe1ebcc3	-0.15501694
207	0x3d6ab571	0.057301942
208	0xbe0c87a1	-0.13723613
209	0xbcea9ba1	-0.028638663
210	0xbe6c7414	-0.23091155
211	0x3e352cb7	0.17692839
212	0x3d9f4921	0.0777762
213	0xbd168a2e	-0.036752872
214	0xbdce8810	-0.100845456
215	0x3e55fd2e	0.20897362
216	0xbe2e795a	-0.1703848
217	0x3e42e6ec	0.19033402
218	0xbdef6be4	-0.116905004
219	0xbbf61778	-0.007510122
220	0x3e782e73	0.24236469
221	0x3e224b15	0.15848954
222	0xbe3c964a	-0.18416706
223	0x3e1ed907	0.15512477
224	0xbb0f071a	-0.0021824301
225	0x3e15bba8	0.14622366
226	0x3e077658	0.13228738
227	0x3c2c81e0	0.0105290115
228	0x39b95b2d	0.0003535388
229	0x3de1da8f	0.11028015
230	0xbe416c03	-0.1888886
231	0x3e21d44b	0.1580364
232	0xbe25a6a6	-0.16176853
233	0x3db295d4	0.08719984
234	0x3e5458a7	0.20736943
235	0x3e355612	0.17708614
236	0xbdecd1f1	-0.11563481
237	0x3e6a7d28	0.22899306
238	0xbe1883e8	-0.14894068
239	0xbd6d899c	-0.057992563
240	0xbe220660	-0.15822744
241	0xbe696660	-0.22792959
242	0x3ccd36f9	0.025050627
243	0xbdeb24d5	-0.114816345
244	0xbe588051	-0.21142699
245	0x3e366615	0.17812379
246	0xbe2707a9	-0.16311516
247	0x3d5703a4	0.052493706
248	0x3e6fbd84	0.23412138
249	0x3e679ecc	0.2261917
250	0x3d7fbb30	0.062434375
251	0x3d133f24	0.035948887
252	0x3d95860c	0.07300958
253	0x3e654588	0.22389805
254	0x3dea91d2	0.11453594
255	0x3e4054d5	0.18782361

model.W_P.bias f4 [512]
0	0x3d830abb	0.06398531
1	0xbe32a69b	-0.17446367
2	0x3dda6ef2	0.106656924
3	0x3e2bac1c	0.16764873
4	0xbd257f72	-0.040404744
5	0x3e2b778d	0.16744824
6	0x3cdc8e68	0.026923373
7	0x3ce81fb4	0.02833543
8	0xbdd63d36	-0.10460894
9	0xbd718704	-0.05896665
10	0xbe14124d	-0.14460106
11	0x3d41c280	0.04730463
12	0x3e66bd0e	0.22533056
13	0xbe5ec88e	-0.21756193
14	0x3e042d59	0.12907924
15	0xbd64be1c	-0.055845365
16	0x3dee95f2	0.116496935
17	0xbe4f3aea	-0.20237318
18	0x3e3c9f01	0.1842003
19	0xbc80be8f	-0.015715865
20	0x3dbb8d3f	0.091578
21	0x3e547c44	0.20750529
22	0x3e06a74f	0.1314976
23	0x3d8ef5a6	0.069804475
24	0xbe1e8701	-0.15481187
25	0xbda7161f	-0.08158516
26	0x3e211d9f	0.15733956
27	0x3e1864b9	0.14882173
28	0xbc5e3b7d	-0.013563988
29	0xbe6732f4	-0.22578031
30	0xbe396ddd	-0.18108316
31	0x3e117a49	0.14206804
32	0x3d9571cc	0.07297096
33	0xbe1e7602	-0.15474704
34	0xbe4b4d62	-0.19853738
35	0x3dbb7680	0.091534615
36	0xbe21f22b	-0.15815036
37	0x3e61b595	0.22041924
38	0x3e3941f9	0.18091573
39	0x3ceda261	0.029008092
40	0x3d9699a8	0.07353526
41	0xbe212f79	-0.15740766
42	0xbd4e149c	-0.050312623
43	0x3d8f03e4	0.06983164
44	0x3e072b25	0.13200052
45	0x3ccceb2e	0.025014486
46	0x3cbd0a10	0.023076087
47	0xbe34f7ce	-0.17672655
48	0xbd4e5edc	-0.050383434
49	0x3dccb7d9	0.09996004
50	0xbdb4766a	-0.08811648
51	0xbdd88fc2	-0.105742946
52	0x3e189c81	0.14903452
53	0x3e4f725b	0.20258467
54	0x3e7910be	0.24322793
55	0xbcce0051	-0.025146635
56	0x3d5867c0	0.05283332
57	0x3dbdcfa0	0.09268117
58	0xbcd4701b	-0.025932362
59	0xba4d20a4	-0.0007824993
60	0x3e087af6	0.13328156
61	0x3dfcef33	0.12350311
62	0xbcb34e95	-0.021888057
63	0x3e77c43a	0.24195948
64	0x3e1dfde2	0.1542888
65	0xbd4e2ede	-0.050337665
66	0x3e72246d	0.23646708
67	0xbe7284c3	-0.23683457
68	0x3d276db9	0.040876124
69	0x3e6eda31	0.23325421
70	0xbcd486d1	-0.025943192
71	0xbd8dfe13	-0.069332264
72	0xbdd81aa1	-0.10551954
73	0xbddf420f	-0.109012716
74	0x3d835b29	0.06413872
75	0xbe2b73d1	-0.16743399
76	0x3e13edb4	0.14446145
77	0xbe788b9b	-0.24272005
78	0x3dbe16ec	0.09281716
79	0x3d4c95de	0.049947612
80	0x3e1a5a59	0.15073527
81	0xbe486a97	-0.19571911
82	0xbe5fa7e8	-0.21841395
83	0xbe222ae6	-0.15836677
84	0x3da8fbcd	0.08251152
85	0x3d16ddc8	0.0368326
86	0x3c22889b	0.009920265
87	0xbdd7f713	-0.105451725
88	0xbe0c3bdc	-0.1369471
89	0xbe4f4c0d	-0.20243855
90	0x3e0c57ad	0.1370532
91	0xbe138c92	-0.14409092
92	0xbd95f199	-0.07321472
93	0x3c2f3699	0.010694169
94	0xbd2bb139	-0.04191706
95	0x3c5e834a	0.013581106
96	0xbdd97bd7	-0.10619324
97	0x3e38a0b0	0.18030047
98	0x3d947849	0.07249505
99	0xbe5c05cc	-0.21486586
100	0xbd35c0e8	-0.044373423
101	0xbe2b76a1	-0.16744472
102	0x3dd58c7f	0.10427188
103	0xbdba983a	-0.09111066
104	0x3e5c77bc	0.2153005
105	0x3dcdaa36	0.10042231
106	0x3c75a17c	0.014992114
107	0xbe6c5e53	-0.23082857
108	0xbd13ec00	-0.03611374
109	0x3e13f49f	0.14448784
110	0x3bd580ea	0.006515612
111	0xbb9b86b7	-0.004746284
112	0x3db9f5c5	0.0908008
113	0xbe207687	-0.15670215
114	0xbc3f14b3	-0.01166265
115	0x3dabaa8a	0.08382137
116	0x3e4fb01a	0.20282021
117	0x3d0620b8	0.032746047
118	0x3e64be20	0.22338152
119	0x3dc02ba2	0.09383322
120	0xbe3622a5	-0.17786653
121	0xbe7b36f8	-0.24532688
122	0x3d8c9444	0.06864217
123	0x3dde9912	0.108690396
124	0xbd928a18	-0.071552455
125	0xbdacffc3	-0.0844722
126	0x3dffc105	0.124879874
127	0xbe6f361a	-0.23360482
128	0x3e1ea525	0.15492685
129	0x3e26b291	0.16279055
130	0x3e3369fe	0.17520902
131	0xbd800acf	-0.062520616
132	0xbd33bd28	-0.043881565
133	0xbe067b60	-0.13133001
134	0xbb3b010d	-0.0028534562
135	0xbe3a413e	-0.1818895
136	0x3d00dbb3	0.03145952
137	0xbdb2a12d	-0.08722148
138	0x3e5e2550	0.21693921
139	0x3de0cb7b	0.10976311
140	0x3c704507	0.014664895
141	0xbe09a14b	-0.13440435
142	0x3e4d4ca3	0.20048766
143	0x3da57952	0.08079781
144	0x3e2e1cdd	0.17003198
145	0x3e6e39f8	0.23264301
146	0x3dbbaf6c	0.091643184
147	0x3d44e58f	0.048070487
148	0xbe02eb1a	-0.12784997
149	0x3d266d5b	0.040631633
150	0x3dcbc592	0.09949793
151	0x3e19aaa0	0.15006495
152	0xbcb88246	-0.022523057
153	0xbc95b19e	-0.018273171
154	0x3de97ac6	0.1140037
155	0x3db588e1	0.08863998
156	0xbc2558d1	-0.010091976
157	0xbd629f64	-0.055327788
158	0xbd8512e7	-0.06497746
159	0xbc2cd4be	-0.010548769
160	0x3e767ee7	0.24071847
161	0xbe52a983	-0.20572476
162	0x3dbea75d	0.09309266
163	0xbd802524	-0.06257084
164	0xbde688b7	-0.11256545
165	0x3e507f83	0.20361142
166	0x3e094ed0	0.13408971
167	0x3d6b09f4	0.05738254
168	0x3e2286e9	0.15871777
169	0xbdade2c9	-0.084905215
170	0x3b1826f7	0.0023216584
171	0xbe61d8c0	-0.2205534
172	0xbe5c39a6	-0.21506366
173	0xbe78cde7	-0.24297296
174	0xbe34b9c9	-0.17648996
175	0xbe5a6ce0	-0.21330595
176	0x3d6ee2fd	0.05832194
177	0xbe61eb98	-0.22062528
178	0xbd917dc8	-0.07104069
179	0x3ccef37f	0.025262592
180	0xbe27693c	-0.16348737
181	0xbdf5ff12	-0.120115414
182	0xbd97fa69	-0.07420809
183	0x3d79c164	0.060975447
184	0x3e30d768	0.17269671
185	0x3e2fb1df	0.17157696
186	0xbd9d1d49	-0.07671601
187	0x3d8fee51	0.07027877
188	0xbe54d7e0	-0.20785475
189	0x3e383c5a	0.17991772
190	0x3e5cfc1e	0.2158055
191	0x3e74d077	0.23907648
192	0xbe3ba775	-0.18325599
193	0x3e37c74c	0.1794712
194	0x3da95650	0.08268416
195	0x3e04701d	0.12933393
196	0x3e20f673	0.15719013
197	0x3b14c75f	0.0022701842
198	0xbe0d110a	-0.13776031
199	0x3e25f4f8	0.1620673
200	0x3cee48cf	0.029087452
201	0x3cc05003	0.023475653
202	0xbd819f01	-0.06329156
203	0x3da4515d	0.08023331
204	0x3d46f297	0.048571195
205	0xbdec7c82	-0.115471855
206	0xbdcb8b07	-0.09938627
207	0x3dddc3e2	0.10828377
208	0xbe3c67f2	-0.18399027
209	0xbd355db1	-0.044278804
210	0x3e1f5373	0.15559177
211	0xbdc0654c	-0.09394321
212	0x3e40595b	0.18784086
213	0xbc3678f3	-0.011137235
214	0x3d3f7e01	0.046751026
215	0x3e511a14	0.20420104
216	0x3d3d72da	0.04625211
217	0x3d09c050	0.03363067
218	0x3dcdddc6	0.100520656
219	0x3e3ea2dd	0.18616815
220	0x3e0eff22	0.13964513
221	0xbc7b015b	-0.015320147
222	0x3e67809e	0.22607657
223	0xbd46cef5	-0.048537213
224	0xbe0d9ec8	-0.13830101
225	0x3d3680ad	0.04455631
226	0x3c070bb9	0.008242541
227	0xbd876b14	-0.066122204
228	0xbe3866f0	-0.18008018
229	0xbc414f8b	-0.01179875
230	0xbe522a99	-0.20524062
231	0xbdd835a6	-0.105571076
232	0x3e5cd055	0.21563847
233	0xbe0c1422	-0.13679555
234	0x3e35d021	0.17755176
235	0xbe6ee8db	-0.23331015
236	0xbe19b3d1	-0.15010001
237	0xbe432602	-0.19057468
238	0x3d2a1ccf	0.04153138
239	0x3c8452b9	0.016152726
240	0xbe15d56a	-0.14632192
241	0x3b4491f8	0.002999423
242	0x3cec8520	0.028872073
243	0x3e4c1fe5	0.19934042
244	0xbd80051b	-0.06250974
245	0xbc7fad45	-0.0156052755
246	0xbd963d69	-0.07335932
247	0x3ddb99c3	0.10722687
248	0xbe3c65b2	-0.18398169
249	0x3e260d08	0.16215909
250	0xbe338fef	-0.17535375
251	0x3e2af6b5	0.16695674
252	0xbc12ac01	-0.008952142
253	0xbe0a23a5	-0.1349016
254	0x3e25f568	0.16206896
255	0xbde04505	-0.109506644

model.head0.1.weight f4 [24, 3072]
0	0x3c402a51	0.011728839
1	0xbaa1b53b	-0.0012337336
2	0xbc465650	-0.012105539
3	0x3b97eb66	0.004636216
4	0x3c30ade2	0.010783644
5	0xbc180c0a	-0.009280214
6	0x3c07063d	0.008241233
7	0x3c393b40	0.01130563
8	0x3c43be15	0.011947175
9	0xbb2ba866	-0.0026192903
10	0xbc7f0be9	-0.015566804
11	0xbc3edf61	-0.011649937
12	0x3c8ba47b	0.017046204
13	0x3a63948c	0.0008681498
14	0x3aa70526	0.0012742623
15	0xbc93c06f	-0.018036095
16	0x3ba63280	0.005071938
17	0xbc64042a	-0.013917008
18	0x3b9b55fc	0.0047404747
19	0xbc0dbe2c	-0.008651298
20	0x3aefaca9	0.001828571
21	0xbc595760	-0.013265461
22	0xbca6cfb6	-0.020362716
23	0xbbdaf97e	-0.006682574
24	0xbc8aeb6e	-0.016957965
25	0x3c589b4c	0.013220619
26	0x3b1b1324	0.0023662532
27	0xbb616a35	-0.003439558
28	0xbc23fa49	-0.010008403
29	0xbb6912a1	-0.0035564082
30	0xbc77e99e	-0.015131382
31	0xbb28603a	-0.002569212
32	0x3c5f6722	0.013635429
33	0x3bc960df	0.006145581
34	0x3ad1d692	0.0016009382
35	0x3b73f3d6	0.0037224195
36	0x39fe8294	0.00048543944
37	0x3c6e572e	0.014547152
38	0x3ad7ae15	0.0016455079
39	0x3afce615	0.0019294644
40	0xbc2820f4	-0.010261763
41	0xbbafc2e6	-0.00536381
42	0x3b2d5999	0.002645111
43	0x3b88b162	0.0041715363
44	0x3ae67106	0.0017581291
45	0x3c79a3bf	0.015236794
46	0xbb944e98	-0.0045259707
47	0x3a655bf3	0.0008749358
48	0x3c6b417a	0.014358873
49	0x3c3a2ad9	0.011362755
50	0xbc2d73b9	-0.010586672
51	0xbc1943a4	-0.009354506
52	0xbbe5ee8a	-0.0070169615
53	0x3bb913a1	0.005648092
54	0x3b9e0772	0.004822665
55	0xbbbc32c5	-0.005743357
56	0x3adcb834	0.0016839565
57	0xbc629341	-0.013829053
58	0x3c3f66d9	0.011682236
59	0x3b001534	0.0019543888
60	0xbc4ccedf	-0.012500494
61	0x3c75f06f	0.015010937
62	0x3aae5fbd	0.0013303679
63	0x3bb58e4c	0.0055406447
64	0xbc3bcabe	-0.011461912
65	0xbc0e23df	-0.0086755445
66	0x3c826cdc	0.015921049
67	0xbc041365	-0.008061265
68	0x3c0823b9	0.008309298
69	0xbc492d9e	-0.012278942
70	0xbc878a0a	-0.016545314
71	0x3bc3dff6	0.005977626
72	0xba58cd83	-0.000827037
73	0x3c042e62	0.008067699
74	0x3c1a2c8f	0.009410038
75	0x3c69734e	0.014248682
76	0xbc83defc	-0.016097538
77	0x3a92843d	0.0011178326
78	0xbb85185d	-0.004061742
79	0xbc32ed61	-0.010920853
80	0xbc959d81	-0.01826358
81	0x3b9ee8ee	0.0048495447
82	0x3bb6128e	0.005556411
83	0x3bd8098c	0.006592935
84	0x3b014698	0.0019725915
85	0x3a6cc1ab	0.00090315443
86	0xbb1f08c2	-0.0024266695
87	0xbb842970	-0.00403326
88	0xbb9883b6	-0.004654373
89	0xbc21cf7a	-0.009876126
90	0x3c582cf9	0.013194316
91	0xbbeb38ae	-0.0071783876
92	0xbbbd2ee1	-0.0057734107
93	0x3c007e4e	0.007842613
94	0xbaa04d45	-0.0012230059
95	0xbc1fa7b6	-0.009744575
96	0xbc31b672	-0.010846721
97	0x3c114723	0.008867058
98	0xbc5cec81	-0.013484121
99	0xbbe4bd61	-0.0069805835
100	0xbc3aa7a4	-0.011392508
101	0x3c7e3bfd	0.015517232
102	0x3bd7ea31	0.006589197
103	0x3c4638c3	0.012098494
104	0x3c2cc095	0.010543962
105	0x3acb19a9	0.0015495318
106	0x3b4b7349	0.0031044057
107	0x3b3c0cda	0.0028694184
108	0xbb5a0c80	-0.003327161
109	0x3bb1caef	0.005425803
110	0xbafe7742	-0.0019414204
111	0x3b83c8eb	0.004021754
112	0xba02fcc4	-0.00049967715
113	0xbc3eb71a	-0.0116403345
114	0x3c8fc687	0.01755072
115	0xbbb20349	-0.0054325205
116	0x3a85f00f	0.0010218638
117	0xbb2a416d	-0.0025978938
118	0x3c8953c3	0.016763574
119	0xbc23dc77	-0.010001293
120	0xbb2a4479	-0.0025980754
121	0x3b9c39f0	0.004767649
122	0xbc796f1a	-0.015224243
123	0x3c3cd091	0.0115243355
124	0x3c88226c	0.016617976
125	0xbc3a70c7	-0.011379427
126	0xba6f96e4	-0.0009139611
127	0x3b63a8ec	0.0034738136
128	0x3bfb0757	0.007660787
129	0xbc58e597	-0.013238332
130	0xbbdd1653	-0.006747046
131	0xbb63464c	-0.0034679351
132	0xbb0db19a	-0.0021620751
133	0xba0d2313	-0.00053839496
134	0xbb93cd97	-0.004510592
135	0x3bbf5d27	0.005839962
136	0xba303798	-0.00067221513
137	0x3c223f08	0.009902723
138	0xbc50a9ff	-0.012735843
139	0x3c4fba27	0.0126786595
140	0xbc614116	-0.013748428
141	0x3c6de21c	0.014519241
142	0xbaea015e	-0.0017853191
143	0x3c45913c	0.012058552
144	0x3c39d146	0.011341399
145	0xbc4048c7	-0.0117361015
146	0xbc052b53	-0.008128005
147	0xb9a51ec0	-0.00031494163
148	0x3c2a9629	0.0104117775
149	0x3a86f0ee	0.0010295191
150	0x3a89c6c6	0.001051151
151	0x3abfdf2b	0.0014638653
152	0x3be88b82	0.0070967088
153	0xbc827eb7	-0.015929563
154	0x39774689	0.00023582032
155	0xba56a1b7	-0.00081875495
156	0x3c720988	0.01477278
157	0x3bfac16c	0.007652452
158	0x3beacfbe	0.007165878
159	0x3c6c1af1	0.01441072
160	0xbc5a941a	-0.013340974
161	0xbb54901f	-0.0032434536
162	0xbc549602	-0.012975218
163	0xbbca0ae2	-0.006165848
164	0xbc3ad3e9	-0.011403062
165	0xbc898fd6	-0.01679222
166	0x3c242f48	0.010021038
167	0xbc2d6c27	-0.010584868
168	0x3c8f26d4	0.01747457
169	0xbb7b9258	-0.0038386788
170	0x3bdb229d	0.006687476
171	0x3c45f168	0.0120814815
172	0xbc0a7c04	-0.008452419
173	0x3c60d8ab	0.013723533
174	0xbc2d3a1b	-0.010572935
175	0xbc12db50	-0.008963421
176	0xbc5881c6	-0.013214534
177	0xbc72aff3	-0.014812457
178	0x3c330762	0.010927053
179	0x3986ac13	0.00025686677
180	0xbbecf9b1	-0.007231914
181	0x3be60336	0.0070194257
182	0x3c61de09	0.013785847
183	0x3c33fd03	0.010985616
184	0x3bb38afd	0.005479215
185	0xbbc00fcf	-0.0058612595
186	0x3c131d13	0.0089791
187	0xbc6bf3c3	-0.014401379
188	0x3c4967c2	0.012292804
189	0x3b80b0ad	0.0039273114
190	0xbc2ab71d	-0.010419634
191	0xbaf4639e	-0.0018645411
192	0x3b8cc47c	0.0042958837
193	0xbbe8df6f	-0.0071067135
194	0xbb4cee99	-0.0031270145
195	0xbb107c91	-0.0022046904
196	0xbc19a2b7	-0.009377173
197	0xbc74cf25	-0.014941965
198	0x3c78b29d	0.0151793035
199	0xbbd86481	-0.006603778
200	0xbc26d517	-0.0101826405
201	0x3b421d43	0.0029619492
202	0xbc07c1e3	-0.008285972
203	0x3c57d89c	0.013174202
204	0x3c44dc1a	0.012015367
205	0xbc3180e0	-0.010833949
206	0xbb6799ac	-0.0035339398
207	0x3b9ac76d	0.0047234804
208	0xbc09448d	-0.00837816
209	0x3ae5aa78	0.0017522117
210	0xbabe3aac	-0.0014513335
211	0xb9eeb259	-0.00045527777
212	0xbb1972ec	-0.0023414446
213	0xbc52369a	-0.012830401
214	0x3b362830	0.002779495
215	0xb9f94993	-0.00047547798
216	0x3c7106f4	0.01471113
217	0x3c2d68ff	0.010584115
218	0xba31d589	-0.00067838334
219	0xbb72e14b	-0.0037060555
220	0xbb232733	-0.002489519
221	0x3c08e37d	0.008355019
222	0x390ffa87	0.00013730871
223	0x3c55195e	0.013006536
224	0xbc1bf163	-0.009518
225	0xba7eef3c	-0.000972498
226	0x3b0478d6	0.0020213625
227	0x3c376602	0.011193754
228	0xbc1bca6a	-0.0095087085
229	0x3c37247b	0.011178131
230	0x3b81e36a	0.0039638774
231	0xbb6a2d6c	-0.003573264
232	0x3b390d43	0.0028236664
233	0x3b96d710	0.004603274
234	0x3b9fa0d6	0.004871468
235	0xbbb5c7ca	-0.0055474984
236	0xbb95cef0	-0.004571788
237	0xba40d3bb	-0.0007355769
238	0xbaf4df86	-0.0018682338
239	0x3c020bd2	0.0079373885
240	0x3b3e87ee	0.002907272
241	0x3c1c22ec	0.00952981
242	0xbbde23a4	-0.006779151
243	0x3c9371f3	0.017998671
244	0x3b8c6441	0.004284412
245	0xbb0d30ca	-0.0021543973
246	0xbb874abb	-0.0041287816
247	0x3b3cacff	0.0028789637
248	0xbc65cb5f	-0.014025538
249	0x3c27586f	0.010213955
250	0xbac1ec87	-0.0014795222
251	0xbba9dab8	-0.005183544
252	0x3c19d1a2	0.009388359
253	0xbc81f80f	-0.015865354
254	0x3aad3705	0.001321525
255	0xbc12b44e	-0.008954121

model.head0.1.bias f4 [24]
0	0xbb56964f	-0.00327434
1	0x39b5fbc0	0.0003471058
2	0x3ba925eb	0.005161991
3	0xbb8802a8	-0.0041507073
4	0xbae31306	-0.0017324395
5	0xbc5d0fef	-0.013492568
6	0xbb281f4c	-0.002565342
7	0xbbb03bb1	-0.0053782095
8	0xbc40faf2	-0.01177858
9	0xbc52a348	-0.012856312
10	0x3c5e586c	0.013570886
11	0xbc47428c	-0.012161862
12	0x3c57db8b	0.013174902
13	0x3c294205	0.010330682
14	0x3c303963	0.01075587
15	0xbaf87c07	-0.0018957861
16	0x3c0aa000	0.008460999
17	0x3c6465ee	0.013940318
18	0x3c46c72d	0.012132448
19	0x3baabe6e	0.0052106893
20	0xbbc30702	-0.005951763
21	0xbc7a9ff3	-0.015296924
22	0x3c1f319e	0.0097164195
23	0xbc2ef54d	-0.010678601

model.head1.1.weight f4 [48, 3072]
0	0xbc659b24	-0.014014039
1	0x3b2e6dd9	0.0026615767
2	0xbbff4a69	-0.007790853
3	0xbb232aec	-0.002489741
4	0x3c1968b5	0.009363343
5	0xbb2b8200	-0.0026170015
6	0xbbc3c225	-0.0059740716
7	0x3b920770	0.004456453
8	0x3c9b99f3	0.018994307
9	0xbc8c5663	-0.017131036
10	0x3a4e2c0b	0.0007864839
11	0xbc09908e	-0.008396281
12	0x3b8255f2	0.0039775306
13	0xbc3ad0dd	-0.011402336
14	0xbbf7d1e5	-0.007562863
15	0xbc35bf13	-0.011092919
16	0x3ad7012a	0.0016403545
17	0x3b24f1fc	0.0025168648
18	0xbc18d8b8	-0.0093290135
19	0x3c5b758b	0.013394724
20	0xbb3aa610	-0.0028480329
21	0x3c129fae	0.008949203
22	0x3c2c4bf5	0.010516156
23	0xbcda2ef7	-0.026633723
24	0xbbfa6065	-0.0076408857
25	0xbc810c86	-0.015753042
26	0xbc498e58	-0.012302004
27	0xbc253895	-0.010084291
28	0x3be90283	0.007110895
29	0x3baaccbb	0.005212394
30	0xbc89059e	-0.016726311
31	0x3bded7b6	0.006800617
32	0xbb01ba23	-0.0019794784
33	0xbc995bb1	-0.01872048
34	0x3c0e33ef	0.008679374
35	0x3b75e948	0.003752308
36	0xbc8de166	-0.017319392
37	0x3c45095e	0.012026159
38	0x3ab56a9c	0.0013840976
39	0x3c4487d4	0.011995275
40	0x3b94e260	0.0045435876
41	0x3c03e614	0.00805046
42	0x3afcd157	0.0019288462
43	0x3b32bee7	0.0027274431
44	0xbc28a5e5	-0.010293459
45	0xbc1c8bc1	-0.009554804
46	0xbbab4637	-0.005226876
47	0xba887485	-0.0010410702
48	0xbbb1bc08	-0.0054240264
49	0xbba955df	-0.0051677073
50	0x3b80bf5e	0.0039290627
51	0xbc0ba6b4	-0.008523632
52	0xbc72c01f	-0.014816313
53	0x3c3d3ac8	0.011549659
54	0xbb362526	-0.0027793138
55	0x3baa5c3a	0.0051989825
56	0x3c4fad19	0.012675547
57	0xbbe37d78	-0.0069424473
58	0x3b69d80a	0.0035681748
59	0xbca9ad05	-0.020712385
60	0xbbbcf37d	-0.0057663308
61	0xbc08d120	-0.008350641
62	0xbb9d1b47	-0.0047945115
63	0xb9dbe846	-0.00041943992
64	0xbc396ef3	-0.011317956
65	0x3c1a7e2d	0.009429497
66	0x3c0c87a7	0.008577264
67	0x3bb0fea5	0.0054014497
68	0xbb52c485	-0.0032160592
69	0x3b87eb38	0.0041479133
70	0x3c79e602	0.015252592
71	0xbc56ead1	-0.013117508
72	0x3c54e1c7	0.012993283
73	0xbbc68c27	-0.006059188
74	0xbc95f535	-0.0183054
75	0x3c2ddcc6	0.0106117185
76	0x3c23f4e3	0.010007116
77	0x3c1ca396	0.009560486
78	0xbb2bed66	-0.002623403
79	0x3b074066	0.002063775
80	0x3c24315d	0.010021535
81	0xbc2cc106	-0.010544067
82	0x3b814406	0.0039448766
83	0xbc406bff	-0.011744498
84	0xbc328cd9	-0.0108978385
85	0xbc020d85	-0.007937794
86	0x3c9079f5	0.017636279
87	0x3c54ba2f	0.012983843
88	0xb9b69167	-0.00034822078
89	0xbb1f1a2f	-0.0024277081
90	0x3abf6b51	0.0014604126
91	0xbc947ff6	-0.018127423
92	0xbcd23fc7	-0.025665177
93	0xbc2196fa	-0.009862656
94	0x3bde56b4	0.006785238
95	0xbcaf8f9b	-0.021430781
96	0xbc268f7c	-0.010166045
97	0x3c846602	0.016161922
98	0x3bebb24a	0.0071928846
99	0x39d97787	0.0004147852
100	0x3ad80c79	0.0016483209
101	0xbc1f7140	-0.009731591
102	0x3b592e99	0.0033139347
103	0xbb29f85d	-0.002593539
104	0xba9e3bab	-0.0012072226
105	0xbc068e32	-0.008212613
106	0xbc91544a	-0.017740387
107	0x3c6c7818	0.014432929
108	0xbc0affc9	-0.0084838355
109	0xbc3ffaf8	-0.01171755
110	0xbc522262	-0.01282558
111	0xbadba18e	-0.0016756521
112	0x3c2b4d25	0.010455404
113	0x3b8986fd	0.004197
114	0x3c7f0134	0.015564252
115	0xbc748613	-0.014924544
116	0xbc72731e	-0.014797954
117	0x3af67501	0.001880318
118	0xbc2d17d0	-0.010564759
119	0xbbb15afa	-0.0054124566
120	0x3c19c70b	0.009385834
121	0xba70e639	-0.0009189579
122	0x3c30cd1a	0.0107910875
123	0xbc8e1f24	-0.017348833
124	0xbb73196d	-0.0037094012
125	0xbbf96721	-0.007611171
126	0xbc501230	-0.012699649
127	0xbbdf04dc	-0.006805999
128	0xbc8c48ea	-0.017124612
129	0xbc758a8c	-0.014986645
130	0x3934ce8b	0.00017243081
131	0xbc88f9f7	-0.016720755
132	0x3c189658	0.0093131885
133	0x3cadef59	0.021232294
134	0xbc8b71c1	-0.017022016
135	0xbc8371dc	-0.016045503
136	0x3c6319ce	0.013861133
137	0x3c9ce130	0.019150347
138	0x3c4a9e0d	0.012366784
139	0x3c9e2524	0.01930482
140	0xbb1c6a7c	-0.002386718
141	0x3c265ff2	0.010154711
142	0xb9a9b439	-0.00032368468
143	0xbb221fa8	-0.0024738107
144	0x3bb6b626	0.005575913
145	0xbc45f489	-0.0120822275
146	0xbc9111f1	-0.01770875
147	0x3c24d2c3	0.010060015
148	0xbc572262	-0.013130756
149	0x3c15e5f8	0.009149067
150	0xbcb4df36	-0.022079092
151	0xbc07440b	-0.008255969
152	0x3bd2f209	0.0064375442
153	0x3c0c2650	0.008554056
154	0x3c527276	0.012844672
155	0x3aa697cf	0.0012710037
156	0xbc453182	-0.012035729
157	0x3c1350af	0.008991404
158	0xbbbd8125	-0.0057832175
159	0xbc7c29ad	-0.015390796
160	0x3b4e052a	0.0031436183
161	0xbbdab23d	-0.0066740797
162	0xbb96bc1c	-0.004600061
163	0x3ba059b5	0.0048935064
164	0xbab3fe39	-0.001373238
165	0xbc6abba0	-0.01432696
166	0xbb7a29d2	-0.00381719
167	0x3cbbd73f	0.022929786
168	0x3b599bf9	0.003320454
169	0x3b1d35e7	0.0023988427
170	0x3c14b180	0.009075522
171	0xbbd0376b	-0.0063542626
172	0xbc0538d2	-0.008131223
173	0xbad2d3d7	-0.0016084862
174	0x396f59bb	0.00022826243
175	0x3c16d115	0.0092051225
176	0x3c5a6216	0.01332905
177	0xbb4b4955	-0.003101905
178	0xbb99e8ec	-0.004696956
179	0x3be30d26	0.0069290577
180	0xbb90dd6b	-0.0044209263
181	0xbcb61feb	-0.022232017
182	0x3bcd655b	0.006268186
183	0xbc171a11	-0.009222523
184	0xbb6a745b	-0.003577492
185	0xbb861aff	-0.0040925737
186	0xbc784ba0	-0.015154749
187	0xb8ca4d11	-9.646465e-05
188	0xbc61a03f	-0.013771116
189	0xbc9a9f87	-0.018874897
190	0xbc9d1768	-0.0191762
191	0xbc9b265d	-0.018939191
192	0x3c002e65	0.007823561
193	0x3c73469f	0.01484838
194	0x3b3163e7	0.0027067603
195	0x3b44286c	0.002993132
196	0x3c1a6f9a	0.009426022
197	0xbb84b277	-0.004049595
198	0xbbd14433	-0.006386304
199	0x3a2bb999	0.00065507885
200	0xbcb39b79	-0.021924721
201	0xbb191e83	-0.0023364134
202	0x3c597182	0.013271691
203	0x3c5dce8e	0.013538016
204	0xbbf1aefa	-0.007375595
205	0x3bb82670	0.0056198165
206	0x3bf44481	0.0074544554
207	0xbc04ada8	-0.0080980435
208	0xbc45f122	-0.012081416
209	0x3c16182d	0.009161037
210	0xbc4d4594	-0.012528796
211	0x3c73d294	0.014881749
212	0x3bd2d21f	0.00643374
213	0xbc450f2e	-0.012027545
214	0xbc454d11	-0.0120423
215	0x3b921ac9	0.0044587594
216	0x3ba28fa8	0.004960973
217	0x3bcf827f	0.006332695
218	0x3a23d717	0.00062500074
219	0x3ae1085b	0.0017168628
220	0x3aad0a0d	0.0013201848
221	0x3c4fb251	0.012676791
222	0xbc5af93e	-0.013365088
223	0xbc424032	-0.011856126
224	0x3a9a3d2f	0.0011767502
225	0xb7d12b15	-2.4934803e-05
226	0x3b52b8e6	0.0032153665
227	0x3bc2a47a	0.0059400173
228	0x3b5ec210	0.0033990182
229	0x3a10f91a	0.0005530283
230	0xbb1c5d10	-0.002385918
231	0xbabc0d16	-0.0014347162
232	0x3a1b0a9b	0.0005914361
233	0xbc475b50	-0.012167767
234	0x3934d2c1	0.0001724465
235	0x3b353133	0.0027647733
236	0x3cabdb00	0.02097845
237	0x3c6ab5f0	0.014325604
238	0xbbc730e9	-0.0060788286
239	0x3b6adc84	0.0035837004
240	0xbc8d64fd	-0.017260069
241	0xba745e95	-0.0009321955
242	0x3c43dff3	0.011955249
243	0x3b2b42f3	0.0026132434
244	0x3bc334c1	0.0059572165
245	0x3c5095de	0.012731044
246	0x3c6dd073	0.01451503
247	0xbafcfd9d	-0.0019301657
248	0x3c249459	0.010045134
249	0x3c648e6c	0.013949972
250	0x3b42ed01	0.0029743316
251	0xbbfde094	-0.007747719
252	0x3c820f1a	0.015876342
253	0x3c6426f5	0.013925304
254	0xbb9d3015	-0.0047969916
255	0x3c4ecbcb	0.01262183

model.head1.1.bias f4 [48]
0	0xbc0a2647	-0.008431978
1	0x3c8ab203	0.016930586
2	0xbc85c95f	-0.016331373
3	0xbc20664c	-0.0097900145
4	0xbca7127a	-0.020394552
5	0x3c870d1d	0.016485745
6	0x3bbd0b82	0.005769194
7	0xbbec250c	-0.007206565
8	0x3c4a1595	0.012334247
9	0x3a464d77	0.0007564644
10	0x3a8e992c	0.0010879389
11	0x3c53f344	0.012936417
12	0xbc940617	-0.01806931
13	0x3c705fe6	0.0146713015
14	0x3c3db3dc	0.011578526
15	0xbb8de9d5	-0.0043308535
16	0xbc840152	-0.01611391
17	0xbb87cfc6	-0.0041446416
18	0xb9bcaa31	-0.00035984957
19	0x399b9263	0.0002967297
20	0x3b278c9c	0.0025565987
21	0xbbea97ad	-0.0071591944
22	0xb993ec09	-0.00028213885
23	0x39a159e8	0.00030775298
24	0x3b633479	0.0034668727
25	0xbc5766f6	-0.013147106
26	0xbc163eee	-0.009170277
27	0x3c1e2628	0.009652652
28	0xbc8afe6f	-0.016967027
29	0xbc205bb1	-0.009787486
30	0x3bb7ceb0	0.005609356
31	0x3c010097	0.007873676
32	0xbc18e723	-0.009332451
33	0x3c2b938f	0.010472192
34	0x3b92e0ef	0.0044823806
35	0x3aa2e00b	0.0012426389
36	0xbc16e6bd	-0.009210286
37	0xbb282db3	-0.0025662004
38	0xbbd176a5	-0.0063923174
39	0xbb04155b	-0.002015433
40	0x3c854266	0.016267013
41	0xbc1f2145	-0.009712522
42	0xba074cdf	-0.0005161296
43	0x3b019978	0.0019775312
44	0x3c6b21a2	0.01435128
45	0xba00939d	-0.00049048086
46	0xbc0ef9c6	-0.008726543
47	0xbbfecf49	-0.007776175

model.head1.4.weight f4 [24, 48]
0	0xbd8f7fa6	-0.07006769
1	0x3d8fef70	0.07028091
2	0xbd826e72	-0.06368722
3	0x3e029b49	0.12754549
4	0xbd30da2d	-0.04317682
5	0x3da98458	0.08277196
6	0xbdca712a	-0.098848656
7	0xbe07d02d	-0.13263007
8	0x3e081bfa	0.13291922
9	0x3d1c5525	0.038167138
10	0xbd12c598	-0.03583297
11	0xbd20bf02	-0.03924466
12	0xbdac746b	-0.084206425
13	0xbdcf50a6	-0.10122804
14	0xbd6a49e2	-0.057199366
15	0x3dcdfd38	0.10058063
16	0xbd2ef46b	-0.042713564
17	0xbccf5171	-0.025307389
18	0xbbae52e2	-0.005319939
19	0xbdb556cc	-0.08854446
20	0x3d98f09c	0.074677676
21	0xbddc57c0	-0.107589245
22	0xbb4ee6db	-0.0031570706
23	0x3d0cc3bf	0.034366366
24	0xba5ae096	-0.0008349506
25	0xb9c9ccf6	-0.00038490415
26	0xbdbaa544	-0.09113553
27	0xbdc7d60e	-0.097576246
28	0x3ddfaeae	0.109219894
29	0x3d582490	0.052769244
30	0xbcf4861a	-0.0298491
31	0xbda074d9	-0.07834787
32	0x3da74b9a	0.08168717
33	0xbdf74e6a	-0.12075503
34	0x3db6b849	0.08921868
35	0x3d1f026f	0.03882068
36	0xbd351567	-0.044209864
37	0x3e0aea84	0.13566023
38	0x3d210051	0.039306942
39	0x3de75913	0.112962864
40	0x3d969b54	0.07353845
41	0x3d0714c0	0.032978773
42	0xbe023044	-0.12713724
43	0xbc99099b	-0.018681338
44	0x3debc2e0	0.11511779
45	0x3daad03b	0.08340498
46	0x3e0d770d	0.13814946
47	0xbd948770	-0.07252395
48	0x3d97df1a	0.074156
49	0xbe161661	-0.14656974
50	0xbd376a32	-0.04477901
51	0x3d827367	0.063696675
52	0xbb3e2847	-0.0029015706
53	0x3d24a7e0	0.04019916
54	0x3b1cca9d	0.0023924478
55	0x3de3c2bb	0.11121126
56	0xbc6a0859	-0.014284217
57	0xbd45c9b4	-0.048288062
58	0x3cca18eb	0.024670085
59	0xbbcbacb7	-0.0062156576
60	0x3ded14cc	0.11576232
61	0xbd589bd9	-0.052883003
62	0x3da4f54f	0.080546014
63	0x3d0d8525	0.034550805
64	0xbda7792b	-0.08177408
65	0x3cd5b34a	0.026086468
66	0x3c3f2748	0.01166708
67	0x3be7634b	0.007061397
68	0xbdb8c08e	-0.09021102
69	0xbded165d	-0.11576531
70	0xbdd58f17	-0.10427683
71	0x3d9da408	0.07697302
72	0x3daf8464	0.085701734
73	0xbd2ad98d	-0.04171138
74	0xbe02da7d	-0.12778659
75	0xbd9240bd	-0.07141254
76	0xbdd7d1f3	-0.105380915
77	0x3d31029f	0.04321539
78	0x3d1c6635	0.03818341
79	0x3da457fc	0.08024594
80	0x3cd4e537	0.025988204
81	0x3dd483f6	0.10376732
82	0x3db537a8	0.08848506
83	0x3ddb388d	0.107041456
84	0x3e0add82	0.13561061
85	0xbd71a471	-0.058994714
86	0x3d01fb3b	0.031733733
87	0x3d071d38	0.03298685
88	0xbc32945e	-0.010899631
89	0x3dee978a	0.116499975
90	0x3d227139	0.03965876
91	0xbdaa7fbc	-0.08325145
92	0x3ce08270	0.027405947
93	0x3e119b16	0.14219317
94	0xbd24a923	-0.040200364
95	0x3ce12362	0.027482692
96	0x3d9f7e12	0.07787718
97	0xbdbc9af5	-0.09209243
98	0xbdb2552d	-0.08707652
99	0x3cd864bb	0.02641522
100	0xbd675c08	-0.056484252
101	0xbc2ec309	-0.010666617
102	0xbd2c3cc3	-0.042050134
103	0x3c4e8e95	0.012607236
104	0xbdb10bbc	-0.08644816
105	0xbdde97d2	-0.10868801
106	0xbe0095f8	-0.12557209
107	0xbcc75399	-0.024331855
108	0xbdd54411	-0.10413373
109	0x3cbc0007	0.022949232
110	0xbc790d3f	-0.015200912
111	0xbbefdf49	-0.007320319
112	0x3db7c0e1	0.089723356
113	0x3de8faed	0.11375985
114	0xbda7c70a	-0.081922606
115	0x3ce15988	0.027508512
116	0xbd8df53d	-0.06931541
117	0xbd2c7e1e	-0.042112462
118	0x3dd1ebe7	0.10250073
119	0x3d0be335	0.03415223
120	0x3d418979	0.047250245
121	0x3c63c323	0.013901505
122	0x3da93512	0.082620755
123	0xbdf8975d	-0.12138245
124	0x3dc2b254	0.0950667
125	0x3d0cbd58	0.03436026
126	0x3d7cf8e9	0.061760817
127	0xbd432f97	-0.047652807
128	0xbe057dde	-0.13036296
129	0x3c684968	0.014177658
130	0xbde81da5	-0.11333779
131	0xbdd4c912	-0.103899136
132	0x3d7f9a7a	0.06240318
133	0x3d9d8fe9	0.07693464
134	0xbde60f79	-0.1123342
135	0x3e088e4c	0.13335532
136	0x3ccd8096	0.025085729
137	0x3a7bd8fc	0.00096072233
138	0x3cc081d6	0.02349941
139	0xbda19b13	-0.07890906
140	0xbdb3bdd6	-0.08776443
141	0x3db66f1e	0.08907913
142	0xbccac6e3	-0.02475304
143	0x3d15d4e3	0.036579978
144	0x3d89c40d	0.06726847
145	0xbc6f5080	-0.014606595
146	0xbdfdf0b5	-0.12399427
147	0xbd40a118	-0.04702863
148	0xbcbe43eb	-0.023225745
149	0xbdbe4990	-0.09291375
150	0x3d5a4285	0.053286094
151	0xbe0e01d2	-0.13867882
152	0x3e01e289	0.12684073
153	0x3d6cf8ef	0.05785459
154	0x3d0a0c63	0.03370322
155	0x3dd97445	0.1061788
156	0x3d4a0aec	0.049326822
157	0xbc159b9f	-0.009131341
158	0x3c9569b7	0.018238885
159	0x3c3a2b62	0.011362882
160	0xbdfa33a3	-0.1221688
161	0x3dbaa890	0.09114182
162	0xbdc480c9	-0.09594876
163	0x3db8131d	0.089880206
164	0x3ddde17a	0.10834022
165	0xbd9a93ef	-0.07547747
166	0x3de406c9	0.11134107
167	0xbcc2cab8	-0.023778304
168	0xbde749b4	-0.11293355
169	0x3d40a1fb	0.047029477
170	0x3d265fb9	0.040618632
171	0xbd96d452	-0.07364716
172	0x3df26e5c	0.11837456
173	0x3cbc9540	0.023020387
174	0xbd655010	-0.055984557
175	0xbdd730e7	-0.10507374
176	0xbce33587	-0.027735485
177	0xbd962fee	-0.073333606
178	0x3d8c556b	0.0685223
179	0x3e029382	0.12751582
180	0x3dfd666f	0.12373053
181	0x3d8a98f7	0.06767457
182	0xbe0ac77f	-0.13552664
183	0xbd180f95	-0.037124235
184	0xbde72c79	-0.11287779
185	0xbdda66f5	-0.10664169
186	0xbd83d818	-0.06437701
187	0x3de6281d	0.1123812
188	0x3dae353d	0.08506248
189	0xbdd67e49	-0.10473306
190	0xbdeb63fe	-0.11493681
191	0x3dcd5963	0.10026815
192	0xbc56a015	-0.01309969
193	0xbe09459c	-0.1340546
194	0x3dba87e6	0.09107952
195	0xbe0bbfc2	-0.13647369
196	0x3dd7340a	0.105079725
197	0xbd8be0ea	-0.06830008
198	0xbd86045c	-0.065438
199	0x3d99d7d5	0.0751187
200	0xbd6dd53d	-0.058064688
201	0x3c2ad219	0.010426068
202	0x3d45c80d	0.048286486
203	0xbdde652a	-0.10859139
204	0xbe0e3bde	-0.13890025
205	0x3e18d1ce	0.14923784
206	0x3d9bb3c2	0.076026455
207	0x3d1a0cbf	0.037609812
208	0xbdf4fdde	-0.11962484
209	0xbde60529	-0.11231453
210	0xbd737bec	-0.059444353
211	0xbdbc5fbb	-0.09197947
212	0x3d19a242	0.037508257
213	0x3de1f1e9	0.11032469
214	0xbd97ba36	-0.07408564
215	0x3d3376e1	0.043814544
216	0x3d8af269	0.06784517
217	0xbda2fdd8	-0.07958573
218	0xbd901333	-0.07034912
219	0x3d839ff3	0.06426992
220	0x3db978d1	0.09056247
221	0x3cff43cd	0.03116026
222	0xbd5a4a9c	-0.05329381
223	0x3c825502	0.015909676
224	0xbdbbe20c	-0.091739744
225	0xbcb9f49c	-0.022699647
226	0x3bd83690	0.006598301
227	0x3cee5cf4	0.029097058
228	0xbdbb5b0b	-0.091482244
229	0x3d6e580c	0.058189437
230	0xbe17fa6d	-0.14841624
231	0x3df57a73	0.11986246
232	0xbc667aad	-0.014067334
233	0x3e0aa67c	0.13540071
234	0xbcdebec5	-0.027190575
235	0xbd1ba68b	-0.038000625
236	0xbdc3b5ea	-0.09556182
237	0x3dcfb1fa	0.10141368
238	0xbdbfcad5	-0.09364859
239	0x3daa5445	0.083168544
240	0xbd3914fd	-0.04518603
241	0xbbba3430	-0.0056824908
242	0xbe18a72c	-0.14907521
243	0xbcbe89ca	-0.023259062
244	0x3d1acb5b	0.03779159
245	0xbe09f985	-0.1347409
246	0xbc988010	-0.018615752
247	0x3d6cc223	0.05780233
248	0x3d0d3e71	0.034483377
249	0xbd96827f	-0.07349109
250	0x3ca96c03	0.020681387
251	0x3d4cc8cc	0.049996182
252	0x3d12427f	0.035707947
253	0xbc1d670d	-0.009607089
254	0x3e1d711c	0.15375179
255	0x3bdf4c09	0.006814484

model.head1.4.bias f4 [24]
0	0xbd44d831	-0.04805774
1	0x3e127c8f	0.14305328
2	0x3daa645c	0.08319923
3	0x3cc69e61	0.024245443
4	0x3da97066	0.082733914
5	0x3d8d95eb	0.0691336
6	0x3d97ef2d	0.07418666
7	0x3d22bc6f	0.039730486
8	0xbda55a93	-0.08073916
9	0xbdd80bcc	-0.10549125
10	0x3e058ab0	0.13041186
11	0x3d06da86	0.032923244
12	0x3dae9bf1	0.08525837
13	0x3d4a4af4	0.049387887
14	0xbacc3a8a	-0.0015581411
15	0x3e0d9b6c	0.1382882
16	0x3bcc5edd	0.0062368945
17	0x3d33c725	0.04389109
18	0xbd81492b	-0.06312784
19	0xbd222b73	-0.039592218
20	0xbdfeedde	-0.12447713
21	0xbdf2c57e	-0.11854075
22	0xbd09a2d0	-0.033602536
23	0x3de05da7	0.10955363

model.revin_layer.affine_weight f4 [4]
0	0x3f7bd1fc	0.98367286
1	0x3f7c2699	0.98496395
2	0x3f7e5ffb	0.99365205
3	0x3f81d884	1.01442

model.revin_layer.affine_bias f4 [4]
0	0xb97064c5	-0.00022925723
1	0x3b900a47	0.0043957564
2	0xbbb6f850	-0.0055838004
3	0xba915b48	-0.0011089826
